7767517
1327 1646
Input                    in0                      0 1 in0
Input                    in1                      0 1 in1
Input                    in2                      0 1 in2
Split                    splitncnn_0              1 2 in2 3 4
Input                    in3                      0 1 in3
Split                    splitncnn_1              1 4 in3 6 7 8 9
Input                    in4                      0 1 in4
Split                    splitncnn_2              1 3 in4 11 12 13
Input                    in5                      0 1 in5
Split                    splitncnn_3              1 2 in5 15 16
Input                    in6                      0 1 in6
Split                    splitncnn_4              1 2 in6 18 19
Input                    in7                      0 1 in7
Split                    splitncnn_5              1 4 in7 21 22 23 24
Input                    in8                      0 1 in8
Split                    splitncnn_6              1 3 in8 26 27 28
Input                    in9                      0 1 in9
Split                    splitncnn_7              1 2 in9 30 31
Input                    in10                     0 1 in10
Split                    splitncnn_8              1 2 in10 33 34
Input                    in11                     0 1 in11
Split                    splitncnn_9              1 4 in11 36 37 38 39
Input                    in12                     0 1 in12
Split                    splitncnn_10             1 3 in12 41 42 43
Input                    in13                     0 1 in13
Split                    splitncnn_11             1 2 in13 45 46
Input                    in14                     0 1 in14
Split                    splitncnn_12             1 2 in14 48 49
Input                    in15                     0 1 in15
Split                    splitncnn_13             1 4 in15 51 52 53 54
Input                    in16                     0 1 in16
Split                    splitncnn_14             1 3 in16 56 57 58
Input                    in17                     0 1 in17
Split                    splitncnn_15             1 2 in17 60 61
Input                    in18                     0 1 in18
Split                    splitncnn_16             1 2 in18 63 64
Input                    in19                     0 1 in19
Split                    splitncnn_17             1 4 in19 66 67 68 69
Input                    in20                     0 1 in20
Split                    splitncnn_18             1 3 in20 71 72 73
Input                    in21                     0 1 in21
Split                    splitncnn_19             1 2 in21 75 76
Input                    in22                     0 1 in22
Split                    splitncnn_20             1 2 in22 78 79
Input                    in23                     0 1 in23
Split                    splitncnn_21             1 4 in23 81 82 83 84
Input                    in24                     0 1 in24
Split                    splitncnn_22             1 3 in24 86 87 88
Input                    in25                     0 1 in25
Split                    splitncnn_23             1 2 in25 90 91
Input                    in26                     0 1 in26
Split                    splitncnn_24             1 2 in26 93 94
Input                    in27                     0 1 in27
Split                    splitncnn_25             1 4 in27 96 97 98 99
Input                    in28                     0 1 in28
Split                    splitncnn_26             1 3 in28 101 102 103
Input                    in29                     0 1 in29
Split                    splitncnn_27             1 2 in29 105 106
MemoryData               encoder.encoders.3.encoder.layers.1 0 1 107 0=1
MemoryData               encoder.encoders.3.encoder.layers.0 0 1 108 0=1
MemoryData               encoder.encoders.3.encoder.encoder_pos 0 1 109 0=384 1=11 2=1
MemoryData               encoder.encoders.2.encoder.layers.2 0 1 110 0=1
MemoryData               encoder.encoders.2.encoder.layers.1 0 1 111 0=1
MemoryData               encoder.encoders.2.encoder.layers.0 0 1 112 0=1
MemoryData               encoder.encoders.2.encoder.encoder_pos 0 1 113 0=384 1=23 2=1
MemoryData               encoder.encoders.1.encoder.layers.3 0 1 114 0=1
MemoryData               encoder.encoders.1.encoder.layers.2 0 1 115 0=1
MemoryData               encoder.encoders.1.encoder.layers.1 0 1 116 0=1
MemoryData               encoder.encoders.1.encoder.layers.0 0 1 117 0=1
MemoryData               encoder.encoders.1.encoder.encoder_pos 0 1 118 0=384 1=47 2=1
MemoryData               encoder.encoders.0.layers.1 0 1 119 0=1
MemoryData               encoder.encoders.0.layers.0 0 1 120 0=1
MemoryData               encoder.encoders.0.encoder_pos 0 1 121 0=384 1=95 2=1
ExpandDims               unsqueeze_470            1 1 in0 122 -23303=1,0
Convolution              conv_138                 1 1 122 123 0=8 1=3 11=3 12=1 13=1 14=0 2=1 3=1 4=1 5=1 6=72
Split                    splitncnn_28             1 2 123 124 125
BinaryOp                 sub_0                    1 1 124 126 0=1 1=1 2=1.000000e+00
Sigmoid                  sigmoid_22               1 1 126 127
BinaryOp                 mul_1                    2 1 125 127 128 0=2
Convolution              conv_139                 1 1 128 129 0=32 1=3 11=3 12=1 13=2 14=0 2=1 3=2 4=0 5=1 6=2304
Split                    splitncnn_29             1 2 129 130 131
BinaryOp                 sub_2                    1 1 130 132 0=1 1=1 2=1.000000e+00
Sigmoid                  sigmoid_23               1 1 132 133
BinaryOp                 mul_3                    2 1 131 133 134 0=2
Convolution              conv_140                 1 1 134 135 0=128 1=3 11=3 12=1 13=1 14=0 2=1 3=2 4=0 5=1 6=36864
Split                    splitncnn_30             1 2 135 136 137
BinaryOp                 sub_4                    1 1 136 138 0=1 1=1 2=1.000000e+00
Sigmoid                  sigmoid_24               1 1 138 139
BinaryOp                 mul_5                    2 1 137 139 140 0=2
BinaryOp                 sub_6                    1 1 in1 141 0=1 1=1 2=7.000000e+00
BinaryOp                 div_7                    1 1 141 142 0=3 1=1 2=2.000000e+00
UnaryOp                  floor_8                  1 1 142 out1 0=2
Crop                     crop_563                 1 1 79 144 -23310=1,1 -23311=1,0 -23309=1,0
Reshape                  encoder.encoders.0.state_select_list.0_ncnnreshape0 1 1 144 145 0=0 1=0
Crop                     crop_564                 1 1 94 146 -23310=1,1 -23311=1,0 -23309=1,0
Reshape                  pnnx_unique_11_ncnnreshape0 1 1 146 147 0=0 1=0
Permute                  permute_418              1 1 140 148 0=2
Reshape                  reshape_267              1 1 148 149 0=2432 1=-1
InnerProduct             linear_141               1 1 149 150 0=384 1=1 2=933888
Split                    splitncnn_31             1 4 150 151 152 153 154
InnerProduct             linear_142               1 1 154 155 0=1024 1=1 2=393216
Split                    splitncnn_32             1 2 155 156 157
BinaryOp                 sub_9                    1 1 156 158 0=1 1=1 2=1.000000e+00
Sigmoid                  sigmoid_25               1 1 158 159
BinaryOp                 mul_10                   2 1 157 159 160 0=2
InnerProduct             linear_143               1 1 160 161 0=384 1=1 2=393216
BinaryOp                 add_11                   2 1 151 161 162 0=0
Split                    splitncnn_33             1 2 162 163 164
Crop                     select_0                 1 1 19 165 -23310=1,1 -23311=1,0 -23309=1,0
Crop                     select_1                 1 1 4 166 -23310=1,1 -23311=1,0 -23309=1,0
PoolingModuleNoProj      pooling_modul_no_proj_471 3 3 164 166 165 167 168 169
InnerProduct             linear_144               1 1 167 170 0=384 1=0 2=147456
BinaryOp                 add_12                   2 1 163 170 171 0=0
Split                    splitncnn_34             1 2 171 172 173
Crop                     select_2                 1 1 34 174 -23310=1,1 -23311=1,0 -23309=1,0
Crop                     select_3                 1 1 49 175 -23310=1,1 -23311=1,0 -23309=1,0
InnerProduct             linear_145               1 1 173 176 0=512 1=1 2=196608
Slice                    tensor_split_0           1 4 176 177 178 179 180 -23300=4,192,192,96,-233 1=1
Concat                   cat_0                    2 1 175 179 181 0=0
Reshape                  reshape_268              1 1 181 182 0=12 1=8 2=80
Reshape                  reshape_269              1 1 177 183 0=24 1=8 2=16
Reshape                  reshape_270              1 1 180 184 0=4 1=8 2=16
Concat                   cat_1                    2 1 174 178 185 0=0
Reshape                  reshape_271              1 1 185 186 0=24 1=8 2=80
InnerProduct             linear_146               1 1 121 187 0=32 1=0 2=12288
Reshape                  reshape_272              1 1 187 188 0=4 1=8 2=95
Permute                  permute_486              1 1 188 189 0=3
Split                    splitncnn_35             1 2 189 190 191
Permute                  permute_484              1 1 184 192 0=2
MatMul                   matmul_385               2 1 192 191 193
Permute                  permute_485              1 1 186 194 0=3
Permute                  permute_483              1 1 183 195 0=2
MatMul                   matmul_386               2 1 195 194 196
TensorAsStrided          tensor_as_strided_585    1 1 193 197 -23300=3,8,16,80 -23301=3,1520,94,1 2=15
BinaryOp                 add_13                   2 1 196 197 198 0=0
Reshape                  view_352                 1 1 198 199 0=80 1=16 2=8
Softmax                  softmax_80               1 1 199 200 0=-1 1=1
Split                    splitncnn_36             1 2 200 201 202
Permute                  permute_482              1 1 182 203 0=2
MatMul                   bmm_363                  2 1 202 203 204
Permute                  permute_487              1 1 204 205 0=2
Reshape                  reshape_273              1 1 205 206 0=96 1=16
InnerProduct             linear_147               1 1 206 207 0=384 1=1 2=36864
BinaryOp                 add_14                   2 1 172 207 208 0=0
Split                    splitncnn_37             1 2 208 209 210
Permute                  permute_420              1 1 210 211 0=1
Convolution1D            conv1d_94                1 1 211 212 0=768 1=1 2=1 3=1 4=0 5=1 6=294912
GLU                      glu_0                    1 1 212 213 0=0
Concat                   cat_2                    2 1 145 213 214 0=1
ConvolutionDepthWise1D   convdw1d_602             1 1 214 215 0=384 1=31 2=1 3=1 4=0 5=1 6=11904 7=384
Split                    splitncnn_38             1 2 215 216 217
BinaryOp                 sub_15                   1 1 216 218 0=1 1=1 2=1.000000e+00
Sigmoid                  sigmoid_26               1 1 218 219
BinaryOp                 mul_16                   2 1 217 219 220 0=2
Convolution1D            conv1d_95                1 1 220 221 0=384 1=1 2=1 3=1 4=0 5=1 6=147456
Permute                  permute_421              1 1 221 222 0=1
BinaryOp                 add_17                   2 1 209 222 223 0=0
Split                    splitncnn_39             1 2 223 224 225
InnerProduct             linear_148               1 1 225 226 0=1024 1=1 2=393216
Split                    splitncnn_40             1 2 226 227 228
BinaryOp                 sub_18                   1 1 227 229 0=1 1=1 2=1.000000e+00
Sigmoid                  sigmoid_27               1 1 229 230
BinaryOp                 mul_19                   2 1 228 230 231 0=2
InnerProduct             linear_149               1 1 231 232 0=384 1=1 2=393216
BinaryOp                 add_20                   2 1 224 232 233 0=0
Split                    splitncnn_41             1 2 233 234 235
Crop                     select_4                 1 1 64 236 -23310=1,1 -23311=1,0 -23309=1,0
InnerProduct             linear_150               1 1 235 237 0=96 1=0 2=36864
Concat                   cat_3                    2 1 236 237 238 0=0
Reshape                  reshape_274              1 1 238 239 0=12 1=8 2=80
Permute                  permute_488              1 1 239 240 0=2
MatMul                   bmm_364                  2 1 201 240 241
Permute                  permute_489              1 1 241 242 0=2
Reshape                  reshape_275              1 1 242 243 0=96 1=16
InnerProduct             linear_151               1 1 243 244 0=384 1=1 2=36864
BinaryOp                 add_21                   2 1 234 244 245 0=0
Split                    splitncnn_42             1 2 245 246 247
Permute                  permute_422              1 1 247 248 0=1
Convolution1D            conv1d_96                1 1 248 249 0=768 1=1 2=1 3=1 4=0 5=1 6=294912
GLU                      glu_1                    1 1 249 250 0=0
Concat                   cat_4                    2 1 147 250 251 0=1
ConvolutionDepthWise1D   convdw1d_603             1 1 251 252 0=384 1=31 2=1 3=1 4=0 5=1 6=11904 7=384
Split                    splitncnn_43             1 2 252 253 254
BinaryOp                 sub_22                   1 1 253 255 0=1 1=1 2=1.000000e+00
Sigmoid                  sigmoid_28               1 1 255 256
BinaryOp                 mul_23                   2 1 254 256 257 0=2
Convolution1D            conv1d_97                1 1 257 258 0=384 1=1 2=1 3=1 4=0 5=1 6=147456
Permute                  permute_423              1 1 258 259 0=1
BinaryOp                 add_24                   2 1 246 259 260 0=0
Split                    splitncnn_44             1 2 260 261 262
InnerProduct             linear_152               1 1 262 263 0=1024 1=1 2=393216
Split                    splitncnn_45             1 2 263 264 265
BinaryOp                 sub_25                   1 1 264 266 0=1 1=1 2=1.000000e+00
Sigmoid                  sigmoid_29               1 1 266 267
BinaryOp                 mul_26                   2 1 265 267 268 0=2
InnerProduct             linear_153               1 1 268 269 0=384 1=1 2=393216
BinaryOp                 add_27                   2 1 261 269 270 0=0
Split                    splitncnn_46             1 3 270 271 272 273
BinaryOp                 mul_28                   2 1 271 272 274 0=2
Reduction                mean_407                 1 1 274 275 0=3 1=0 -23303=1,-1 4=1 5=1
BinaryOp                 add_29                   1 1 275 276 0=0 1=1 2=2.500000e-01
BinaryOp                 pow_30                   1 1 276 277 0=6 1=1 2=-5.000000e-01
BinaryOp                 mul_31                   2 1 273 277 278 0=2
BinaryOp                 sub_32                   2 1 278 152 279 0=1
BinaryOp                 mul_33                   2 1 279 120 280 0=2
BinaryOp                 add_34                   2 1 153 280 281 0=0
Split                    splitncnn_47             1 4 281 282 283 284 285
Crop                     crop_565                 1 1 78 286 -23310=1,2 -23311=1,0 -23309=1,1
Reshape                  encoder.encoders.0.state_select_list.1_ncnnreshape0 1 1 286 287 0=0 1=0
Crop                     crop_566                 1 1 93 288 -23310=1,2 -23311=1,0 -23309=1,1
Reshape                  pnnx_unique_18_ncnnreshape0 1 1 288 289 0=0 1=0
InnerProduct             linear_154               1 1 285 290 0=1024 1=1 2=393216
Split                    splitncnn_48             1 2 290 291 292
BinaryOp                 sub_35                   1 1 291 293 0=1 1=1 2=1.000000e+00
Sigmoid                  sigmoid_30               1 1 293 294
BinaryOp                 mul_36                   2 1 292 294 295 0=2
InnerProduct             linear_155               1 1 295 296 0=384 1=1 2=393216
BinaryOp                 add_37                   2 1 282 296 297 0=0
Split                    splitncnn_49             1 2 297 298 299
Crop                     select_5                 1 1 18 300 -23310=1,2 -23311=1,0 -23309=1,1
Crop                     select_6                 1 1 3 301 -23310=1,2 -23311=1,0 -23309=1,1
PoolingModuleNoProj      pooling_modul_no_proj_472 3 3 299 301 300 302 303 304
InnerProduct             linear_156               1 1 302 305 0=384 1=0 2=147456
BinaryOp                 add_38                   2 1 298 305 306 0=0
Split                    splitncnn_50             1 2 306 307 308
Crop                     select_7                 1 1 33 309 -23310=1,2 -23311=1,0 -23309=1,1
Crop                     select_8                 1 1 48 310 -23310=1,2 -23311=1,0 -23309=1,1
InnerProduct             linear_157               1 1 308 311 0=512 1=1 2=196608
Slice                    tensor_split_1           1 4 311 312 313 314 315 -23300=4,192,192,96,-233 1=1
Concat                   cat_5                    2 1 310 314 316 0=0
Reshape                  reshape_276              1 1 316 317 0=12 1=8 2=80
Reshape                  reshape_277              1 1 312 318 0=24 1=8 2=16
Reshape                  reshape_278              1 1 315 319 0=4 1=8 2=16
Concat                   cat_6                    2 1 309 313 320 0=0
Reshape                  reshape_279              1 1 320 321 0=24 1=8 2=80
Permute                  permute_492              1 1 319 322 0=2
MatMul                   matmul_387               2 1 322 190 323
Permute                  permute_493              1 1 321 324 0=3
Permute                  permute_491              1 1 318 325 0=2
MatMul                   matmul_388               2 1 325 324 326
TensorAsStrided          tensor_as_strided_586    1 1 323 327 -23300=3,8,16,80 -23301=3,1520,94,1 2=15
BinaryOp                 add_39                   2 1 326 327 328 0=0
Reshape                  view_353                 1 1 328 329 0=80 1=16 2=8
Softmax                  softmax_81               1 1 329 330 0=-1 1=1
Split                    splitncnn_51             1 2 330 331 332
Permute                  permute_490              1 1 317 333 0=2
MatMul                   bmm_365                  2 1 332 333 334
Permute                  permute_494              1 1 334 335 0=2
Reshape                  reshape_280              1 1 335 336 0=96 1=16
InnerProduct             linear_158               1 1 336 337 0=384 1=1 2=36864
BinaryOp                 add_40                   2 1 307 337 338 0=0
Split                    splitncnn_52             1 2 338 339 340
Permute                  permute_424              1 1 340 341 0=1
Convolution1D            conv1d_98                1 1 341 342 0=768 1=1 2=1 3=1 4=0 5=1 6=294912
GLU                      glu_2                    1 1 342 343 0=0
Concat                   cat_7                    2 1 287 343 344 0=1
ConvolutionDepthWise1D   convdw1d_604             1 1 344 345 0=384 1=31 2=1 3=1 4=0 5=1 6=11904 7=384
Split                    splitncnn_53             1 2 345 346 347
BinaryOp                 sub_41                   1 1 346 348 0=1 1=1 2=1.000000e+00
Sigmoid                  sigmoid_31               1 1 348 349
BinaryOp                 mul_42                   2 1 347 349 350 0=2
Convolution1D            conv1d_99                1 1 350 351 0=384 1=1 2=1 3=1 4=0 5=1 6=147456
Permute                  permute_425              1 1 351 352 0=1
BinaryOp                 add_43                   2 1 339 352 353 0=0
Split                    splitncnn_54             1 2 353 354 355
InnerProduct             linear_159               1 1 355 356 0=1024 1=1 2=393216
Split                    splitncnn_55             1 2 356 357 358
BinaryOp                 sub_44                   1 1 357 359 0=1 1=1 2=1.000000e+00
Sigmoid                  sigmoid_32               1 1 359 360
BinaryOp                 mul_45                   2 1 358 360 361 0=2
InnerProduct             linear_160               1 1 361 362 0=384 1=1 2=393216
BinaryOp                 add_46                   2 1 354 362 363 0=0
Split                    splitncnn_56             1 2 363 364 365
Crop                     select_9                 1 1 63 366 -23310=1,2 -23311=1,0 -23309=1,1
InnerProduct             linear_161               1 1 365 367 0=96 1=0 2=36864
Concat                   cat_8                    2 1 366 367 368 0=0
Reshape                  reshape_281              1 1 368 369 0=12 1=8 2=80
Permute                  permute_495              1 1 369 370 0=2
MatMul                   bmm_366                  2 1 331 370 371
Permute                  permute_496              1 1 371 372 0=2
Reshape                  reshape_282              1 1 372 373 0=96 1=16
InnerProduct             linear_162               1 1 373 374 0=384 1=1 2=36864
BinaryOp                 add_47                   2 1 364 374 375 0=0
Split                    splitncnn_57             1 2 375 376 377
Permute                  permute_426              1 1 377 378 0=1
Convolution1D            conv1d_100               1 1 378 379 0=768 1=1 2=1 3=1 4=0 5=1 6=294912
GLU                      glu_3                    1 1 379 380 0=0
Concat                   cat_9                    2 1 289 380 381 0=1
ConvolutionDepthWise1D   convdw1d_605             1 1 381 382 0=384 1=31 2=1 3=1 4=0 5=1 6=11904 7=384
Split                    splitncnn_58             1 2 382 383 384
BinaryOp                 sub_48                   1 1 383 385 0=1 1=1 2=1.000000e+00
Sigmoid                  sigmoid_33               1 1 385 386
BinaryOp                 mul_49                   2 1 384 386 387 0=2
Convolution1D            conv1d_101               1 1 387 388 0=384 1=1 2=1 3=1 4=0 5=1 6=147456
Permute                  permute_427              1 1 388 389 0=1
BinaryOp                 add_50                   2 1 376 389 390 0=0
Split                    splitncnn_59             1 2 390 391 392
InnerProduct             linear_163               1 1 392 393 0=1024 1=1 2=393216
Split                    splitncnn_60             1 2 393 394 395
BinaryOp                 sub_51                   1 1 394 396 0=1 1=1 2=1.000000e+00
Sigmoid                  sigmoid_34               1 1 396 397
BinaryOp                 mul_52                   2 1 395 397 398 0=2
InnerProduct             linear_164               1 1 398 399 0=384 1=1 2=393216
BinaryOp                 add_53                   2 1 391 399 400 0=0
Split                    splitncnn_61             1 3 400 401 402 403
BinaryOp                 mul_54                   2 1 401 402 404 0=2
Reduction                mean_408                 1 1 404 405 0=3 1=0 -23303=1,-1 4=1 5=1
BinaryOp                 add_55                   1 1 405 406 0=0 1=1 2=2.500000e-01
BinaryOp                 pow_56                   1 1 406 407 0=6 1=1 2=-5.000000e-01
BinaryOp                 mul_57                   2 1 403 407 408 0=2
BinaryOp                 sub_58                   2 1 408 283 409 0=1
BinaryOp                 mul_59                   2 1 409 119 410 0=2
BinaryOp                 add_60                   2 1 284 410 411 0=0
Split                    splitncnn_62             1 2 411 412 413
MemoryData               encoder.encoders.1.downsample 0 1 414 0=384 1=1 2=1
Reshape                  reshape_283              1 1 413 415 0=384 1=2 2=8
Split                    splitncnn_63             1 2 415 416 417
BinaryOp                 mul_61                   2 1 416 414 418 0=2
Reduction                sum_464                  1 1 418 419 0=0 1=0 -23303=1,-1 4=1 5=1
Softmax                  softmax_82               1 1 419 420 0=1 1=1
BinaryOp                 mul_62                   2 1 417 420 421 0=2
Reduction                sum_465                  1 1 421 422 0=0 1=0 -23303=1,1 4=0 5=1
Crop                     crop_567                 1 1 84 423 -23310=1,1 -23311=1,0 -23309=1,0
Reshape                  encoder.encoders.1.encoder.state_select_list.0_ncnnreshape0 1 1 423 424 0=0 1=0
Crop                     crop_568                 1 1 99 425 -23310=1,1 -23311=1,0 -23309=1,0
Reshape                  pnnx_unique_26_ncnnreshape0 1 1 425 426 0=0 1=0
Split                    splitncnn_64             1 4 422 427 428 429 430
InnerProduct             linear_165               1 1 430 431 0=1024 1=1 2=393216
Split                    splitncnn_65             1 2 431 432 433
BinaryOp                 sub_63                   1 1 432 434 0=1 1=1 2=1.000000e+00
Sigmoid                  sigmoid_35               1 1 434 435
BinaryOp                 mul_64                   2 1 433 435 436 0=2
InnerProduct             linear_166               1 1 436 437 0=384 1=1 2=393216
BinaryOp                 add_65                   2 1 427 437 438 0=0
Split                    splitncnn_66             1 2 438 439 440
Crop                     select_10                1 1 24 441 -23310=1,1 -23311=1,0 -23309=1,0
Crop                     select_11                1 1 9 442 -23310=1,1 -23311=1,0 -23309=1,0
PoolingModuleNoProj      pooling_modul_no_proj_473 3 3 440 442 441 443 444 445
InnerProduct             linear_167               1 1 443 446 0=384 1=0 2=147456
BinaryOp                 add_66                   2 1 439 446 447 0=0
Split                    splitncnn_67             1 2 447 448 449
Crop                     select_12                1 1 39 450 -23310=1,1 -23311=1,0 -23309=1,0
Crop                     select_13                1 1 54 451 -23310=1,1 -23311=1,0 -23309=1,0
InnerProduct             linear_168               1 1 449 452 0=512 1=1 2=196608
Slice                    tensor_split_2           1 4 452 453 454 455 456 -23300=4,192,192,96,-233 1=1
Concat                   cat_10                   2 1 451 455 457 0=0
Reshape                  reshape_284              1 1 457 458 0=12 1=8 2=40
Reshape                  reshape_285              1 1 453 459 0=24 1=8 2=8
Reshape                  reshape_286              1 1 456 460 0=4 1=8 2=8
Concat                   cat_11                   2 1 450 454 461 0=0
Reshape                  reshape_287              1 1 461 462 0=24 1=8 2=40
InnerProduct             linear_169               1 1 118 463 0=32 1=0 2=12288
Reshape                  reshape_288              1 1 463 464 0=4 1=8 2=47
Permute                  permute_501              1 1 464 465 0=3
Split                    splitncnn_68             1 4 465 466 467 468 469
Permute                  permute_499              1 1 460 470 0=2
MatMul                   matmul_389               2 1 470 469 471
Permute                  permute_500              1 1 462 472 0=3
Permute                  permute_498              1 1 459 473 0=2
MatMul                   matmul_390               2 1 473 472 474
TensorAsStrided          tensor_as_strided_587    1 1 471 475 -23300=3,8,8,40 -23301=3,376,46,1 2=7
BinaryOp                 add_67                   2 1 474 475 476 0=0
Reshape                  view_354                 1 1 476 477 0=40 1=8 2=8
Softmax                  softmax_83               1 1 477 478 0=-1 1=1
Split                    splitncnn_69             1 2 478 479 480
Permute                  permute_497              1 1 458 481 0=2
MatMul                   bmm_367                  2 1 480 481 482
Permute                  permute_502              1 1 482 483 0=2
Reshape                  reshape_289              1 1 483 484 0=96 1=8
InnerProduct             linear_170               1 1 484 485 0=384 1=1 2=36864
BinaryOp                 add_68                   2 1 448 485 486 0=0
Split                    splitncnn_70             1 2 486 487 488
Permute                  permute_428              1 1 488 489 0=1
Convolution1D            conv1d_102               1 1 489 490 0=768 1=1 2=1 3=1 4=0 5=1 6=294912
GLU                      glu_4                    1 1 490 491 0=0
Concat                   cat_12                   2 1 424 491 492 0=1
ConvolutionDepthWise1D   convdw1d_606             1 1 492 493 0=384 1=31 2=1 3=1 4=0 5=1 6=11904 7=384
Split                    splitncnn_71             1 2 493 494 495
BinaryOp                 sub_69                   1 1 494 496 0=1 1=1 2=1.000000e+00
Sigmoid                  sigmoid_36               1 1 496 497
BinaryOp                 mul_70                   2 1 495 497 498 0=2
Convolution1D            conv1d_103               1 1 498 499 0=384 1=1 2=1 3=1 4=0 5=1 6=147456
Permute                  permute_429              1 1 499 500 0=1
BinaryOp                 add_71                   2 1 487 500 501 0=0
Split                    splitncnn_72             1 2 501 502 503
InnerProduct             linear_171               1 1 503 504 0=1024 1=1 2=393216
Split                    splitncnn_73             1 2 504 505 506
BinaryOp                 sub_72                   1 1 505 507 0=1 1=1 2=1.000000e+00
Sigmoid                  sigmoid_37               1 1 507 508
BinaryOp                 mul_73                   2 1 506 508 509 0=2
InnerProduct             linear_172               1 1 509 510 0=384 1=1 2=393216
BinaryOp                 add_74                   2 1 502 510 511 0=0
Split                    splitncnn_74             1 2 511 512 513
Crop                     select_14                1 1 69 514 -23310=1,1 -23311=1,0 -23309=1,0
InnerProduct             linear_173               1 1 513 515 0=96 1=0 2=36864
Concat                   cat_13                   2 1 514 515 516 0=0
Reshape                  reshape_290              1 1 516 517 0=12 1=8 2=40
Permute                  permute_503              1 1 517 518 0=2
MatMul                   bmm_368                  2 1 479 518 519
Permute                  permute_504              1 1 519 520 0=2
Reshape                  reshape_291              1 1 520 521 0=96 1=8
InnerProduct             linear_174               1 1 521 522 0=384 1=1 2=36864
BinaryOp                 add_75                   2 1 512 522 523 0=0
Split                    splitncnn_75             1 2 523 524 525
Permute                  permute_430              1 1 525 526 0=1
Convolution1D            conv1d_104               1 1 526 527 0=768 1=1 2=1 3=1 4=0 5=1 6=294912
GLU                      glu_5                    1 1 527 528 0=0
Concat                   cat_14                   2 1 426 528 529 0=1
ConvolutionDepthWise1D   convdw1d_607             1 1 529 530 0=384 1=31 2=1 3=1 4=0 5=1 6=11904 7=384
Split                    splitncnn_76             1 2 530 531 532
BinaryOp                 sub_76                   1 1 531 533 0=1 1=1 2=1.000000e+00
Sigmoid                  sigmoid_38               1 1 533 534
BinaryOp                 mul_77                   2 1 532 534 535 0=2
Convolution1D            conv1d_105               1 1 535 536 0=384 1=1 2=1 3=1 4=0 5=1 6=147456
Permute                  permute_431              1 1 536 537 0=1
BinaryOp                 add_78                   2 1 524 537 538 0=0
Split                    splitncnn_77             1 2 538 539 540
InnerProduct             linear_175               1 1 540 541 0=1024 1=1 2=393216
Split                    splitncnn_78             1 2 541 542 543
BinaryOp                 sub_79                   1 1 542 544 0=1 1=1 2=1.000000e+00
Sigmoid                  sigmoid_39               1 1 544 545
BinaryOp                 mul_80                   2 1 543 545 546 0=2
InnerProduct             linear_176               1 1 546 547 0=384 1=1 2=393216
BinaryOp                 add_81                   2 1 539 547 548 0=0
Split                    splitncnn_79             1 3 548 549 550 551
BinaryOp                 mul_82                   2 1 549 550 552 0=2
Reduction                mean_409                 1 1 552 553 0=3 1=0 -23303=1,-1 4=1 5=1
BinaryOp                 add_83                   1 1 553 554 0=0 1=1 2=2.500000e-01
BinaryOp                 pow_84                   1 1 554 555 0=6 1=1 2=-5.000000e-01
BinaryOp                 mul_85                   2 1 551 555 556 0=2
BinaryOp                 sub_86                   2 1 556 428 557 0=1
BinaryOp                 mul_87                   2 1 557 117 558 0=2
BinaryOp                 add_88                   2 1 429 558 559 0=0
Split                    splitncnn_80             1 4 559 560 561 562 563
Crop                     crop_569                 1 1 83 564 -23310=1,2 -23311=1,0 -23309=1,1
Reshape                  encoder.encoders.1.encoder.state_select_list.1_ncnnreshape0 1 1 564 565 0=0 1=0
Crop                     crop_570                 1 1 98 566 -23310=1,2 -23311=1,0 -23309=1,1
Reshape                  pnnx_unique_34_ncnnreshape0 1 1 566 567 0=0 1=0
InnerProduct             linear_177               1 1 563 568 0=1024 1=1 2=393216
Split                    splitncnn_81             1 2 568 569 570
BinaryOp                 sub_89                   1 1 569 571 0=1 1=1 2=1.000000e+00
Sigmoid                  sigmoid_40               1 1 571 572
BinaryOp                 mul_90                   2 1 570 572 573 0=2
InnerProduct             linear_178               1 1 573 574 0=384 1=1 2=393216
BinaryOp                 add_91                   2 1 560 574 575 0=0
Split                    splitncnn_82             1 2 575 576 577
Crop                     select_15                1 1 23 578 -23310=1,2 -23311=1,0 -23309=1,1
Crop                     select_16                1 1 8 579 -23310=1,2 -23311=1,0 -23309=1,1
PoolingModuleNoProj      pooling_modul_no_proj_474 3 3 577 579 578 580 581 582
InnerProduct             linear_179               1 1 580 583 0=384 1=0 2=147456
BinaryOp                 add_92                   2 1 576 583 584 0=0
Split                    splitncnn_83             1 2 584 585 586
Crop                     select_17                1 1 38 587 -23310=1,2 -23311=1,0 -23309=1,1
Crop                     select_18                1 1 53 588 -23310=1,2 -23311=1,0 -23309=1,1
InnerProduct             linear_180               1 1 586 589 0=512 1=1 2=196608
Slice                    tensor_split_3           1 4 589 590 591 592 593 -23300=4,192,192,96,-233 1=1
Concat                   cat_15                   2 1 588 592 594 0=0
Reshape                  reshape_292              1 1 594 595 0=12 1=8 2=40
Reshape                  reshape_293              1 1 590 596 0=24 1=8 2=8
Reshape                  reshape_294              1 1 593 597 0=4 1=8 2=8
Concat                   cat_16                   2 1 587 591 598 0=0
Reshape                  reshape_295              1 1 598 599 0=24 1=8 2=40
Permute                  permute_507              1 1 597 600 0=2
MatMul                   matmul_391               2 1 600 468 601
Permute                  permute_508              1 1 599 602 0=3
Permute                  permute_506              1 1 596 603 0=2
MatMul                   matmul_392               2 1 603 602 604
TensorAsStrided          tensor_as_strided_588    1 1 601 605 -23300=3,8,8,40 -23301=3,376,46,1 2=7
BinaryOp                 add_93                   2 1 604 605 606 0=0
Reshape                  view_355                 1 1 606 607 0=40 1=8 2=8
Softmax                  softmax_84               1 1 607 608 0=-1 1=1
Split                    splitncnn_84             1 2 608 609 610
Permute                  permute_505              1 1 595 611 0=2
MatMul                   bmm_369                  2 1 610 611 612
Permute                  permute_509              1 1 612 613 0=2
Reshape                  reshape_296              1 1 613 614 0=96 1=8
InnerProduct             linear_181               1 1 614 615 0=384 1=1 2=36864
BinaryOp                 add_94                   2 1 585 615 616 0=0
Split                    splitncnn_85             1 2 616 617 618
Permute                  permute_432              1 1 618 619 0=1
Convolution1D            conv1d_106               1 1 619 620 0=768 1=1 2=1 3=1 4=0 5=1 6=294912
GLU                      glu_6                    1 1 620 621 0=0
Concat                   cat_17                   2 1 565 621 622 0=1
ConvolutionDepthWise1D   convdw1d_608             1 1 622 623 0=384 1=31 2=1 3=1 4=0 5=1 6=11904 7=384
Split                    splitncnn_86             1 2 623 624 625
BinaryOp                 sub_95                   1 1 624 626 0=1 1=1 2=1.000000e+00
Sigmoid                  sigmoid_41               1 1 626 627
BinaryOp                 mul_96                   2 1 625 627 628 0=2
Convolution1D            conv1d_107               1 1 628 629 0=384 1=1 2=1 3=1 4=0 5=1 6=147456
Permute                  permute_433              1 1 629 630 0=1
BinaryOp                 add_97                   2 1 617 630 631 0=0
Split                    splitncnn_87             1 2 631 632 633
InnerProduct             linear_182               1 1 633 634 0=1024 1=1 2=393216
Split                    splitncnn_88             1 2 634 635 636
BinaryOp                 sub_98                   1 1 635 637 0=1 1=1 2=1.000000e+00
Sigmoid                  sigmoid_42               1 1 637 638
BinaryOp                 mul_99                   2 1 636 638 639 0=2
InnerProduct             linear_183               1 1 639 640 0=384 1=1 2=393216
BinaryOp                 add_100                  2 1 632 640 641 0=0
Split                    splitncnn_89             1 2 641 642 643
Crop                     select_19                1 1 68 644 -23310=1,2 -23311=1,0 -23309=1,1
InnerProduct             linear_184               1 1 643 645 0=96 1=0 2=36864
Concat                   cat_18                   2 1 644 645 646 0=0
Reshape                  reshape_297              1 1 646 647 0=12 1=8 2=40
Permute                  permute_510              1 1 647 648 0=2
MatMul                   bmm_370                  2 1 609 648 649
Permute                  permute_511              1 1 649 650 0=2
Reshape                  reshape_298              1 1 650 651 0=96 1=8
InnerProduct             linear_185               1 1 651 652 0=384 1=1 2=36864
BinaryOp                 add_101                  2 1 642 652 653 0=0
Split                    splitncnn_90             1 2 653 654 655
Permute                  permute_434              1 1 655 656 0=1
Convolution1D            conv1d_108               1 1 656 657 0=768 1=1 2=1 3=1 4=0 5=1 6=294912
GLU                      glu_7                    1 1 657 658 0=0
Concat                   cat_19                   2 1 567 658 659 0=1
ConvolutionDepthWise1D   convdw1d_609             1 1 659 660 0=384 1=31 2=1 3=1 4=0 5=1 6=11904 7=384
Split                    splitncnn_91             1 2 660 661 662
BinaryOp                 sub_102                  1 1 661 663 0=1 1=1 2=1.000000e+00
Sigmoid                  sigmoid_43               1 1 663 664
BinaryOp                 mul_103                  2 1 662 664 665 0=2
Convolution1D            conv1d_109               1 1 665 666 0=384 1=1 2=1 3=1 4=0 5=1 6=147456
Permute                  permute_435              1 1 666 667 0=1
BinaryOp                 add_104                  2 1 654 667 668 0=0
Split                    splitncnn_92             1 2 668 669 670
InnerProduct             linear_186               1 1 670 671 0=1024 1=1 2=393216
Split                    splitncnn_93             1 2 671 672 673
BinaryOp                 sub_105                  1 1 672 674 0=1 1=1 2=1.000000e+00
Sigmoid                  sigmoid_44               1 1 674 675
BinaryOp                 mul_106                  2 1 673 675 676 0=2
InnerProduct             linear_187               1 1 676 677 0=384 1=1 2=393216
BinaryOp                 add_107                  2 1 669 677 678 0=0
Split                    splitncnn_94             1 3 678 679 680 681
BinaryOp                 mul_108                  2 1 679 680 682 0=2
Reduction                mean_410                 1 1 682 683 0=3 1=0 -23303=1,-1 4=1 5=1
BinaryOp                 add_109                  1 1 683 684 0=0 1=1 2=2.500000e-01
BinaryOp                 pow_110                  1 1 684 685 0=6 1=1 2=-5.000000e-01
BinaryOp                 mul_111                  2 1 681 685 686 0=2
BinaryOp                 sub_112                  2 1 686 561 687 0=1
BinaryOp                 mul_113                  2 1 687 116 688 0=2
BinaryOp                 add_114                  2 1 562 688 689 0=0
Split                    splitncnn_95             1 4 689 690 691 692 693
Crop                     crop_571                 1 1 82 694 -23310=1,3 -23311=1,0 -23309=1,2
Reshape                  encoder.encoders.1.encoder.state_select_list.2_ncnnreshape0 1 1 694 695 0=0 1=0
Crop                     crop_572                 1 1 97 696 -23310=1,3 -23311=1,0 -23309=1,2
Reshape                  pnnx_unique_42_ncnnreshape0 1 1 696 697 0=0 1=0
InnerProduct             linear_188               1 1 693 698 0=1024 1=1 2=393216
Split                    splitncnn_96             1 2 698 699 700
BinaryOp                 sub_115                  1 1 699 701 0=1 1=1 2=1.000000e+00
Sigmoid                  sigmoid_45               1 1 701 702
BinaryOp                 mul_116                  2 1 700 702 703 0=2
InnerProduct             linear_189               1 1 703 704 0=384 1=1 2=393216
BinaryOp                 add_117                  2 1 690 704 705 0=0
Split                    splitncnn_97             1 2 705 706 707
Crop                     select_20                1 1 22 708 -23310=1,3 -23311=1,0 -23309=1,2
Crop                     select_21                1 1 7 709 -23310=1,3 -23311=1,0 -23309=1,2
PoolingModuleNoProj      pooling_modul_no_proj_475 3 3 707 709 708 710 711 712
InnerProduct             linear_190               1 1 710 713 0=384 1=0 2=147456
BinaryOp                 add_118                  2 1 706 713 714 0=0
Split                    splitncnn_98             1 2 714 715 716
Crop                     select_22                1 1 37 717 -23310=1,3 -23311=1,0 -23309=1,2
Crop                     select_23                1 1 52 718 -23310=1,3 -23311=1,0 -23309=1,2
InnerProduct             linear_191               1 1 716 719 0=512 1=1 2=196608
Slice                    tensor_split_4           1 4 719 720 721 722 723 -23300=4,192,192,96,-233 1=1
Concat                   cat_20                   2 1 718 722 724 0=0
Reshape                  reshape_299              1 1 724 725 0=12 1=8 2=40
Reshape                  reshape_300              1 1 720 726 0=24 1=8 2=8
Reshape                  reshape_301              1 1 723 727 0=4 1=8 2=8
Concat                   cat_21                   2 1 717 721 728 0=0
Reshape                  reshape_302              1 1 728 729 0=24 1=8 2=40
Permute                  permute_514              1 1 727 730 0=2
MatMul                   matmul_393               2 1 730 467 731
Permute                  permute_515              1 1 729 732 0=3
Permute                  permute_513              1 1 726 733 0=2
MatMul                   matmul_394               2 1 733 732 734
TensorAsStrided          tensor_as_strided_589    1 1 731 735 -23300=3,8,8,40 -23301=3,376,46,1 2=7
BinaryOp                 add_119                  2 1 734 735 736 0=0
Reshape                  view_356                 1 1 736 737 0=40 1=8 2=8
Softmax                  softmax_85               1 1 737 738 0=-1 1=1
Split                    splitncnn_99             1 2 738 739 740
Permute                  permute_512              1 1 725 741 0=2
MatMul                   bmm_371                  2 1 740 741 742
Permute                  permute_516              1 1 742 743 0=2
Reshape                  reshape_303              1 1 743 744 0=96 1=8
InnerProduct             linear_192               1 1 744 745 0=384 1=1 2=36864
BinaryOp                 add_120                  2 1 715 745 746 0=0
Split                    splitncnn_100            1 2 746 747 748
Permute                  permute_436              1 1 748 749 0=1
Convolution1D            conv1d_110               1 1 749 750 0=768 1=1 2=1 3=1 4=0 5=1 6=294912
GLU                      glu_8                    1 1 750 751 0=0
Concat                   cat_22                   2 1 695 751 752 0=1
ConvolutionDepthWise1D   convdw1d_610             1 1 752 753 0=384 1=31 2=1 3=1 4=0 5=1 6=11904 7=384
Split                    splitncnn_101            1 2 753 754 755
BinaryOp                 sub_121                  1 1 754 756 0=1 1=1 2=1.000000e+00
Sigmoid                  sigmoid_46               1 1 756 757
BinaryOp                 mul_122                  2 1 755 757 758 0=2
Convolution1D            conv1d_111               1 1 758 759 0=384 1=1 2=1 3=1 4=0 5=1 6=147456
Permute                  permute_437              1 1 759 760 0=1
BinaryOp                 add_123                  2 1 747 760 761 0=0
Split                    splitncnn_102            1 2 761 762 763
InnerProduct             linear_193               1 1 763 764 0=1024 1=1 2=393216
Split                    splitncnn_103            1 2 764 765 766
BinaryOp                 sub_124                  1 1 765 767 0=1 1=1 2=1.000000e+00
Sigmoid                  sigmoid_47               1 1 767 768
BinaryOp                 mul_125                  2 1 766 768 769 0=2
InnerProduct             linear_194               1 1 769 770 0=384 1=1 2=393216
BinaryOp                 add_126                  2 1 762 770 771 0=0
Split                    splitncnn_104            1 2 771 772 773
Crop                     select_24                1 1 67 774 -23310=1,3 -23311=1,0 -23309=1,2
InnerProduct             linear_195               1 1 773 775 0=96 1=0 2=36864
Concat                   cat_23                   2 1 774 775 776 0=0
Reshape                  reshape_304              1 1 776 777 0=12 1=8 2=40
Permute                  permute_517              1 1 777 778 0=2
MatMul                   bmm_372                  2 1 739 778 779
Permute                  permute_518              1 1 779 780 0=2
Reshape                  reshape_305              1 1 780 781 0=96 1=8
InnerProduct             linear_196               1 1 781 782 0=384 1=1 2=36864
BinaryOp                 add_127                  2 1 772 782 783 0=0
Split                    splitncnn_105            1 2 783 784 785
Permute                  permute_438              1 1 785 786 0=1
Convolution1D            conv1d_112               1 1 786 787 0=768 1=1 2=1 3=1 4=0 5=1 6=294912
GLU                      glu_9                    1 1 787 788 0=0
Concat                   cat_24                   2 1 697 788 789 0=1
ConvolutionDepthWise1D   convdw1d_611             1 1 789 790 0=384 1=31 2=1 3=1 4=0 5=1 6=11904 7=384
Split                    splitncnn_106            1 2 790 791 792
BinaryOp                 sub_128                  1 1 791 793 0=1 1=1 2=1.000000e+00
Sigmoid                  sigmoid_48               1 1 793 794
BinaryOp                 mul_129                  2 1 792 794 795 0=2
Convolution1D            conv1d_113               1 1 795 796 0=384 1=1 2=1 3=1 4=0 5=1 6=147456
Permute                  permute_439              1 1 796 797 0=1
BinaryOp                 add_130                  2 1 784 797 798 0=0
Split                    splitncnn_107            1 2 798 799 800
InnerProduct             linear_197               1 1 800 801 0=1024 1=1 2=393216
Split                    splitncnn_108            1 2 801 802 803
BinaryOp                 sub_131                  1 1 802 804 0=1 1=1 2=1.000000e+00
Sigmoid                  sigmoid_49               1 1 804 805
BinaryOp                 mul_132                  2 1 803 805 806 0=2
InnerProduct             linear_198               1 1 806 807 0=384 1=1 2=393216
BinaryOp                 add_133                  2 1 799 807 808 0=0
Split                    splitncnn_109            1 3 808 809 810 811
BinaryOp                 mul_134                  2 1 809 810 812 0=2
Reduction                mean_411                 1 1 812 813 0=3 1=0 -23303=1,-1 4=1 5=1
BinaryOp                 add_135                  1 1 813 814 0=0 1=1 2=2.500000e-01
BinaryOp                 pow_136                  1 1 814 815 0=6 1=1 2=-5.000000e-01
BinaryOp                 mul_137                  2 1 811 815 816 0=2
BinaryOp                 sub_138                  2 1 816 691 817 0=1
BinaryOp                 mul_139                  2 1 817 115 818 0=2
BinaryOp                 add_140                  2 1 692 818 819 0=0
Split                    splitncnn_110            1 4 819 820 821 822 823
Crop                     crop_573                 1 1 81 824 -23310=1,4 -23311=1,0 -23309=1,3
Reshape                  encoder.encoders.1.encoder.state_select_list.3_ncnnreshape0 1 1 824 825 0=0 1=0
Crop                     crop_574                 1 1 96 826 -23310=1,4 -23311=1,0 -23309=1,3
Reshape                  pnnx_unique_50_ncnnreshape0 1 1 826 827 0=0 1=0
InnerProduct             linear_199               1 1 823 828 0=1024 1=1 2=393216
Split                    splitncnn_111            1 2 828 829 830
BinaryOp                 sub_141                  1 1 829 831 0=1 1=1 2=1.000000e+00
Sigmoid                  sigmoid_50               1 1 831 832
BinaryOp                 mul_142                  2 1 830 832 833 0=2
InnerProduct             linear_200               1 1 833 834 0=384 1=1 2=393216
BinaryOp                 add_143                  2 1 820 834 835 0=0
Split                    splitncnn_112            1 2 835 836 837
Crop                     select_25                1 1 21 838 -23310=1,4 -23311=1,0 -23309=1,3
Crop                     select_26                1 1 6 839 -23310=1,4 -23311=1,0 -23309=1,3
PoolingModuleNoProj      pooling_modul_no_proj_476 3 3 837 839 838 840 841 842
InnerProduct             linear_201               1 1 840 843 0=384 1=0 2=147456
BinaryOp                 add_144                  2 1 836 843 844 0=0
Split                    splitncnn_113            1 2 844 845 846
Crop                     select_27                1 1 36 847 -23310=1,4 -23311=1,0 -23309=1,3
Crop                     select_28                1 1 51 848 -23310=1,4 -23311=1,0 -23309=1,3
InnerProduct             linear_202               1 1 846 849 0=512 1=1 2=196608
Slice                    tensor_split_5           1 4 849 850 851 852 853 -23300=4,192,192,96,-233 1=1
Concat                   cat_25                   2 1 848 852 854 0=0
Reshape                  reshape_306              1 1 854 855 0=12 1=8 2=40
Reshape                  reshape_307              1 1 850 856 0=24 1=8 2=8
Reshape                  reshape_308              1 1 853 857 0=4 1=8 2=8
Concat                   cat_26                   2 1 847 851 858 0=0
Reshape                  reshape_309              1 1 858 859 0=24 1=8 2=40
Permute                  permute_521              1 1 857 860 0=2
MatMul                   matmul_395               2 1 860 466 861
Permute                  permute_522              1 1 859 862 0=3
Permute                  permute_520              1 1 856 863 0=2
MatMul                   matmul_396               2 1 863 862 864
TensorAsStrided          tensor_as_strided_590    1 1 861 865 -23300=3,8,8,40 -23301=3,376,46,1 2=7
BinaryOp                 add_145                  2 1 864 865 866 0=0
Reshape                  view_357                 1 1 866 867 0=40 1=8 2=8
Softmax                  softmax_86               1 1 867 868 0=-1 1=1
Split                    splitncnn_114            1 2 868 869 870
Permute                  permute_519              1 1 855 871 0=2
MatMul                   bmm_373                  2 1 870 871 872
Permute                  permute_523              1 1 872 873 0=2
Reshape                  reshape_310              1 1 873 874 0=96 1=8
InnerProduct             linear_203               1 1 874 875 0=384 1=1 2=36864
BinaryOp                 add_146                  2 1 845 875 876 0=0
Split                    splitncnn_115            1 2 876 877 878
Permute                  permute_440              1 1 878 879 0=1
Convolution1D            conv1d_114               1 1 879 880 0=768 1=1 2=1 3=1 4=0 5=1 6=294912
GLU                      glu_10                   1 1 880 881 0=0
Concat                   cat_27                   2 1 825 881 882 0=1
ConvolutionDepthWise1D   convdw1d_612             1 1 882 883 0=384 1=31 2=1 3=1 4=0 5=1 6=11904 7=384
Split                    splitncnn_116            1 2 883 884 885
BinaryOp                 sub_147                  1 1 884 886 0=1 1=1 2=1.000000e+00
Sigmoid                  sigmoid_51               1 1 886 887
BinaryOp                 mul_148                  2 1 885 887 888 0=2
Convolution1D            conv1d_115               1 1 888 889 0=384 1=1 2=1 3=1 4=0 5=1 6=147456
Permute                  permute_441              1 1 889 890 0=1
BinaryOp                 add_149                  2 1 877 890 891 0=0
Split                    splitncnn_117            1 2 891 892 893
InnerProduct             linear_204               1 1 893 894 0=1024 1=1 2=393216
Split                    splitncnn_118            1 2 894 895 896
BinaryOp                 sub_150                  1 1 895 897 0=1 1=1 2=1.000000e+00
Sigmoid                  sigmoid_52               1 1 897 898
BinaryOp                 mul_151                  2 1 896 898 899 0=2
InnerProduct             linear_205               1 1 899 900 0=384 1=1 2=393216
BinaryOp                 add_152                  2 1 892 900 901 0=0
Split                    splitncnn_119            1 2 901 902 903
Crop                     select_29                1 1 66 904 -23310=1,4 -23311=1,0 -23309=1,3
InnerProduct             linear_206               1 1 903 905 0=96 1=0 2=36864
Concat                   cat_28                   2 1 904 905 906 0=0
Reshape                  reshape_311              1 1 906 907 0=12 1=8 2=40
Permute                  permute_524              1 1 907 908 0=2
MatMul                   bmm_374                  2 1 869 908 909
Permute                  permute_525              1 1 909 910 0=2
Reshape                  reshape_312              1 1 910 911 0=96 1=8
InnerProduct             linear_207               1 1 911 912 0=384 1=1 2=36864
BinaryOp                 add_153                  2 1 902 912 913 0=0
Split                    splitncnn_120            1 2 913 914 915
Permute                  permute_442              1 1 915 916 0=1
Convolution1D            conv1d_116               1 1 916 917 0=768 1=1 2=1 3=1 4=0 5=1 6=294912
GLU                      glu_11                   1 1 917 918 0=0
Concat                   cat_29                   2 1 827 918 919 0=1
ConvolutionDepthWise1D   convdw1d_613             1 1 919 920 0=384 1=31 2=1 3=1 4=0 5=1 6=11904 7=384
Split                    splitncnn_121            1 2 920 921 922
BinaryOp                 sub_154                  1 1 921 923 0=1 1=1 2=1.000000e+00
Sigmoid                  sigmoid_53               1 1 923 924
BinaryOp                 mul_155                  2 1 922 924 925 0=2
Convolution1D            conv1d_117               1 1 925 926 0=384 1=1 2=1 3=1 4=0 5=1 6=147456
Permute                  permute_443              1 1 926 927 0=1
BinaryOp                 add_156                  2 1 914 927 928 0=0
Split                    splitncnn_122            1 2 928 929 930
InnerProduct             linear_208               1 1 930 931 0=1024 1=1 2=393216
Split                    splitncnn_123            1 2 931 932 933
BinaryOp                 sub_157                  1 1 932 934 0=1 1=1 2=1.000000e+00
Sigmoid                  sigmoid_54               1 1 934 935
BinaryOp                 mul_158                  2 1 933 935 936 0=2
InnerProduct             linear_209               1 1 936 937 0=384 1=1 2=393216
BinaryOp                 add_159                  2 1 929 937 938 0=0
Split                    splitncnn_124            1 3 938 939 940 941
BinaryOp                 mul_160                  2 1 939 940 942 0=2
Reduction                mean_412                 1 1 942 943 0=3 1=0 -23303=1,-1 4=1 5=1
BinaryOp                 add_161                  1 1 943 944 0=0 1=1 2=2.500000e-01
BinaryOp                 pow_162                  1 1 944 945 0=6 1=1 2=-5.000000e-01
BinaryOp                 mul_163                  2 1 941 945 946 0=2
BinaryOp                 sub_164                  2 1 946 821 947 0=1
BinaryOp                 mul_165                  2 1 947 114 948 0=2
BinaryOp                 add_166                  2 1 822 948 949 0=0
MemoryData               encoder.encoders.1.out_combiner 0 1 950 0=1
BinaryOp                 mul_167                  2 1 412 950 951 0=2
SimpleUpsample           simple_upsample_599      1 1 949 952 0=2 1=384 2=768
BinaryOp                 add_168                  2 1 951 952 953 0=0
Split                    splitncnn_125            1 2 953 954 955
MemoryData               encoder.encoders.2.downsample 0 1 956 0=384 1=1 2=1
Reshape                  reshape_313              1 1 955 957 0=384 1=4 2=4
Split                    splitncnn_126            1 2 957 958 959
BinaryOp                 mul_169                  2 1 958 956 960 0=2
Reduction                sum_466                  1 1 960 961 0=0 1=0 -23303=1,-1 4=1 5=1
Softmax                  softmax_87               1 1 961 962 0=1 1=1
BinaryOp                 mul_170                  2 1 959 962 963 0=2
Reduction                sum_467                  1 1 963 964 0=0 1=0 -23303=1,1 4=0 5=1
Crop                     crop_575                 1 1 88 965 -23310=1,1 -23311=1,0 -23309=1,0
Reshape                  encoder.encoders.2.encoder.state_select_list.0_ncnnreshape0 1 1 965 966 0=0 1=0
Crop                     crop_576                 1 1 103 967 -23310=1,1 -23311=1,0 -23309=1,0
Reshape                  pnnx_unique_59_ncnnreshape0 1 1 967 968 0=0 1=0
Split                    splitncnn_127            1 4 964 969 970 971 972
InnerProduct             linear_210               1 1 972 973 0=2048 1=1 2=786432
Split                    splitncnn_128            1 2 973 974 975
BinaryOp                 sub_171                  1 1 974 976 0=1 1=1 2=1.000000e+00
Sigmoid                  sigmoid_55               1 1 976 977
BinaryOp                 mul_172                  2 1 975 977 978 0=2
InnerProduct             linear_211               1 1 978 979 0=384 1=1 2=786432
BinaryOp                 add_173                  2 1 969 979 980 0=0
Split                    splitncnn_129            1 2 980 981 982
Crop                     select_30                1 1 28 983 -23310=1,1 -23311=1,0 -23309=1,0
Crop                     select_31                1 1 13 984 -23310=1,1 -23311=1,0 -23309=1,0
PoolingModuleNoProj      pooling_modul_no_proj_477 3 3 982 984 983 985 986 987
InnerProduct             linear_212               1 1 985 988 0=384 1=0 2=147456
BinaryOp                 add_174                  2 1 981 988 989 0=0
Split                    splitncnn_130            1 2 989 990 991
Crop                     select_32                1 1 43 992 -23310=1,1 -23311=1,0 -23309=1,0
Crop                     select_33                1 1 58 993 -23310=1,1 -23311=1,0 -23309=1,0
InnerProduct             linear_213               1 1 991 994 0=512 1=1 2=196608
Slice                    tensor_split_6           1 4 994 995 996 997 998 -23300=4,192,192,96,-233 1=1
Concat                   cat_30                   2 1 993 997 999 0=0
Reshape                  reshape_314              1 1 999 1000 0=12 1=8 2=20
Reshape                  reshape_315              1 1 995 1001 0=24 1=8 2=4
Reshape                  reshape_316              1 1 998 1002 0=4 1=8 2=4
Concat                   cat_31                   2 1 992 996 1003 0=0
Reshape                  reshape_317              1 1 1003 1004 0=24 1=8 2=20
InnerProduct             linear_214               1 1 113 1005 0=32 1=0 2=12288
Reshape                  reshape_318              1 1 1005 1006 0=4 1=8 2=23
Permute                  permute_530              1 1 1006 1007 0=3
Split                    splitncnn_131            1 3 1007 1008 1009 1010
Permute                  permute_528              1 1 1002 1011 0=2
MatMul                   matmul_397               2 1 1011 1010 1012
Permute                  permute_529              1 1 1004 1013 0=3
Permute                  permute_527              1 1 1001 1014 0=2
MatMul                   matmul_398               2 1 1014 1013 1015
TensorAsStrided          tensor_as_strided_591    1 1 1012 1016 -23300=3,8,4,20 -23301=3,92,22,1 2=3
BinaryOp                 add_175                  2 1 1015 1016 1017 0=0
Reshape                  view_358                 1 1 1017 1018 0=20 1=4 2=8
Softmax                  softmax_88               1 1 1018 1019 0=-1 1=1
Split                    splitncnn_132            1 2 1019 1020 1021
Permute                  permute_526              1 1 1000 1022 0=2
MatMul                   bmm_375                  2 1 1021 1022 1023
Permute                  permute_531              1 1 1023 1024 0=2
Reshape                  reshape_319              1 1 1024 1025 0=96 1=4
InnerProduct             linear_215               1 1 1025 1026 0=384 1=1 2=36864
BinaryOp                 add_176                  2 1 990 1026 1027 0=0
Split                    splitncnn_133            1 2 1027 1028 1029
Permute                  permute_444              1 1 1029 1030 0=1
Convolution1D            conv1d_118               1 1 1030 1031 0=768 1=1 2=1 3=1 4=0 5=1 6=294912
GLU                      glu_12                   1 1 1031 1032 0=0
Concat                   cat_32                   2 1 966 1032 1033 0=1
ConvolutionDepthWise1D   convdw1d_614             1 1 1033 1034 0=384 1=31 2=1 3=1 4=0 5=1 6=11904 7=384
Split                    splitncnn_134            1 2 1034 1035 1036
BinaryOp                 sub_177                  1 1 1035 1037 0=1 1=1 2=1.000000e+00
Sigmoid                  sigmoid_56               1 1 1037 1038
BinaryOp                 mul_178                  2 1 1036 1038 1039 0=2
Convolution1D            conv1d_119               1 1 1039 1040 0=384 1=1 2=1 3=1 4=0 5=1 6=147456
Permute                  permute_445              1 1 1040 1041 0=1
BinaryOp                 add_179                  2 1 1028 1041 1042 0=0
Split                    splitncnn_135            1 2 1042 1043 1044
InnerProduct             linear_216               1 1 1044 1045 0=2048 1=1 2=786432
Split                    splitncnn_136            1 2 1045 1046 1047
BinaryOp                 sub_180                  1 1 1046 1048 0=1 1=1 2=1.000000e+00
Sigmoid                  sigmoid_57               1 1 1048 1049
BinaryOp                 mul_181                  2 1 1047 1049 1050 0=2
InnerProduct             linear_217               1 1 1050 1051 0=384 1=1 2=786432
BinaryOp                 add_182                  2 1 1043 1051 1052 0=0
Split                    splitncnn_137            1 2 1052 1053 1054
Crop                     select_34                1 1 73 1055 -23310=1,1 -23311=1,0 -23309=1,0
InnerProduct             linear_218               1 1 1054 1056 0=96 1=0 2=36864
Concat                   cat_33                   2 1 1055 1056 1057 0=0
Reshape                  reshape_320              1 1 1057 1058 0=12 1=8 2=20
Permute                  permute_532              1 1 1058 1059 0=2
MatMul                   bmm_376                  2 1 1020 1059 1060
Permute                  permute_533              1 1 1060 1061 0=2
Reshape                  reshape_321              1 1 1061 1062 0=96 1=4
InnerProduct             linear_219               1 1 1062 1063 0=384 1=1 2=36864
BinaryOp                 add_183                  2 1 1053 1063 1064 0=0
Split                    splitncnn_138            1 2 1064 1065 1066
Permute                  permute_446              1 1 1066 1067 0=1
Convolution1D            conv1d_120               1 1 1067 1068 0=768 1=1 2=1 3=1 4=0 5=1 6=294912
GLU                      glu_13                   1 1 1068 1069 0=0
Concat                   cat_34                   2 1 968 1069 1070 0=1
ConvolutionDepthWise1D   convdw1d_615             1 1 1070 1071 0=384 1=31 2=1 3=1 4=0 5=1 6=11904 7=384
Split                    splitncnn_139            1 2 1071 1072 1073
BinaryOp                 sub_184                  1 1 1072 1074 0=1 1=1 2=1.000000e+00
Sigmoid                  sigmoid_58               1 1 1074 1075
BinaryOp                 mul_185                  2 1 1073 1075 1076 0=2
Convolution1D            conv1d_121               1 1 1076 1077 0=384 1=1 2=1 3=1 4=0 5=1 6=147456
Permute                  permute_447              1 1 1077 1078 0=1
BinaryOp                 add_186                  2 1 1065 1078 1079 0=0
Split                    splitncnn_140            1 2 1079 1080 1081
InnerProduct             linear_220               1 1 1081 1082 0=2048 1=1 2=786432
Split                    splitncnn_141            1 2 1082 1083 1084
BinaryOp                 sub_187                  1 1 1083 1085 0=1 1=1 2=1.000000e+00
Sigmoid                  sigmoid_59               1 1 1085 1086
BinaryOp                 mul_188                  2 1 1084 1086 1087 0=2
InnerProduct             linear_221               1 1 1087 1088 0=384 1=1 2=786432
BinaryOp                 add_189                  2 1 1080 1088 1089 0=0
Split                    splitncnn_142            1 3 1089 1090 1091 1092
BinaryOp                 mul_190                  2 1 1090 1091 1093 0=2
Reduction                mean_413                 1 1 1093 1094 0=3 1=0 -23303=1,-1 4=1 5=1
BinaryOp                 add_191                  1 1 1094 1095 0=0 1=1 2=2.500000e-01
BinaryOp                 pow_192                  1 1 1095 1096 0=6 1=1 2=-5.000000e-01
BinaryOp                 mul_193                  2 1 1092 1096 1097 0=2
BinaryOp                 sub_194                  2 1 1097 970 1098 0=1
BinaryOp                 mul_195                  2 1 1098 112 1099 0=2
BinaryOp                 add_196                  2 1 971 1099 1100 0=0
Split                    splitncnn_143            1 4 1100 1101 1102 1103 1104
Crop                     crop_577                 1 1 87 1105 -23310=1,2 -23311=1,0 -23309=1,1
Reshape                  encoder.encoders.2.encoder.state_select_list.1_ncnnreshape0 1 1 1105 1106 0=0 1=0
Crop                     crop_578                 1 1 102 1107 -23310=1,2 -23311=1,0 -23309=1,1
Reshape                  pnnx_unique_67_ncnnreshape0 1 1 1107 1108 0=0 1=0
InnerProduct             linear_222               1 1 1104 1109 0=2048 1=1 2=786432
Split                    splitncnn_144            1 2 1109 1110 1111
BinaryOp                 sub_197                  1 1 1110 1112 0=1 1=1 2=1.000000e+00
Sigmoid                  sigmoid_60               1 1 1112 1113
BinaryOp                 mul_198                  2 1 1111 1113 1114 0=2
InnerProduct             linear_223               1 1 1114 1115 0=384 1=1 2=786432
BinaryOp                 add_199                  2 1 1101 1115 1116 0=0
Split                    splitncnn_145            1 2 1116 1117 1118
Crop                     select_35                1 1 27 1119 -23310=1,2 -23311=1,0 -23309=1,1
Crop                     select_36                1 1 12 1120 -23310=1,2 -23311=1,0 -23309=1,1
PoolingModuleNoProj      pooling_modul_no_proj_478 3 3 1118 1120 1119 1121 1122 1123
InnerProduct             linear_224               1 1 1121 1124 0=384 1=0 2=147456
BinaryOp                 add_200                  2 1 1117 1124 1125 0=0
Split                    splitncnn_146            1 2 1125 1126 1127
Crop                     select_37                1 1 42 1128 -23310=1,2 -23311=1,0 -23309=1,1
Crop                     select_38                1 1 57 1129 -23310=1,2 -23311=1,0 -23309=1,1
InnerProduct             linear_225               1 1 1127 1130 0=512 1=1 2=196608
Slice                    tensor_split_7           1 4 1130 1131 1132 1133 1134 -23300=4,192,192,96,-233 1=1
Concat                   cat_35                   2 1 1129 1133 1135 0=0
Reshape                  reshape_322              1 1 1135 1136 0=12 1=8 2=20
Reshape                  reshape_323              1 1 1131 1137 0=24 1=8 2=4
Reshape                  reshape_324              1 1 1134 1138 0=4 1=8 2=4
Concat                   cat_36                   2 1 1128 1132 1139 0=0
Reshape                  reshape_325              1 1 1139 1140 0=24 1=8 2=20
Permute                  permute_536              1 1 1138 1141 0=2
MatMul                   matmul_399               2 1 1141 1009 1142
Permute                  permute_537              1 1 1140 1143 0=3
Permute                  permute_535              1 1 1137 1144 0=2
MatMul                   matmul_400               2 1 1144 1143 1145
TensorAsStrided          tensor_as_strided_592    1 1 1142 1146 -23300=3,8,4,20 -23301=3,92,22,1 2=3
BinaryOp                 add_201                  2 1 1145 1146 1147 0=0
Reshape                  view_359                 1 1 1147 1148 0=20 1=4 2=8
Softmax                  softmax_89               1 1 1148 1149 0=-1 1=1
Split                    splitncnn_147            1 2 1149 1150 1151
Permute                  permute_534              1 1 1136 1152 0=2
MatMul                   bmm_377                  2 1 1151 1152 1153
Permute                  permute_538              1 1 1153 1154 0=2
Reshape                  reshape_326              1 1 1154 1155 0=96 1=4
InnerProduct             linear_226               1 1 1155 1156 0=384 1=1 2=36864
BinaryOp                 add_202                  2 1 1126 1156 1157 0=0
Split                    splitncnn_148            1 2 1157 1158 1159
Permute                  permute_448              1 1 1159 1160 0=1
Convolution1D            conv1d_122               1 1 1160 1161 0=768 1=1 2=1 3=1 4=0 5=1 6=294912
GLU                      glu_14                   1 1 1161 1162 0=0
Concat                   cat_37                   2 1 1106 1162 1163 0=1
ConvolutionDepthWise1D   convdw1d_616             1 1 1163 1164 0=384 1=31 2=1 3=1 4=0 5=1 6=11904 7=384
Split                    splitncnn_149            1 2 1164 1165 1166
BinaryOp                 sub_203                  1 1 1165 1167 0=1 1=1 2=1.000000e+00
Sigmoid                  sigmoid_61               1 1 1167 1168
BinaryOp                 mul_204                  2 1 1166 1168 1169 0=2
Convolution1D            conv1d_123               1 1 1169 1170 0=384 1=1 2=1 3=1 4=0 5=1 6=147456
Permute                  permute_449              1 1 1170 1171 0=1
BinaryOp                 add_205                  2 1 1158 1171 1172 0=0
Split                    splitncnn_150            1 2 1172 1173 1174
InnerProduct             linear_227               1 1 1174 1175 0=2048 1=1 2=786432
Split                    splitncnn_151            1 2 1175 1176 1177
BinaryOp                 sub_206                  1 1 1176 1178 0=1 1=1 2=1.000000e+00
Sigmoid                  sigmoid_62               1 1 1178 1179
BinaryOp                 mul_207                  2 1 1177 1179 1180 0=2
InnerProduct             linear_228               1 1 1180 1181 0=384 1=1 2=786432
BinaryOp                 add_208                  2 1 1173 1181 1182 0=0
Split                    splitncnn_152            1 2 1182 1183 1184
Crop                     select_39                1 1 72 1185 -23310=1,2 -23311=1,0 -23309=1,1
InnerProduct             linear_229               1 1 1184 1186 0=96 1=0 2=36864
Concat                   cat_38                   2 1 1185 1186 1187 0=0
Reshape                  reshape_327              1 1 1187 1188 0=12 1=8 2=20
Permute                  permute_539              1 1 1188 1189 0=2
MatMul                   bmm_378                  2 1 1150 1189 1190
Permute                  permute_540              1 1 1190 1191 0=2
Reshape                  reshape_328              1 1 1191 1192 0=96 1=4
InnerProduct             linear_230               1 1 1192 1193 0=384 1=1 2=36864
BinaryOp                 add_209                  2 1 1183 1193 1194 0=0
Split                    splitncnn_153            1 2 1194 1195 1196
Permute                  permute_450              1 1 1196 1197 0=1
Convolution1D            conv1d_124               1 1 1197 1198 0=768 1=1 2=1 3=1 4=0 5=1 6=294912
GLU                      glu_15                   1 1 1198 1199 0=0
Concat                   cat_39                   2 1 1108 1199 1200 0=1
ConvolutionDepthWise1D   convdw1d_617             1 1 1200 1201 0=384 1=31 2=1 3=1 4=0 5=1 6=11904 7=384
Split                    splitncnn_154            1 2 1201 1202 1203
BinaryOp                 sub_210                  1 1 1202 1204 0=1 1=1 2=1.000000e+00
Sigmoid                  sigmoid_63               1 1 1204 1205
BinaryOp                 mul_211                  2 1 1203 1205 1206 0=2
Convolution1D            conv1d_125               1 1 1206 1207 0=384 1=1 2=1 3=1 4=0 5=1 6=147456
Permute                  permute_451              1 1 1207 1208 0=1
BinaryOp                 add_212                  2 1 1195 1208 1209 0=0
Split                    splitncnn_155            1 2 1209 1210 1211
InnerProduct             linear_231               1 1 1211 1212 0=2048 1=1 2=786432
Split                    splitncnn_156            1 2 1212 1213 1214
BinaryOp                 sub_213                  1 1 1213 1215 0=1 1=1 2=1.000000e+00
Sigmoid                  sigmoid_64               1 1 1215 1216
BinaryOp                 mul_214                  2 1 1214 1216 1217 0=2
InnerProduct             linear_232               1 1 1217 1218 0=384 1=1 2=786432
BinaryOp                 add_215                  2 1 1210 1218 1219 0=0
Split                    splitncnn_157            1 3 1219 1220 1221 1222
BinaryOp                 mul_216                  2 1 1220 1221 1223 0=2
Reduction                mean_414                 1 1 1223 1224 0=3 1=0 -23303=1,-1 4=1 5=1
BinaryOp                 add_217                  1 1 1224 1225 0=0 1=1 2=2.500000e-01
BinaryOp                 pow_218                  1 1 1225 1226 0=6 1=1 2=-5.000000e-01
BinaryOp                 mul_219                  2 1 1222 1226 1227 0=2
BinaryOp                 sub_220                  2 1 1227 1102 1228 0=1
BinaryOp                 mul_221                  2 1 1228 111 1229 0=2
BinaryOp                 add_222                  2 1 1103 1229 1230 0=0
Split                    splitncnn_158            1 4 1230 1231 1232 1233 1234
Crop                     crop_579                 1 1 86 1235 -23310=1,3 -23311=1,0 -23309=1,2
Reshape                  encoder.encoders.2.encoder.state_select_list.2_ncnnreshape0 1 1 1235 1236 0=0 1=0
Crop                     crop_580                 1 1 101 1237 -23310=1,3 -23311=1,0 -23309=1,2
Reshape                  pnnx_unique_75_ncnnreshape0 1 1 1237 1238 0=0 1=0
InnerProduct             linear_233               1 1 1234 1239 0=2048 1=1 2=786432
Split                    splitncnn_159            1 2 1239 1240 1241
BinaryOp                 sub_223                  1 1 1240 1242 0=1 1=1 2=1.000000e+00
Sigmoid                  sigmoid_65               1 1 1242 1243
BinaryOp                 mul_224                  2 1 1241 1243 1244 0=2
InnerProduct             linear_234               1 1 1244 1245 0=384 1=1 2=786432
BinaryOp                 add_225                  2 1 1231 1245 1246 0=0
Split                    splitncnn_160            1 2 1246 1247 1248
Crop                     select_40                1 1 26 1249 -23310=1,3 -23311=1,0 -23309=1,2
Crop                     select_41                1 1 11 1250 -23310=1,3 -23311=1,0 -23309=1,2
PoolingModuleNoProj      pooling_modul_no_proj_479 3 3 1248 1250 1249 1251 1252 1253
InnerProduct             linear_235               1 1 1251 1254 0=384 1=0 2=147456
BinaryOp                 add_226                  2 1 1247 1254 1255 0=0
Split                    splitncnn_161            1 2 1255 1256 1257
Crop                     select_42                1 1 41 1258 -23310=1,3 -23311=1,0 -23309=1,2
Crop                     select_43                1 1 56 1259 -23310=1,3 -23311=1,0 -23309=1,2
InnerProduct             linear_236               1 1 1257 1260 0=512 1=1 2=196608
Slice                    tensor_split_8           1 4 1260 1261 1262 1263 1264 -23300=4,192,192,96,-233 1=1
Concat                   cat_40                   2 1 1259 1263 1265 0=0
Reshape                  reshape_329              1 1 1265 1266 0=12 1=8 2=20
Reshape                  reshape_330              1 1 1261 1267 0=24 1=8 2=4
Reshape                  reshape_331              1 1 1264 1268 0=4 1=8 2=4
Concat                   cat_41                   2 1 1258 1262 1269 0=0
Reshape                  reshape_332              1 1 1269 1270 0=24 1=8 2=20
Permute                  permute_543              1 1 1268 1271 0=2
MatMul                   matmul_401               2 1 1271 1008 1272
Permute                  permute_544              1 1 1270 1273 0=3
Permute                  permute_542              1 1 1267 1274 0=2
MatMul                   matmul_402               2 1 1274 1273 1275
TensorAsStrided          tensor_as_strided_593    1 1 1272 1276 -23300=3,8,4,20 -23301=3,92,22,1 2=3
BinaryOp                 add_227                  2 1 1275 1276 1277 0=0
Reshape                  view_360                 1 1 1277 1278 0=20 1=4 2=8
Softmax                  softmax_90               1 1 1278 1279 0=-1 1=1
Split                    splitncnn_162            1 2 1279 1280 1281
Permute                  permute_541              1 1 1266 1282 0=2
MatMul                   bmm_379                  2 1 1281 1282 1283
Permute                  permute_545              1 1 1283 1284 0=2
Reshape                  reshape_333              1 1 1284 1285 0=96 1=4
InnerProduct             linear_237               1 1 1285 1286 0=384 1=1 2=36864
BinaryOp                 add_228                  2 1 1256 1286 1287 0=0
Split                    splitncnn_163            1 2 1287 1288 1289
Permute                  permute_452              1 1 1289 1290 0=1
Convolution1D            conv1d_126               1 1 1290 1291 0=768 1=1 2=1 3=1 4=0 5=1 6=294912
GLU                      glu_16                   1 1 1291 1292 0=0
Concat                   cat_42                   2 1 1236 1292 1293 0=1
ConvolutionDepthWise1D   convdw1d_618             1 1 1293 1294 0=384 1=31 2=1 3=1 4=0 5=1 6=11904 7=384
Split                    splitncnn_164            1 2 1294 1295 1296
BinaryOp                 sub_229                  1 1 1295 1297 0=1 1=1 2=1.000000e+00
Sigmoid                  sigmoid_66               1 1 1297 1298
BinaryOp                 mul_230                  2 1 1296 1298 1299 0=2
Convolution1D            conv1d_127               1 1 1299 1300 0=384 1=1 2=1 3=1 4=0 5=1 6=147456
Permute                  permute_453              1 1 1300 1301 0=1
BinaryOp                 add_231                  2 1 1288 1301 1302 0=0
Split                    splitncnn_165            1 2 1302 1303 1304
InnerProduct             linear_238               1 1 1304 1305 0=2048 1=1 2=786432
Split                    splitncnn_166            1 2 1305 1306 1307
BinaryOp                 sub_232                  1 1 1306 1308 0=1 1=1 2=1.000000e+00
Sigmoid                  sigmoid_67               1 1 1308 1309
BinaryOp                 mul_233                  2 1 1307 1309 1310 0=2
InnerProduct             linear_239               1 1 1310 1311 0=384 1=1 2=786432
BinaryOp                 add_234                  2 1 1303 1311 1312 0=0
Split                    splitncnn_167            1 2 1312 1313 1314
Crop                     select_44                1 1 71 1315 -23310=1,3 -23311=1,0 -23309=1,2
InnerProduct             linear_240               1 1 1314 1316 0=96 1=0 2=36864
Concat                   cat_43                   2 1 1315 1316 1317 0=0
Reshape                  reshape_334              1 1 1317 1318 0=12 1=8 2=20
Permute                  permute_546              1 1 1318 1319 0=2
MatMul                   bmm_380                  2 1 1280 1319 1320
Permute                  permute_547              1 1 1320 1321 0=2
Reshape                  reshape_335              1 1 1321 1322 0=96 1=4
InnerProduct             linear_241               1 1 1322 1323 0=384 1=1 2=36864
BinaryOp                 add_235                  2 1 1313 1323 1324 0=0
Split                    splitncnn_168            1 2 1324 1325 1326
Permute                  permute_454              1 1 1326 1327 0=1
Convolution1D            conv1d_128               1 1 1327 1328 0=768 1=1 2=1 3=1 4=0 5=1 6=294912
GLU                      glu_17                   1 1 1328 1329 0=0
Concat                   cat_44                   2 1 1238 1329 1330 0=1
ConvolutionDepthWise1D   convdw1d_619             1 1 1330 1331 0=384 1=31 2=1 3=1 4=0 5=1 6=11904 7=384
Split                    splitncnn_169            1 2 1331 1332 1333
BinaryOp                 sub_236                  1 1 1332 1334 0=1 1=1 2=1.000000e+00
Sigmoid                  sigmoid_68               1 1 1334 1335
BinaryOp                 mul_237                  2 1 1333 1335 1336 0=2
Convolution1D            conv1d_129               1 1 1336 1337 0=384 1=1 2=1 3=1 4=0 5=1 6=147456
Permute                  permute_455              1 1 1337 1338 0=1
BinaryOp                 add_238                  2 1 1325 1338 1339 0=0
Split                    splitncnn_170            1 2 1339 1340 1341
InnerProduct             linear_242               1 1 1341 1342 0=2048 1=1 2=786432
Split                    splitncnn_171            1 2 1342 1343 1344
BinaryOp                 sub_239                  1 1 1343 1345 0=1 1=1 2=1.000000e+00
Sigmoid                  sigmoid_69               1 1 1345 1346
BinaryOp                 mul_240                  2 1 1344 1346 1347 0=2
InnerProduct             linear_243               1 1 1347 1348 0=384 1=1 2=786432
BinaryOp                 add_241                  2 1 1340 1348 1349 0=0
Split                    splitncnn_172            1 3 1349 1350 1351 1352
BinaryOp                 mul_242                  2 1 1350 1351 1353 0=2
Reduction                mean_415                 1 1 1353 1354 0=3 1=0 -23303=1,-1 4=1 5=1
BinaryOp                 add_243                  1 1 1354 1355 0=0 1=1 2=2.500000e-01
BinaryOp                 pow_244                  1 1 1355 1356 0=6 1=1 2=-5.000000e-01
BinaryOp                 mul_245                  2 1 1352 1356 1357 0=2
BinaryOp                 sub_246                  2 1 1357 1232 1358 0=1
BinaryOp                 mul_247                  2 1 1358 110 1359 0=2
BinaryOp                 add_248                  2 1 1233 1359 1360 0=0
MemoryData               encoder.encoders.2.out_combiner 0 1 1361 0=1
BinaryOp                 mul_249                  2 1 954 1361 1362 0=2
SimpleUpsample           simple_upsample_600      1 1 1360 1363 0=4 1=384 2=1536
BinaryOp                 add_250                  2 1 1362 1363 1364 0=0
Split                    splitncnn_173            1 2 1364 1365 1366
MemoryData               encoder.encoders.3.downsample 0 1 1367 0=384 1=1 2=1
Reshape                  reshape_336              1 1 1366 1368 0=384 1=8 2=2
Split                    splitncnn_174            1 2 1368 1369 1370
BinaryOp                 mul_251                  2 1 1369 1367 1371 0=2
Reduction                sum_468                  1 1 1371 1372 0=0 1=0 -23303=1,-1 4=1 5=1
Softmax                  softmax_91               1 1 1372 1373 0=1 1=1
BinaryOp                 mul_252                  2 1 1370 1373 1374 0=2
Reduction                sum_469                  1 1 1374 1375 0=0 1=0 -23303=1,1 4=0 5=1
Crop                     crop_581                 1 1 91 1376 -23310=1,1 -23311=1,0 -23309=1,0
Reshape                  encoder.encoders.3.encoder.state_select_list.0_ncnnreshape0 1 1 1376 1377 0=0 1=0
Crop                     crop_582                 1 1 106 1378 -23310=1,1 -23311=1,0 -23309=1,0
Reshape                  pnnx_unique_84_ncnnreshape0 1 1 1378 1379 0=0 1=0
Split                    splitncnn_175            1 4 1375 1380 1381 1382 1383
InnerProduct             linear_244               1 1 1383 1384 0=2048 1=1 2=786432
Split                    splitncnn_176            1 2 1384 1385 1386
BinaryOp                 sub_253                  1 1 1385 1387 0=1 1=1 2=1.000000e+00
Sigmoid                  sigmoid_70               1 1 1387 1388
BinaryOp                 mul_254                  2 1 1386 1388 1389 0=2
InnerProduct             linear_245               1 1 1389 1390 0=384 1=1 2=786432
BinaryOp                 add_255                  2 1 1380 1390 1391 0=0
Split                    splitncnn_177            1 2 1391 1392 1393
Crop                     select_45                1 1 31 1394 -23310=1,1 -23311=1,0 -23309=1,0
Crop                     select_46                1 1 16 1395 -23310=1,1 -23311=1,0 -23309=1,0
PoolingModuleNoProj      pooling_modul_no_proj_480 3 3 1393 1395 1394 1396 1397 1398
InnerProduct             linear_246               1 1 1396 1399 0=384 1=0 2=147456
BinaryOp                 add_256                  2 1 1392 1399 1400 0=0
Split                    splitncnn_178            1 2 1400 1401 1402
Crop                     select_47                1 1 46 1403 -23310=1,1 -23311=1,0 -23309=1,0
Crop                     select_48                1 1 61 1404 -23310=1,1 -23311=1,0 -23309=1,0
InnerProduct             linear_247               1 1 1402 1405 0=512 1=1 2=196608
Slice                    tensor_split_9           1 4 1405 1406 1407 1408 1409 -23300=4,192,192,96,-233 1=1
Concat                   cat_45                   2 1 1404 1408 1410 0=0
Reshape                  reshape_337              1 1 1410 1411 0=12 1=8 2=10
Reshape                  reshape_338              1 1 1406 1412 0=24 1=8 2=2
Reshape                  reshape_339              1 1 1409 1413 0=4 1=8 2=2
Concat                   cat_46                   2 1 1403 1407 1414 0=0
Reshape                  reshape_340              1 1 1414 1415 0=24 1=8 2=10
InnerProduct             linear_248               1 1 109 1416 0=32 1=0 2=12288
Reshape                  reshape_341              1 1 1416 1417 0=4 1=8 2=11
Permute                  permute_552              1 1 1417 1418 0=3
Split                    splitncnn_179            1 2 1418 1419 1420
Permute                  permute_550              1 1 1413 1421 0=2
MatMul                   matmul_403               2 1 1421 1420 1422
Permute                  permute_551              1 1 1415 1423 0=3
Permute                  permute_549              1 1 1412 1424 0=2
MatMul                   matmul_404               2 1 1424 1423 1425
TensorAsStrided          tensor_as_strided_594    1 1 1422 1426 -23300=3,8,2,10 -23301=3,22,10,1 2=1
BinaryOp                 add_257                  2 1 1425 1426 1427 0=0
Reshape                  view_361                 1 1 1427 1428 0=10 1=2 2=8
Softmax                  softmax_92               1 1 1428 1429 0=-1 1=1
Split                    splitncnn_180            1 2 1429 1430 1431
Permute                  permute_548              1 1 1411 1432 0=2
MatMul                   bmm_381                  2 1 1431 1432 1433
Permute                  permute_553              1 1 1433 1434 0=2
Reshape                  reshape_342              1 1 1434 1435 0=96 1=2
InnerProduct             linear_249               1 1 1435 1436 0=384 1=1 2=36864
BinaryOp                 add_258                  2 1 1401 1436 1437 0=0
Split                    splitncnn_181            1 2 1437 1438 1439
Permute                  permute_456              1 1 1439 1440 0=1
Convolution1D            conv1d_130               1 1 1440 1441 0=768 1=1 2=1 3=1 4=0 5=1 6=294912
GLU                      glu_18                   1 1 1441 1442 0=0
Concat                   cat_47                   2 1 1377 1442 1443 0=1
ConvolutionDepthWise1D   convdw1d_620             1 1 1443 1444 0=384 1=31 2=1 3=1 4=0 5=1 6=11904 7=384
Split                    splitncnn_182            1 2 1444 1445 1446
BinaryOp                 sub_259                  1 1 1445 1447 0=1 1=1 2=1.000000e+00
Sigmoid                  sigmoid_71               1 1 1447 1448
BinaryOp                 mul_260                  2 1 1446 1448 1449 0=2
Convolution1D            conv1d_131               1 1 1449 1450 0=384 1=1 2=1 3=1 4=0 5=1 6=147456
Permute                  permute_457              1 1 1450 1451 0=1
BinaryOp                 add_261                  2 1 1438 1451 1452 0=0
Split                    splitncnn_183            1 2 1452 1453 1454
InnerProduct             linear_250               1 1 1454 1455 0=2048 1=1 2=786432
Split                    splitncnn_184            1 2 1455 1456 1457
BinaryOp                 sub_262                  1 1 1456 1458 0=1 1=1 2=1.000000e+00
Sigmoid                  sigmoid_72               1 1 1458 1459
BinaryOp                 mul_263                  2 1 1457 1459 1460 0=2
InnerProduct             linear_251               1 1 1460 1461 0=384 1=1 2=786432
BinaryOp                 add_264                  2 1 1453 1461 1462 0=0
Split                    splitncnn_185            1 2 1462 1463 1464
Crop                     select_49                1 1 76 1465 -23310=1,1 -23311=1,0 -23309=1,0
InnerProduct             linear_252               1 1 1464 1466 0=96 1=0 2=36864
Concat                   cat_48                   2 1 1465 1466 1467 0=0
Reshape                  reshape_343              1 1 1467 1468 0=12 1=8 2=10
Permute                  permute_554              1 1 1468 1469 0=2
MatMul                   bmm_382                  2 1 1430 1469 1470
Permute                  permute_555              1 1 1470 1471 0=2
Reshape                  reshape_344              1 1 1471 1472 0=96 1=2
InnerProduct             linear_253               1 1 1472 1473 0=384 1=1 2=36864
BinaryOp                 add_265                  2 1 1463 1473 1474 0=0
Split                    splitncnn_186            1 2 1474 1475 1476
Permute                  permute_458              1 1 1476 1477 0=1
Convolution1D            conv1d_132               1 1 1477 1478 0=768 1=1 2=1 3=1 4=0 5=1 6=294912
GLU                      glu_19                   1 1 1478 1479 0=0
Concat                   cat_49                   2 1 1379 1479 1480 0=1
ConvolutionDepthWise1D   convdw1d_621             1 1 1480 1481 0=384 1=31 2=1 3=1 4=0 5=1 6=11904 7=384
Split                    splitncnn_187            1 2 1481 1482 1483
BinaryOp                 sub_266                  1 1 1482 1484 0=1 1=1 2=1.000000e+00
Sigmoid                  sigmoid_73               1 1 1484 1485
BinaryOp                 mul_267                  2 1 1483 1485 1486 0=2
Convolution1D            conv1d_133               1 1 1486 1487 0=384 1=1 2=1 3=1 4=0 5=1 6=147456
Permute                  permute_459              1 1 1487 1488 0=1
BinaryOp                 add_268                  2 1 1475 1488 1489 0=0
Split                    splitncnn_188            1 2 1489 1490 1491
InnerProduct             linear_254               1 1 1491 1492 0=2048 1=1 2=786432
Split                    splitncnn_189            1 2 1492 1493 1494
BinaryOp                 sub_269                  1 1 1493 1495 0=1 1=1 2=1.000000e+00
Sigmoid                  sigmoid_74               1 1 1495 1496
BinaryOp                 mul_270                  2 1 1494 1496 1497 0=2
InnerProduct             linear_255               1 1 1497 1498 0=384 1=1 2=786432
BinaryOp                 add_271                  2 1 1490 1498 1499 0=0
Split                    splitncnn_190            1 3 1499 1500 1501 1502
BinaryOp                 mul_272                  2 1 1500 1501 1503 0=2
Reduction                mean_416                 1 1 1503 1504 0=3 1=0 -23303=1,-1 4=1 5=1
BinaryOp                 add_273                  1 1 1504 1505 0=0 1=1 2=2.500000e-01
BinaryOp                 pow_274                  1 1 1505 1506 0=6 1=1 2=-5.000000e-01
BinaryOp                 mul_275                  2 1 1502 1506 1507 0=2
BinaryOp                 sub_276                  2 1 1507 1381 1508 0=1
BinaryOp                 mul_277                  2 1 1508 108 1509 0=2
BinaryOp                 add_278                  2 1 1382 1509 1510 0=0
Split                    splitncnn_191            1 4 1510 1511 1512 1513 1514
Crop                     crop_583                 1 1 90 1515 -23310=1,2 -23311=1,0 -23309=1,1
Reshape                  encoder.encoders.3.encoder.state_select_list.1_ncnnreshape0 1 1 1515 1516 0=0 1=0
Crop                     crop_584                 1 1 105 1517 -23310=1,2 -23311=1,0 -23309=1,1
Reshape                  pnnx_unique_92_ncnnreshape0 1 1 1517 1518 0=0 1=0
InnerProduct             linear_256               1 1 1514 1519 0=2048 1=1 2=786432
Split                    splitncnn_192            1 2 1519 1520 1521
BinaryOp                 sub_279                  1 1 1520 1522 0=1 1=1 2=1.000000e+00
Sigmoid                  sigmoid_75               1 1 1522 1523
BinaryOp                 mul_280                  2 1 1521 1523 1524 0=2
InnerProduct             linear_257               1 1 1524 1525 0=384 1=1 2=786432
BinaryOp                 add_281                  2 1 1511 1525 1526 0=0
Split                    splitncnn_193            1 2 1526 1527 1528
Crop                     select_50                1 1 30 1529 -23310=1,2 -23311=1,0 -23309=1,1
Crop                     select_51                1 1 15 1530 -23310=1,2 -23311=1,0 -23309=1,1
PoolingModuleNoProj      pooling_modul_no_proj_481 3 3 1528 1530 1529 1531 1532 1533
InnerProduct             linear_258               1 1 1531 1534 0=384 1=0 2=147456
BinaryOp                 add_282                  2 1 1527 1534 1535 0=0
Split                    splitncnn_194            1 2 1535 1536 1537
Crop                     select_52                1 1 45 1538 -23310=1,2 -23311=1,0 -23309=1,1
Crop                     select_53                1 1 60 1539 -23310=1,2 -23311=1,0 -23309=1,1
InnerProduct             linear_259               1 1 1537 1540 0=512 1=1 2=196608
Slice                    tensor_split_10          1 4 1540 1541 1542 1543 1544 -23300=4,192,192,96,-233 1=1
Concat                   cat_50                   2 1 1539 1543 1545 0=0
Reshape                  reshape_345              1 1 1545 1546 0=12 1=8 2=10
Reshape                  reshape_346              1 1 1541 1547 0=24 1=8 2=2
Reshape                  reshape_347              1 1 1544 1548 0=4 1=8 2=2
Concat                   cat_51                   2 1 1538 1542 1549 0=0
Reshape                  reshape_348              1 1 1549 1550 0=24 1=8 2=10
Permute                  permute_558              1 1 1548 1551 0=2
MatMul                   matmul_405               2 1 1551 1419 1552
Permute                  permute_559              1 1 1550 1553 0=3
Permute                  permute_557              1 1 1547 1554 0=2
MatMul                   matmul_406               2 1 1554 1553 1555
TensorAsStrided          tensor_as_strided_595    1 1 1552 1556 -23300=3,8,2,10 -23301=3,22,10,1 2=1
BinaryOp                 add_283                  2 1 1555 1556 1557 0=0
Reshape                  view_362                 1 1 1557 1558 0=10 1=2 2=8
Softmax                  softmax_93               1 1 1558 1559 0=-1 1=1
Split                    splitncnn_195            1 2 1559 1560 1561
Permute                  permute_556              1 1 1546 1562 0=2
MatMul                   bmm_383                  2 1 1561 1562 1563
Permute                  permute_560              1 1 1563 1564 0=2
Reshape                  reshape_349              1 1 1564 1565 0=96 1=2
InnerProduct             linear_260               1 1 1565 1566 0=384 1=1 2=36864
BinaryOp                 add_284                  2 1 1536 1566 1567 0=0
Split                    splitncnn_196            1 2 1567 1568 1569
Permute                  permute_460              1 1 1569 1570 0=1
Convolution1D            conv1d_134               1 1 1570 1571 0=768 1=1 2=1 3=1 4=0 5=1 6=294912
GLU                      glu_20                   1 1 1571 1572 0=0
Concat                   cat_52                   2 1 1516 1572 1573 0=1
ConvolutionDepthWise1D   convdw1d_622             1 1 1573 1574 0=384 1=31 2=1 3=1 4=0 5=1 6=11904 7=384
Split                    splitncnn_197            1 2 1574 1575 1576
BinaryOp                 sub_285                  1 1 1575 1577 0=1 1=1 2=1.000000e+00
Sigmoid                  sigmoid_76               1 1 1577 1578
BinaryOp                 mul_286                  2 1 1576 1578 1579 0=2
Convolution1D            conv1d_135               1 1 1579 1580 0=384 1=1 2=1 3=1 4=0 5=1 6=147456
Permute                  permute_461              1 1 1580 1581 0=1
BinaryOp                 add_287                  2 1 1568 1581 1582 0=0
Split                    splitncnn_198            1 2 1582 1583 1584
InnerProduct             linear_261               1 1 1584 1585 0=2048 1=1 2=786432
Split                    splitncnn_199            1 2 1585 1586 1587
BinaryOp                 sub_288                  1 1 1586 1588 0=1 1=1 2=1.000000e+00
Sigmoid                  sigmoid_77               1 1 1588 1589
BinaryOp                 mul_289                  2 1 1587 1589 1590 0=2
InnerProduct             linear_262               1 1 1590 1591 0=384 1=1 2=786432
BinaryOp                 add_290                  2 1 1583 1591 1592 0=0
Split                    splitncnn_200            1 2 1592 1593 1594
Crop                     select_54                1 1 75 1595 -23310=1,2 -23311=1,0 -23309=1,1
InnerProduct             linear_263               1 1 1594 1596 0=96 1=0 2=36864
Concat                   cat_53                   2 1 1595 1596 1597 0=0
Reshape                  reshape_350              1 1 1597 1598 0=12 1=8 2=10
Permute                  permute_561              1 1 1598 1599 0=2
MatMul                   bmm_384                  2 1 1560 1599 1600
Permute                  permute_562              1 1 1600 1601 0=2
Reshape                  reshape_351              1 1 1601 1602 0=96 1=2
InnerProduct             linear_264               1 1 1602 1603 0=384 1=1 2=36864
BinaryOp                 add_291                  2 1 1593 1603 1604 0=0
Split                    splitncnn_201            1 2 1604 1605 1606
Permute                  permute_462              1 1 1606 1607 0=1
Convolution1D            conv1d_136               1 1 1607 1608 0=768 1=1 2=1 3=1 4=0 5=1 6=294912
GLU                      glu_21                   1 1 1608 1609 0=0
Concat                   cat_54                   2 1 1518 1609 1610 0=1
ConvolutionDepthWise1D   convdw1d_623             1 1 1610 1611 0=384 1=31 2=1 3=1 4=0 5=1 6=11904 7=384
Split                    splitncnn_202            1 2 1611 1612 1613
BinaryOp                 sub_292                  1 1 1612 1614 0=1 1=1 2=1.000000e+00
Sigmoid                  sigmoid_78               1 1 1614 1615
BinaryOp                 mul_293                  2 1 1613 1615 1616 0=2
Convolution1D            conv1d_137               1 1 1616 1617 0=384 1=1 2=1 3=1 4=0 5=1 6=147456
Permute                  permute_463              1 1 1617 1618 0=1
BinaryOp                 add_294                  2 1 1605 1618 1619 0=0
Split                    splitncnn_203            1 2 1619 1620 1621
InnerProduct             linear_265               1 1 1621 1622 0=2048 1=1 2=786432
Split                    splitncnn_204            1 2 1622 1623 1624
BinaryOp                 sub_295                  1 1 1623 1625 0=1 1=1 2=1.000000e+00
Sigmoid                  sigmoid_79               1 1 1625 1626
BinaryOp                 mul_296                  2 1 1624 1626 1627 0=2
InnerProduct             linear_266               1 1 1627 1628 0=384 1=1 2=786432
BinaryOp                 add_297                  2 1 1620 1628 1629 0=0
Split                    splitncnn_205            1 3 1629 1630 1631 1632
BinaryOp                 mul_298                  2 1 1630 1631 1633 0=2
Reduction                mean_417                 1 1 1633 1634 0=3 1=0 -23303=1,-1 4=1 5=1
BinaryOp                 add_299                  1 1 1634 1635 0=0 1=1 2=2.500000e-01
BinaryOp                 pow_300                  1 1 1635 1636 0=6 1=1 2=-5.000000e-01
BinaryOp                 mul_301                  2 1 1632 1636 1637 0=2
BinaryOp                 sub_302                  2 1 1637 1512 1638 0=1
BinaryOp                 mul_303                  2 1 1638 107 1639 0=2
BinaryOp                 add_304                  2 1 1513 1639 1640 0=0
MemoryData               encoder.encoders.3.out_combiner 0 1 1641 0=1
BinaryOp                 mul_305                  2 1 1365 1641 1642 0=2
SimpleUpsample           simple_upsample_601      1 1 1640 1643 0=8 1=384 2=3072
BinaryOp                 add_306                  2 1 1642 1643 out0 0=0
