7767517
1983 2497
Input                    in0                      0 1 in0
Input                    in1                      0 1 in1
Split                    splitncnn_0              1 2 in1 2 3
Input                    in2                      0 1 in2
Split                    splitncnn_1              1 4 in2 5 6 7 8
Input                    in3                      0 1 in3
Split                    splitncnn_2              1 3 in3 10 11 12
Input                    in4                      0 1 in4
Split                    splitncnn_3              1 2 in4 14 15
Input                    in5                      0 1 in5
Split                    splitncnn_4              1 4 in5 17 18 19 20
Input                    in6                      0 1 in6
Split                    splitncnn_5              1 2 in6 22 23
Input                    in7                      0 1 in7
Split                    splitncnn_6              1 4 in7 25 26 27 28
Input                    in8                      0 1 in8
Split                    splitncnn_7              1 3 in8 30 31 32
Input                    in9                      0 1 in9
Split                    splitncnn_8              1 2 in9 34 35
Input                    in10                     0 1 in10
Split                    splitncnn_9              1 4 in10 37 38 39 40
Input                    in11                     0 1 in11
Split                    splitncnn_10             1 2 in11 42 43
Input                    in12                     0 1 in12
Split                    splitncnn_11             1 4 in12 45 46 47 48
Input                    in13                     0 1 in13
Split                    splitncnn_12             1 3 in13 50 51 52
Input                    in14                     0 1 in14
Split                    splitncnn_13             1 2 in14 54 55
Input                    in15                     0 1 in15
Split                    splitncnn_14             1 4 in15 57 58 59 60
Input                    in16                     0 1 in16
Split                    splitncnn_15             1 2 in16 62 63
Input                    in17                     0 1 in17
Split                    splitncnn_16             1 4 in17 65 66 67 68
Input                    in18                     0 1 in18
Split                    splitncnn_17             1 3 in18 70 71 72
Input                    in19                     0 1 in19
Split                    splitncnn_18             1 2 in19 74 75
Input                    in20                     0 1 in20
Split                    splitncnn_19             1 4 in20 77 78 79 80
Input                    in21                     0 1 in21
Split                    splitncnn_20             1 2 in21 82 83
Input                    in22                     0 1 in22
Split                    splitncnn_21             1 4 in22 85 86 87 88
Input                    in23                     0 1 in23
Split                    splitncnn_22             1 3 in23 90 91 92
Input                    in24                     0 1 in24
Split                    splitncnn_23             1 2 in24 94 95
Input                    in25                     0 1 in25
Split                    splitncnn_24             1 4 in25 97 98 99 100
Input                    in26                     0 1 in26
Split                    splitncnn_25             1 2 in26 102 103
Input                    in27                     0 1 in27
Split                    splitncnn_26             1 4 in27 105 106 107 108
Input                    in28                     0 1 in28
Split                    splitncnn_27             1 3 in28 110 111 112
Input                    in29                     0 1 in29
Split                    splitncnn_28             1 2 in29 114 115
Input                    in30                     0 1 in30
Split                    splitncnn_29             1 4 in30 117 118 119 120
Input                    in31                     0 1 in31
Split                    splitncnn_30             1 2 in31 122 123
Input                    in32                     0 1 in32
Split                    splitncnn_31             1 4 in32 125 126 127 128
Input                    in33                     0 1 in33
Split                    splitncnn_32             1 3 in33 130 131 132
Input                    in34                     0 1 in34
Split                    splitncnn_33             1 2 in34 134 135
Input                    in35                     0 1 in35
Split                    splitncnn_34             1 4 in35 137 138 139 140
MemoryData               encoder.encoders.4.encoder.layers.3 0 1 141 0=1
MemoryData               encoder.encoders.4.encoder.layers.2 0 1 142 0=1
MemoryData               encoder.encoders.4.encoder.layers.1 0 1 143 0=1
MemoryData               encoder.encoders.4.encoder.layers.0 0 1 144 0=1
MemoryData               encoder.encoders.4.encoder.encoder_pos 0 1 145 0=384 1=47 2=1
MemoryData               encoder.encoders.3.encoder.layers.1 0 1 146 0=1
MemoryData               encoder.encoders.3.encoder.layers.0 0 1 147 0=1
MemoryData               encoder.encoders.3.encoder.encoder_pos 0 1 148 0=384 1=11 2=1
MemoryData               encoder.encoders.2.encoder.layers.2 0 1 149 0=1
MemoryData               encoder.encoders.2.encoder.layers.1 0 1 150 0=1
MemoryData               encoder.encoders.2.encoder.layers.0 0 1 151 0=1
MemoryData               encoder.encoders.2.encoder.encoder_pos 0 1 152 0=384 1=23 2=1
MemoryData               encoder.encoders.1.encoder.layers.3 0 1 153 0=1
MemoryData               encoder.encoders.1.encoder.layers.2 0 1 154 0=1
MemoryData               encoder.encoders.1.encoder.layers.1 0 1 155 0=1
MemoryData               encoder.encoders.1.encoder.layers.0 0 1 156 0=1
MemoryData               encoder.encoders.1.encoder.encoder_pos 0 1 157 0=384 1=47 2=1
MemoryData               encoder.encoders.0.layers.1 0 1 158 0=1
MemoryData               encoder.encoders.0.layers.0 0 1 159 0=1
MemoryData               encoder.encoders.0.encoder_pos 0 1 160 0=384 1=95 2=1
ExpandDims               unsqueeze_716            1 1 in0 161 -23303=1,0
Convolution              conv_188                 1 1 161 162 0=8 1=3 11=3 12=1 13=1 14=0 2=1 3=1 4=1 5=1 6=72
Split                    splitncnn_35             1 2 162 163 164
BinaryOp                 sub_0                    1 1 163 165 0=1 1=1 2=1.000000e+00
Sigmoid                  sigmoid_30               1 1 165 166
BinaryOp                 mul_1                    2 1 164 166 167 0=2
Convolution              conv_189                 1 1 167 168 0=32 1=3 11=3 12=1 13=2 14=0 2=1 3=2 4=0 5=1 6=2304
Split                    splitncnn_36             1 2 168 169 170
BinaryOp                 sub_2                    1 1 169 171 0=1 1=1 2=1.000000e+00
Sigmoid                  sigmoid_31               1 1 171 172
BinaryOp                 mul_3                    2 1 170 172 173 0=2
Convolution              conv_190                 1 1 173 174 0=128 1=3 11=3 12=1 13=1 14=0 2=1 3=2 4=0 5=1 6=36864
Split                    splitncnn_37             1 2 174 175 176
BinaryOp                 sub_4                    1 1 175 177 0=1 1=1 2=1.000000e+00
Sigmoid                  sigmoid_32               1 1 177 178
BinaryOp                 mul_5                    2 1 176 178 179 0=2
Crop                     crop_842                 1 1 103 180 -23310=1,1 -23311=1,0 -23309=1,0
Reshape                  encoder.encoders.0.state_select_list.0_ncnnreshape0 1 1 180 181 0=0 1=0
Crop                     crop_843                 1 1 123 182 -23310=1,1 -23311=1,0 -23309=1,0
Reshape                  pnnx_unique_15_ncnnreshape0 1 1 182 183 0=0 1=0
Permute                  permute_643              1 1 179 184 0=2
Reshape                  reshape_362              1 1 184 185 0=2432 1=-1
InnerProduct             linear_191               1 1 185 186 0=384 1=1 2=933888
Split                    splitncnn_38             1 4 186 187 188 189 190
InnerProduct             linear_192               1 1 190 191 0=1024 1=1 2=393216
Split                    splitncnn_39             1 2 191 192 193
BinaryOp                 sub_6                    1 1 192 194 0=1 1=1 2=1.000000e+00
Sigmoid                  sigmoid_33               1 1 194 195
BinaryOp                 mul_7                    2 1 193 195 196 0=2
InnerProduct             linear_193               1 1 196 197 0=384 1=1 2=393216
BinaryOp                 add_8                    2 1 187 197 198 0=0
Split                    splitncnn_40             1 2 198 199 200
Crop                     select_0                 1 1 23 201 -23310=1,1 -23311=1,0 -23309=1,0
Crop                     select_1                 1 1 3 202 -23310=1,1 -23311=1,0 -23309=1,0
PoolingModuleNoProj      pooling_modul_no_proj_717 3 3 200 202 201 203 204 205
InnerProduct             linear_194               1 1 203 206 0=384 1=0 2=147456
BinaryOp                 add_9                    2 1 199 206 207 0=0
Split                    splitncnn_41             1 2 207 208 209
Crop                     select_2                 1 1 43 210 -23310=1,1 -23311=1,0 -23309=1,0
Crop                     select_3                 1 1 63 211 -23310=1,1 -23311=1,0 -23309=1,0
InnerProduct             linear_195               1 1 209 212 0=512 1=1 2=196608
Slice                    tensor_split_0           1 4 212 213 214 215 216 -23300=4,192,192,96,-233 1=1
Concat                   cat_0                    2 1 211 215 217 0=0
Split                    splitncnn_42             1 2 217 218 219
Reshape                  reshape_363              1 1 218 220 0=12 1=8 2=80
Reshape                  reshape_364              1 1 213 221 0=24 1=8 2=16
Reshape                  reshape_365              1 1 216 222 0=4 1=8 2=16
Concat                   cat_1                    2 1 210 214 223 0=0
Split                    splitncnn_43             1 2 223 224 225
Reshape                  reshape_366              1 1 224 226 0=24 1=8 2=80
InnerProduct             linear_196               1 1 160 227 0=32 1=0 2=12288
Reshape                  reshape_367              1 1 227 228 0=4 1=8 2=95
Permute                  permute_736              1 1 228 229 0=3
Split                    splitncnn_44             1 2 229 230 231
Permute                  permute_734              1 1 222 232 0=2
MatMul                   matmul_598               2 1 232 231 233
Permute                  permute_735              1 1 226 234 0=3
Permute                  permute_733              1 1 221 235 0=2
MatMul                   matmul_599               2 1 235 234 236
TensorAsStrided          tensor_as_strided_872    1 1 233 237 -23300=3,8,16,80 -23301=3,1520,94,1 2=15
BinaryOp                 add_10                   2 1 236 237 238 0=0
Reshape                  view_553                 1 1 238 239 0=80 1=16 2=8
Softmax                  softmax_108              1 1 239 240 0=-1 1=1
Split                    splitncnn_45             1 2 240 241 242
Permute                  permute_732              1 1 220 243 0=2
MatMul                   bmm_568                  2 1 242 243 244
Permute                  permute_737              1 1 244 245 0=2
Reshape                  reshape_368              1 1 245 246 0=96 1=16
InnerProduct             linear_197               1 1 246 247 0=384 1=1 2=36864
BinaryOp                 add_11                   2 1 208 247 248 0=0
Split                    splitncnn_46             1 2 248 249 250
Permute                  permute_645              1 1 250 251 0=1
Convolution1D            conv1d_128               1 1 251 252 0=768 1=1 2=1 3=1 4=0 5=1 6=294912
GLU                      glu_0                    1 1 252 253 0=0
Concat                   cat_2                    2 1 181 253 254 0=1
Split                    splitncnn_47             1 2 254 255 256
ConvolutionDepthWise1D   convdw1d_896             1 1 256 257 0=384 1=31 2=1 3=1 4=0 5=1 6=11904 7=384
Split                    splitncnn_48             1 2 257 258 259
BinaryOp                 sub_12                   1 1 258 260 0=1 1=1 2=1.000000e+00
Sigmoid                  sigmoid_34               1 1 260 261
BinaryOp                 mul_13                   2 1 259 261 262 0=2
Convolution1D            conv1d_129               1 1 262 263 0=384 1=1 2=1 3=1 4=0 5=1 6=147456
Permute                  permute_646              1 1 263 264 0=1
BinaryOp                 add_14                   2 1 249 264 265 0=0
Split                    splitncnn_49             1 2 265 266 267
InnerProduct             linear_198               1 1 267 268 0=1024 1=1 2=393216
Split                    splitncnn_50             1 2 268 269 270
BinaryOp                 sub_15                   1 1 269 271 0=1 1=1 2=1.000000e+00
Sigmoid                  sigmoid_35               1 1 271 272
BinaryOp                 mul_16                   2 1 270 272 273 0=2
InnerProduct             linear_199               1 1 273 274 0=384 1=1 2=393216
BinaryOp                 add_17                   2 1 266 274 275 0=0
Split                    splitncnn_51             1 2 275 276 277
Crop                     select_4                 1 1 83 278 -23310=1,1 -23311=1,0 -23309=1,0
InnerProduct             linear_200               1 1 277 279 0=96 1=0 2=36864
Concat                   cat_3                    2 1 278 279 280 0=0
Split                    splitncnn_52             1 2 280 281 282
Reshape                  reshape_369              1 1 281 283 0=12 1=8 2=80
Permute                  permute_738              1 1 283 284 0=2
MatMul                   bmm_569                  2 1 241 284 285
Permute                  permute_739              1 1 285 286 0=2
Reshape                  reshape_370              1 1 286 287 0=96 1=16
InnerProduct             linear_201               1 1 287 288 0=384 1=1 2=36864
BinaryOp                 add_18                   2 1 276 288 289 0=0
Split                    splitncnn_53             1 2 289 290 291
Permute                  permute_647              1 1 291 292 0=1
Convolution1D            conv1d_130               1 1 292 293 0=768 1=1 2=1 3=1 4=0 5=1 6=294912
GLU                      glu_1                    1 1 293 294 0=0
Concat                   cat_4                    2 1 183 294 295 0=1
Split                    splitncnn_54             1 2 295 296 297
ConvolutionDepthWise1D   convdw1d_897             1 1 297 298 0=384 1=31 2=1 3=1 4=0 5=1 6=11904 7=384
Split                    splitncnn_55             1 2 298 299 300
BinaryOp                 sub_19                   1 1 299 301 0=1 1=1 2=1.000000e+00
Sigmoid                  sigmoid_36               1 1 301 302
BinaryOp                 mul_20                   2 1 300 302 303 0=2
Convolution1D            conv1d_131               1 1 303 304 0=384 1=1 2=1 3=1 4=0 5=1 6=147456
Permute                  permute_648              1 1 304 305 0=1
BinaryOp                 add_21                   2 1 290 305 306 0=0
Split                    splitncnn_56             1 2 306 307 308
InnerProduct             linear_202               1 1 308 309 0=1024 1=1 2=393216
Split                    splitncnn_57             1 2 309 310 311
BinaryOp                 sub_22                   1 1 310 312 0=1 1=1 2=1.000000e+00
Sigmoid                  sigmoid_37               1 1 312 313
BinaryOp                 mul_23                   2 1 311 313 314 0=2
InnerProduct             linear_203               1 1 314 315 0=384 1=1 2=393216
BinaryOp                 add_24                   2 1 307 315 316 0=0
Split                    splitncnn_58             1 3 316 317 318 319
BinaryOp                 mul_25                   2 1 317 318 320 0=2
Reduction                mean_628                 1 1 320 321 0=3 1=0 -23303=1,-1 4=1 5=1
BinaryOp                 add_26                   1 1 321 322 0=0 1=1 2=2.500000e-01
BinaryOp                 pow_27                   1 1 322 323 0=6 1=1 2=-5.000000e-01
BinaryOp                 mul_28                   2 1 319 323 324 0=2
BinaryOp                 sub_29                   2 1 324 188 325 0=1
BinaryOp                 mul_30                   2 1 325 159 326 0=2
BinaryOp                 add_31                   2 1 189 326 327 0=0
Split                    splitncnn_59             1 4 327 328 329 330 331
Crop                     crop_844                 1 1 102 332 -23310=1,2 -23311=1,0 -23309=1,1
Reshape                  encoder.encoders.0.state_select_list.1_ncnnreshape0 1 1 332 333 0=0 1=0
Crop                     crop_845                 1 1 122 334 -23310=1,2 -23311=1,0 -23309=1,1
Reshape                  pnnx_unique_22_ncnnreshape0 1 1 334 335 0=0 1=0
InnerProduct             linear_204               1 1 331 336 0=1024 1=1 2=393216
Split                    splitncnn_60             1 2 336 337 338
BinaryOp                 sub_32                   1 1 337 339 0=1 1=1 2=1.000000e+00
Sigmoid                  sigmoid_38               1 1 339 340
BinaryOp                 mul_33                   2 1 338 340 341 0=2
InnerProduct             linear_205               1 1 341 342 0=384 1=1 2=393216
BinaryOp                 add_34                   2 1 328 342 343 0=0
Split                    splitncnn_61             1 2 343 344 345
Crop                     select_5                 1 1 22 346 -23310=1,2 -23311=1,0 -23309=1,1
Crop                     select_6                 1 1 2 347 -23310=1,2 -23311=1,0 -23309=1,1
PoolingModuleNoProj      pooling_modul_no_proj_718 3 3 345 347 346 348 349 350
InnerProduct             linear_206               1 1 348 351 0=384 1=0 2=147456
BinaryOp                 add_35                   2 1 344 351 352 0=0
Split                    splitncnn_62             1 2 352 353 354
Crop                     select_7                 1 1 42 355 -23310=1,2 -23311=1,0 -23309=1,1
Crop                     select_8                 1 1 62 356 -23310=1,2 -23311=1,0 -23309=1,1
InnerProduct             linear_207               1 1 354 357 0=512 1=1 2=196608
Slice                    tensor_split_1           1 4 357 358 359 360 361 -23300=4,192,192,96,-233 1=1
Concat                   cat_5                    2 1 356 360 362 0=0
Split                    splitncnn_63             1 2 362 363 364
Reshape                  reshape_371              1 1 363 365 0=12 1=8 2=80
Reshape                  reshape_372              1 1 358 366 0=24 1=8 2=16
Reshape                  reshape_373              1 1 361 367 0=4 1=8 2=16
Concat                   cat_6                    2 1 355 359 368 0=0
Split                    splitncnn_64             1 2 368 369 370
Reshape                  reshape_374              1 1 369 371 0=24 1=8 2=80
Permute                  permute_742              1 1 367 372 0=2
MatMul                   matmul_600               2 1 372 230 373
Permute                  permute_743              1 1 371 374 0=3
Permute                  permute_741              1 1 366 375 0=2
MatMul                   matmul_601               2 1 375 374 376
TensorAsStrided          tensor_as_strided_873    1 1 373 377 -23300=3,8,16,80 -23301=3,1520,94,1 2=15
BinaryOp                 add_36                   2 1 376 377 378 0=0
Reshape                  view_554                 1 1 378 379 0=80 1=16 2=8
Softmax                  softmax_109              1 1 379 380 0=-1 1=1
Split                    splitncnn_65             1 2 380 381 382
Permute                  permute_740              1 1 365 383 0=2
MatMul                   bmm_570                  2 1 382 383 384
Permute                  permute_744              1 1 384 385 0=2
Reshape                  reshape_375              1 1 385 386 0=96 1=16
InnerProduct             linear_208               1 1 386 387 0=384 1=1 2=36864
BinaryOp                 add_37                   2 1 353 387 388 0=0
Split                    splitncnn_66             1 2 388 389 390
Permute                  permute_649              1 1 390 391 0=1
Convolution1D            conv1d_132               1 1 391 392 0=768 1=1 2=1 3=1 4=0 5=1 6=294912
GLU                      glu_2                    1 1 392 393 0=0
Concat                   cat_7                    2 1 333 393 394 0=1
Split                    splitncnn_67             1 2 394 395 396
ConvolutionDepthWise1D   convdw1d_898             1 1 396 397 0=384 1=31 2=1 3=1 4=0 5=1 6=11904 7=384
Split                    splitncnn_68             1 2 397 398 399
BinaryOp                 sub_38                   1 1 398 400 0=1 1=1 2=1.000000e+00
Sigmoid                  sigmoid_39               1 1 400 401
BinaryOp                 mul_39                   2 1 399 401 402 0=2
Convolution1D            conv1d_133               1 1 402 403 0=384 1=1 2=1 3=1 4=0 5=1 6=147456
Permute                  permute_650              1 1 403 404 0=1
BinaryOp                 add_40                   2 1 389 404 405 0=0
Split                    splitncnn_69             1 2 405 406 407
InnerProduct             linear_209               1 1 407 408 0=1024 1=1 2=393216
Split                    splitncnn_70             1 2 408 409 410
BinaryOp                 sub_41                   1 1 409 411 0=1 1=1 2=1.000000e+00
Sigmoid                  sigmoid_40               1 1 411 412
BinaryOp                 mul_42                   2 1 410 412 413 0=2
InnerProduct             linear_210               1 1 413 414 0=384 1=1 2=393216
BinaryOp                 add_43                   2 1 406 414 415 0=0
Split                    splitncnn_71             1 2 415 416 417
Crop                     select_9                 1 1 82 418 -23310=1,2 -23311=1,0 -23309=1,1
InnerProduct             linear_211               1 1 417 419 0=96 1=0 2=36864
Concat                   cat_8                    2 1 418 419 420 0=0
Split                    splitncnn_72             1 2 420 421 422
Reshape                  reshape_376              1 1 421 423 0=12 1=8 2=80
Permute                  permute_745              1 1 423 424 0=2
MatMul                   bmm_571                  2 1 381 424 425
Permute                  permute_746              1 1 425 426 0=2
Reshape                  reshape_377              1 1 426 427 0=96 1=16
InnerProduct             linear_212               1 1 427 428 0=384 1=1 2=36864
BinaryOp                 add_44                   2 1 416 428 429 0=0
Split                    splitncnn_73             1 2 429 430 431
Permute                  permute_651              1 1 431 432 0=1
Convolution1D            conv1d_134               1 1 432 433 0=768 1=1 2=1 3=1 4=0 5=1 6=294912
GLU                      glu_3                    1 1 433 434 0=0
Concat                   cat_9                    2 1 335 434 435 0=1
Split                    splitncnn_74             1 2 435 436 437
ConvolutionDepthWise1D   convdw1d_899             1 1 437 438 0=384 1=31 2=1 3=1 4=0 5=1 6=11904 7=384
Split                    splitncnn_75             1 2 438 439 440
BinaryOp                 sub_45                   1 1 439 441 0=1 1=1 2=1.000000e+00
Sigmoid                  sigmoid_41               1 1 441 442
BinaryOp                 mul_46                   2 1 440 442 443 0=2
Convolution1D            conv1d_135               1 1 443 444 0=384 1=1 2=1 3=1 4=0 5=1 6=147456
Permute                  permute_652              1 1 444 445 0=1
BinaryOp                 add_47                   2 1 430 445 446 0=0
Split                    splitncnn_76             1 2 446 447 448
InnerProduct             linear_213               1 1 448 449 0=1024 1=1 2=393216
Split                    splitncnn_77             1 2 449 450 451
BinaryOp                 sub_48                   1 1 450 452 0=1 1=1 2=1.000000e+00
Sigmoid                  sigmoid_42               1 1 452 453
BinaryOp                 mul_49                   2 1 451 453 454 0=2
InnerProduct             linear_214               1 1 454 455 0=384 1=1 2=393216
BinaryOp                 add_50                   2 1 447 455 456 0=0
Split                    splitncnn_78             1 3 456 457 458 459
BinaryOp                 mul_51                   2 1 457 458 460 0=2
Reduction                mean_629                 1 1 460 461 0=3 1=0 -23303=1,-1 4=1 5=1
BinaryOp                 add_52                   1 1 461 462 0=0 1=1 2=2.500000e-01
BinaryOp                 pow_53                   1 1 462 463 0=6 1=1 2=-5.000000e-01
BinaryOp                 mul_54                   2 1 459 463 464 0=2
BinaryOp                 sub_55                   2 1 464 329 465 0=1
BinaryOp                 mul_56                   2 1 465 158 466 0=2
BinaryOp                 add_57                   2 1 330 466 467 0=0
Split                    splitncnn_79             1 2 467 468 469
MemoryData               encoder.encoders.1.downsample 0 1 470 0=384 1=1
Reshape                  reshape_378              1 1 469 471 0=384 1=2 2=8
Split                    splitncnn_80             1 2 471 472 473
BinaryOp                 mul_58                   2 1 472 470 474 0=2
Reduction                sum_706                  1 1 474 475 0=0 1=0 -23303=1,-1 4=1 5=1
Softmax                  softmax_110              1 1 475 476
BinaryOp                 mul_59                   2 1 473 476 477 0=2
Reduction                sum_707                  1 1 477 478 0=0 1=0 -23303=0 4=0 5=1
Crop                     crop_846                 1 1 108 479 -23310=1,1 -23311=1,0 -23309=1,0
Reshape                  encoder.encoders.1.encoder.state_select_list.0_ncnnreshape0 1 1 479 480 0=0 1=0
Crop                     crop_847                 1 1 128 481 -23310=1,1 -23311=1,0 -23309=1,0
Reshape                  pnnx_unique_30_ncnnreshape0 1 1 481 482 0=0 1=0
Split                    splitncnn_81             1 4 478 483 484 485 486
InnerProduct             linear_215               1 1 486 487 0=1024 1=1 2=393216
Split                    splitncnn_82             1 2 487 488 489
BinaryOp                 sub_60                   1 1 488 490 0=1 1=1 2=1.000000e+00
Sigmoid                  sigmoid_43               1 1 490 491
BinaryOp                 mul_61                   2 1 489 491 492 0=2
InnerProduct             linear_216               1 1 492 493 0=384 1=1 2=393216
BinaryOp                 add_62                   2 1 483 493 494 0=0
Split                    splitncnn_83             1 2 494 495 496
Crop                     select_10                1 1 28 497 -23310=1,1 -23311=1,0 -23309=1,0
Crop                     select_11                1 1 8 498 -23310=1,1 -23311=1,0 -23309=1,0
PoolingModuleNoProj      pooling_modul_no_proj_719 3 3 496 498 497 499 500 501
InnerProduct             linear_217               1 1 499 502 0=384 1=0 2=147456
BinaryOp                 add_63                   2 1 495 502 503 0=0
Split                    splitncnn_84             1 2 503 504 505
Crop                     select_12                1 1 48 506 -23310=1,1 -23311=1,0 -23309=1,0
Crop                     select_13                1 1 68 507 -23310=1,1 -23311=1,0 -23309=1,0
InnerProduct             linear_218               1 1 505 508 0=512 1=1 2=196608
Slice                    tensor_split_2           1 4 508 509 510 511 512 -23300=4,192,192,96,-233 1=1
Concat                   cat_10                   2 1 507 511 513 0=0
Split                    splitncnn_85             1 2 513 514 515
Reshape                  reshape_379              1 1 514 516 0=12 1=8 2=40
Reshape                  reshape_380              1 1 509 517 0=24 1=8 2=8
Reshape                  reshape_381              1 1 512 518 0=4 1=8 2=8
Concat                   cat_11                   2 1 506 510 519 0=0
Split                    splitncnn_86             1 2 519 520 521
Reshape                  reshape_382              1 1 520 522 0=24 1=8 2=40
InnerProduct             linear_219               1 1 157 523 0=32 1=0 2=12288
Reshape                  reshape_383              1 1 523 524 0=4 1=8 2=47
Permute                  permute_751              1 1 524 525 0=3
Split                    splitncnn_87             1 4 525 526 527 528 529
Permute                  permute_749              1 1 518 530 0=2
MatMul                   matmul_602               2 1 530 529 531
Permute                  permute_750              1 1 522 532 0=3
Permute                  permute_748              1 1 517 533 0=2
MatMul                   matmul_603               2 1 533 532 534
TensorAsStrided          tensor_as_strided_874    1 1 531 535 -23300=3,8,8,40 -23301=3,376,46,1 2=7
BinaryOp                 add_64                   2 1 534 535 536 0=0
Reshape                  view_555                 1 1 536 537 0=40 1=8 2=8
Softmax                  softmax_111              1 1 537 538 0=-1 1=1
Split                    splitncnn_88             1 2 538 539 540
Permute                  permute_747              1 1 516 541 0=2
MatMul                   bmm_572                  2 1 540 541 542
Permute                  permute_752              1 1 542 543 0=2
Reshape                  reshape_384              1 1 543 544 0=96 1=8
InnerProduct             linear_220               1 1 544 545 0=384 1=1 2=36864
BinaryOp                 add_65                   2 1 504 545 546 0=0
Split                    splitncnn_89             1 2 546 547 548
Permute                  permute_653              1 1 548 549 0=1
Convolution1D            conv1d_136               1 1 549 550 0=768 1=1 2=1 3=1 4=0 5=1 6=294912
GLU                      glu_4                    1 1 550 551 0=0
Concat                   cat_12                   2 1 480 551 552 0=1
Split                    splitncnn_90             1 2 552 553 554
ConvolutionDepthWise1D   convdw1d_900             1 1 554 555 0=384 1=31 2=1 3=1 4=0 5=1 6=11904 7=384
Split                    splitncnn_91             1 2 555 556 557
BinaryOp                 sub_66                   1 1 556 558 0=1 1=1 2=1.000000e+00
Sigmoid                  sigmoid_44               1 1 558 559
BinaryOp                 mul_67                   2 1 557 559 560 0=2
Convolution1D            conv1d_137               1 1 560 561 0=384 1=1 2=1 3=1 4=0 5=1 6=147456
Permute                  permute_654              1 1 561 562 0=1
BinaryOp                 add_68                   2 1 547 562 563 0=0
Split                    splitncnn_92             1 2 563 564 565
InnerProduct             linear_221               1 1 565 566 0=1024 1=1 2=393216
Split                    splitncnn_93             1 2 566 567 568
BinaryOp                 sub_69                   1 1 567 569 0=1 1=1 2=1.000000e+00
Sigmoid                  sigmoid_45               1 1 569 570
BinaryOp                 mul_70                   2 1 568 570 571 0=2
InnerProduct             linear_222               1 1 571 572 0=384 1=1 2=393216
BinaryOp                 add_71                   2 1 564 572 573 0=0
Split                    splitncnn_94             1 2 573 574 575
Crop                     select_14                1 1 88 576 -23310=1,1 -23311=1,0 -23309=1,0
InnerProduct             linear_223               1 1 575 577 0=96 1=0 2=36864
Concat                   cat_13                   2 1 576 577 578 0=0
Split                    splitncnn_95             1 2 578 579 580
Reshape                  reshape_385              1 1 579 581 0=12 1=8 2=40
Permute                  permute_753              1 1 581 582 0=2
MatMul                   bmm_573                  2 1 539 582 583
Permute                  permute_754              1 1 583 584 0=2
Reshape                  reshape_386              1 1 584 585 0=96 1=8
InnerProduct             linear_224               1 1 585 586 0=384 1=1 2=36864
BinaryOp                 add_72                   2 1 574 586 587 0=0
Split                    splitncnn_96             1 2 587 588 589
Permute                  permute_655              1 1 589 590 0=1
Convolution1D            conv1d_138               1 1 590 591 0=768 1=1 2=1 3=1 4=0 5=1 6=294912
GLU                      glu_5                    1 1 591 592 0=0
Concat                   cat_14                   2 1 482 592 593 0=1
Split                    splitncnn_97             1 2 593 594 595
ConvolutionDepthWise1D   convdw1d_901             1 1 595 596 0=384 1=31 2=1 3=1 4=0 5=1 6=11904 7=384
Split                    splitncnn_98             1 2 596 597 598
BinaryOp                 sub_73                   1 1 597 599 0=1 1=1 2=1.000000e+00
Sigmoid                  sigmoid_46               1 1 599 600
BinaryOp                 mul_74                   2 1 598 600 601 0=2
Convolution1D            conv1d_139               1 1 601 602 0=384 1=1 2=1 3=1 4=0 5=1 6=147456
Permute                  permute_656              1 1 602 603 0=1
BinaryOp                 add_75                   2 1 588 603 604 0=0
Split                    splitncnn_99             1 2 604 605 606
InnerProduct             linear_225               1 1 606 607 0=1024 1=1 2=393216
Split                    splitncnn_100            1 2 607 608 609
BinaryOp                 sub_76                   1 1 608 610 0=1 1=1 2=1.000000e+00
Sigmoid                  sigmoid_47               1 1 610 611
BinaryOp                 mul_77                   2 1 609 611 612 0=2
InnerProduct             linear_226               1 1 612 613 0=384 1=1 2=393216
BinaryOp                 add_78                   2 1 605 613 614 0=0
Split                    splitncnn_101            1 3 614 615 616 617
BinaryOp                 mul_79                   2 1 615 616 618 0=2
Reduction                mean_630                 1 1 618 619 0=3 1=0 -23303=1,-1 4=1 5=1
BinaryOp                 add_80                   1 1 619 620 0=0 1=1 2=2.500000e-01
BinaryOp                 pow_81                   1 1 620 621 0=6 1=1 2=-5.000000e-01
BinaryOp                 mul_82                   2 1 617 621 622 0=2
BinaryOp                 sub_83                   2 1 622 484 623 0=1
BinaryOp                 mul_84                   2 1 623 156 624 0=2
BinaryOp                 add_85                   2 1 485 624 625 0=0
Split                    splitncnn_102            1 4 625 626 627 628 629
Crop                     crop_848                 1 1 107 630 -23310=1,2 -23311=1,0 -23309=1,1
Reshape                  encoder.encoders.1.encoder.state_select_list.1_ncnnreshape0 1 1 630 631 0=0 1=0
Crop                     crop_849                 1 1 127 632 -23310=1,2 -23311=1,0 -23309=1,1
Reshape                  pnnx_unique_38_ncnnreshape0 1 1 632 633 0=0 1=0
InnerProduct             linear_227               1 1 629 634 0=1024 1=1 2=393216
Split                    splitncnn_103            1 2 634 635 636
BinaryOp                 sub_86                   1 1 635 637 0=1 1=1 2=1.000000e+00
Sigmoid                  sigmoid_48               1 1 637 638
BinaryOp                 mul_87                   2 1 636 638 639 0=2
InnerProduct             linear_228               1 1 639 640 0=384 1=1 2=393216
BinaryOp                 add_88                   2 1 626 640 641 0=0
Split                    splitncnn_104            1 2 641 642 643
Crop                     select_15                1 1 27 644 -23310=1,2 -23311=1,0 -23309=1,1
Crop                     select_16                1 1 7 645 -23310=1,2 -23311=1,0 -23309=1,1
PoolingModuleNoProj      pooling_modul_no_proj_720 3 3 643 645 644 646 647 648
InnerProduct             linear_229               1 1 646 649 0=384 1=0 2=147456
BinaryOp                 add_89                   2 1 642 649 650 0=0
Split                    splitncnn_105            1 2 650 651 652
Crop                     select_17                1 1 47 653 -23310=1,2 -23311=1,0 -23309=1,1
Crop                     select_18                1 1 67 654 -23310=1,2 -23311=1,0 -23309=1,1
InnerProduct             linear_230               1 1 652 655 0=512 1=1 2=196608
Slice                    tensor_split_3           1 4 655 656 657 658 659 -23300=4,192,192,96,-233 1=1
Concat                   cat_15                   2 1 654 658 660 0=0
Split                    splitncnn_106            1 2 660 661 662
Reshape                  reshape_387              1 1 661 663 0=12 1=8 2=40
Reshape                  reshape_388              1 1 656 664 0=24 1=8 2=8
Reshape                  reshape_389              1 1 659 665 0=4 1=8 2=8
Concat                   cat_16                   2 1 653 657 666 0=0
Split                    splitncnn_107            1 2 666 667 668
Reshape                  reshape_390              1 1 667 669 0=24 1=8 2=40
Permute                  permute_757              1 1 665 670 0=2
MatMul                   matmul_604               2 1 670 528 671
Permute                  permute_758              1 1 669 672 0=3
Permute                  permute_756              1 1 664 673 0=2
MatMul                   matmul_605               2 1 673 672 674
TensorAsStrided          tensor_as_strided_875    1 1 671 675 -23300=3,8,8,40 -23301=3,376,46,1 2=7
BinaryOp                 add_90                   2 1 674 675 676 0=0
Reshape                  view_556                 1 1 676 677 0=40 1=8 2=8
Softmax                  softmax_112              1 1 677 678 0=-1 1=1
Split                    splitncnn_108            1 2 678 679 680
Permute                  permute_755              1 1 663 681 0=2
MatMul                   bmm_574                  2 1 680 681 682
Permute                  permute_759              1 1 682 683 0=2
Reshape                  reshape_391              1 1 683 684 0=96 1=8
InnerProduct             linear_231               1 1 684 685 0=384 1=1 2=36864
BinaryOp                 add_91                   2 1 651 685 686 0=0
Split                    splitncnn_109            1 2 686 687 688
Permute                  permute_657              1 1 688 689 0=1
Convolution1D            conv1d_140               1 1 689 690 0=768 1=1 2=1 3=1 4=0 5=1 6=294912
GLU                      glu_6                    1 1 690 691 0=0
Concat                   cat_17                   2 1 631 691 692 0=1
Split                    splitncnn_110            1 2 692 693 694
ConvolutionDepthWise1D   convdw1d_902             1 1 694 695 0=384 1=31 2=1 3=1 4=0 5=1 6=11904 7=384
Split                    splitncnn_111            1 2 695 696 697
BinaryOp                 sub_92                   1 1 696 698 0=1 1=1 2=1.000000e+00
Sigmoid                  sigmoid_49               1 1 698 699
BinaryOp                 mul_93                   2 1 697 699 700 0=2
Convolution1D            conv1d_141               1 1 700 701 0=384 1=1 2=1 3=1 4=0 5=1 6=147456
Permute                  permute_658              1 1 701 702 0=1
BinaryOp                 add_94                   2 1 687 702 703 0=0
Split                    splitncnn_112            1 2 703 704 705
InnerProduct             linear_232               1 1 705 706 0=1024 1=1 2=393216
Split                    splitncnn_113            1 2 706 707 708
BinaryOp                 sub_95                   1 1 707 709 0=1 1=1 2=1.000000e+00
Sigmoid                  sigmoid_50               1 1 709 710
BinaryOp                 mul_96                   2 1 708 710 711 0=2
InnerProduct             linear_233               1 1 711 712 0=384 1=1 2=393216
BinaryOp                 add_97                   2 1 704 712 713 0=0
Split                    splitncnn_114            1 2 713 714 715
Crop                     select_19                1 1 87 716 -23310=1,2 -23311=1,0 -23309=1,1
InnerProduct             linear_234               1 1 715 717 0=96 1=0 2=36864
Concat                   cat_18                   2 1 716 717 718 0=0
Split                    splitncnn_115            1 2 718 719 720
Reshape                  reshape_392              1 1 719 721 0=12 1=8 2=40
Permute                  permute_760              1 1 721 722 0=2
MatMul                   bmm_575                  2 1 679 722 723
Permute                  permute_761              1 1 723 724 0=2
Reshape                  reshape_393              1 1 724 725 0=96 1=8
InnerProduct             linear_235               1 1 725 726 0=384 1=1 2=36864
BinaryOp                 add_98                   2 1 714 726 727 0=0
Split                    splitncnn_116            1 2 727 728 729
Permute                  permute_659              1 1 729 730 0=1
Convolution1D            conv1d_142               1 1 730 731 0=768 1=1 2=1 3=1 4=0 5=1 6=294912
GLU                      glu_7                    1 1 731 732 0=0
Concat                   cat_19                   2 1 633 732 733 0=1
Split                    splitncnn_117            1 2 733 734 735
ConvolutionDepthWise1D   convdw1d_903             1 1 735 736 0=384 1=31 2=1 3=1 4=0 5=1 6=11904 7=384
Split                    splitncnn_118            1 2 736 737 738
BinaryOp                 sub_99                   1 1 737 739 0=1 1=1 2=1.000000e+00
Sigmoid                  sigmoid_51               1 1 739 740
BinaryOp                 mul_100                  2 1 738 740 741 0=2
Convolution1D            conv1d_143               1 1 741 742 0=384 1=1 2=1 3=1 4=0 5=1 6=147456
Permute                  permute_660              1 1 742 743 0=1
BinaryOp                 add_101                  2 1 728 743 744 0=0
Split                    splitncnn_119            1 2 744 745 746
InnerProduct             linear_236               1 1 746 747 0=1024 1=1 2=393216
Split                    splitncnn_120            1 2 747 748 749
BinaryOp                 sub_102                  1 1 748 750 0=1 1=1 2=1.000000e+00
Sigmoid                  sigmoid_52               1 1 750 751
BinaryOp                 mul_103                  2 1 749 751 752 0=2
InnerProduct             linear_237               1 1 752 753 0=384 1=1 2=393216
BinaryOp                 add_104                  2 1 745 753 754 0=0
Split                    splitncnn_121            1 3 754 755 756 757
BinaryOp                 mul_105                  2 1 755 756 758 0=2
Reduction                mean_631                 1 1 758 759 0=3 1=0 -23303=1,-1 4=1 5=1
BinaryOp                 add_106                  1 1 759 760 0=0 1=1 2=2.500000e-01
BinaryOp                 pow_107                  1 1 760 761 0=6 1=1 2=-5.000000e-01
BinaryOp                 mul_108                  2 1 757 761 762 0=2
BinaryOp                 sub_109                  2 1 762 627 763 0=1
BinaryOp                 mul_110                  2 1 763 155 764 0=2
BinaryOp                 add_111                  2 1 628 764 765 0=0
Split                    splitncnn_122            1 4 765 766 767 768 769
Crop                     crop_850                 1 1 106 770 -23310=1,3 -23311=1,0 -23309=1,2
Reshape                  encoder.encoders.1.encoder.state_select_list.2_ncnnreshape0 1 1 770 771 0=0 1=0
Crop                     crop_851                 1 1 126 772 -23310=1,3 -23311=1,0 -23309=1,2
Reshape                  pnnx_unique_46_ncnnreshape0 1 1 772 773 0=0 1=0
InnerProduct             linear_238               1 1 769 774 0=1024 1=1 2=393216
Split                    splitncnn_123            1 2 774 775 776
BinaryOp                 sub_112                  1 1 775 777 0=1 1=1 2=1.000000e+00
Sigmoid                  sigmoid_53               1 1 777 778
BinaryOp                 mul_113                  2 1 776 778 779 0=2
InnerProduct             linear_239               1 1 779 780 0=384 1=1 2=393216
BinaryOp                 add_114                  2 1 766 780 781 0=0
Split                    splitncnn_124            1 2 781 782 783
Crop                     select_20                1 1 26 784 -23310=1,3 -23311=1,0 -23309=1,2
Crop                     select_21                1 1 6 785 -23310=1,3 -23311=1,0 -23309=1,2
PoolingModuleNoProj      pooling_modul_no_proj_721 3 3 783 785 784 786 787 788
InnerProduct             linear_240               1 1 786 789 0=384 1=0 2=147456
BinaryOp                 add_115                  2 1 782 789 790 0=0
Split                    splitncnn_125            1 2 790 791 792
Crop                     select_22                1 1 46 793 -23310=1,3 -23311=1,0 -23309=1,2
Crop                     select_23                1 1 66 794 -23310=1,3 -23311=1,0 -23309=1,2
InnerProduct             linear_241               1 1 792 795 0=512 1=1 2=196608
Slice                    tensor_split_4           1 4 795 796 797 798 799 -23300=4,192,192,96,-233 1=1
Concat                   cat_20                   2 1 794 798 800 0=0
Split                    splitncnn_126            1 2 800 801 802
Reshape                  reshape_394              1 1 801 803 0=12 1=8 2=40
Reshape                  reshape_395              1 1 796 804 0=24 1=8 2=8
Reshape                  reshape_396              1 1 799 805 0=4 1=8 2=8
Concat                   cat_21                   2 1 793 797 806 0=0
Split                    splitncnn_127            1 2 806 807 808
Reshape                  reshape_397              1 1 807 809 0=24 1=8 2=40
Permute                  permute_764              1 1 805 810 0=2
MatMul                   matmul_606               2 1 810 527 811
Permute                  permute_765              1 1 809 812 0=3
Permute                  permute_763              1 1 804 813 0=2
MatMul                   matmul_607               2 1 813 812 814
TensorAsStrided          tensor_as_strided_876    1 1 811 815 -23300=3,8,8,40 -23301=3,376,46,1 2=7
BinaryOp                 add_116                  2 1 814 815 816 0=0
Reshape                  view_557                 1 1 816 817 0=40 1=8 2=8
Softmax                  softmax_113              1 1 817 818 0=-1 1=1
Split                    splitncnn_128            1 2 818 819 820
Permute                  permute_762              1 1 803 821 0=2
MatMul                   bmm_576                  2 1 820 821 822
Permute                  permute_766              1 1 822 823 0=2
Reshape                  reshape_398              1 1 823 824 0=96 1=8
InnerProduct             linear_242               1 1 824 825 0=384 1=1 2=36864
BinaryOp                 add_117                  2 1 791 825 826 0=0
Split                    splitncnn_129            1 2 826 827 828
Permute                  permute_661              1 1 828 829 0=1
Convolution1D            conv1d_144               1 1 829 830 0=768 1=1 2=1 3=1 4=0 5=1 6=294912
GLU                      glu_8                    1 1 830 831 0=0
Concat                   cat_22                   2 1 771 831 832 0=1
Split                    splitncnn_130            1 2 832 833 834
ConvolutionDepthWise1D   convdw1d_904             1 1 834 835 0=384 1=31 2=1 3=1 4=0 5=1 6=11904 7=384
Split                    splitncnn_131            1 2 835 836 837
BinaryOp                 sub_118                  1 1 836 838 0=1 1=1 2=1.000000e+00
Sigmoid                  sigmoid_54               1 1 838 839
BinaryOp                 mul_119                  2 1 837 839 840 0=2
Convolution1D            conv1d_145               1 1 840 841 0=384 1=1 2=1 3=1 4=0 5=1 6=147456
Permute                  permute_662              1 1 841 842 0=1
BinaryOp                 add_120                  2 1 827 842 843 0=0
Split                    splitncnn_132            1 2 843 844 845
InnerProduct             linear_243               1 1 845 846 0=1024 1=1 2=393216
Split                    splitncnn_133            1 2 846 847 848
BinaryOp                 sub_121                  1 1 847 849 0=1 1=1 2=1.000000e+00
Sigmoid                  sigmoid_55               1 1 849 850
BinaryOp                 mul_122                  2 1 848 850 851 0=2
InnerProduct             linear_244               1 1 851 852 0=384 1=1 2=393216
BinaryOp                 add_123                  2 1 844 852 853 0=0
Split                    splitncnn_134            1 2 853 854 855
Crop                     select_24                1 1 86 856 -23310=1,3 -23311=1,0 -23309=1,2
InnerProduct             linear_245               1 1 855 857 0=96 1=0 2=36864
Concat                   cat_23                   2 1 856 857 858 0=0
Split                    splitncnn_135            1 2 858 859 860
Reshape                  reshape_399              1 1 859 861 0=12 1=8 2=40
Permute                  permute_767              1 1 861 862 0=2
MatMul                   bmm_577                  2 1 819 862 863
Permute                  permute_768              1 1 863 864 0=2
Reshape                  reshape_400              1 1 864 865 0=96 1=8
InnerProduct             linear_246               1 1 865 866 0=384 1=1 2=36864
BinaryOp                 add_124                  2 1 854 866 867 0=0
Split                    splitncnn_136            1 2 867 868 869
Permute                  permute_663              1 1 869 870 0=1
Convolution1D            conv1d_146               1 1 870 871 0=768 1=1 2=1 3=1 4=0 5=1 6=294912
GLU                      glu_9                    1 1 871 872 0=0
Concat                   cat_24                   2 1 773 872 873 0=1
Split                    splitncnn_137            1 2 873 874 875
ConvolutionDepthWise1D   convdw1d_905             1 1 875 876 0=384 1=31 2=1 3=1 4=0 5=1 6=11904 7=384
Split                    splitncnn_138            1 2 876 877 878
BinaryOp                 sub_125                  1 1 877 879 0=1 1=1 2=1.000000e+00
Sigmoid                  sigmoid_56               1 1 879 880
BinaryOp                 mul_126                  2 1 878 880 881 0=2
Convolution1D            conv1d_147               1 1 881 882 0=384 1=1 2=1 3=1 4=0 5=1 6=147456
Permute                  permute_664              1 1 882 883 0=1
BinaryOp                 add_127                  2 1 868 883 884 0=0
Split                    splitncnn_139            1 2 884 885 886
InnerProduct             linear_247               1 1 886 887 0=1024 1=1 2=393216
Split                    splitncnn_140            1 2 887 888 889
BinaryOp                 sub_128                  1 1 888 890 0=1 1=1 2=1.000000e+00
Sigmoid                  sigmoid_57               1 1 890 891
BinaryOp                 mul_129                  2 1 889 891 892 0=2
InnerProduct             linear_248               1 1 892 893 0=384 1=1 2=393216
BinaryOp                 add_130                  2 1 885 893 894 0=0
Split                    splitncnn_141            1 3 894 895 896 897
BinaryOp                 mul_131                  2 1 895 896 898 0=2
Reduction                mean_632                 1 1 898 899 0=3 1=0 -23303=1,-1 4=1 5=1
BinaryOp                 add_132                  1 1 899 900 0=0 1=1 2=2.500000e-01
BinaryOp                 pow_133                  1 1 900 901 0=6 1=1 2=-5.000000e-01
BinaryOp                 mul_134                  2 1 897 901 902 0=2
BinaryOp                 sub_135                  2 1 902 767 903 0=1
BinaryOp                 mul_136                  2 1 903 154 904 0=2
BinaryOp                 add_137                  2 1 768 904 905 0=0
Split                    splitncnn_142            1 4 905 906 907 908 909
Crop                     crop_852                 1 1 105 910 -23310=1,4 -23311=1,0 -23309=1,3
Reshape                  encoder.encoders.1.encoder.state_select_list.3_ncnnreshape0 1 1 910 911 0=0 1=0
Crop                     crop_853                 1 1 125 912 -23310=1,4 -23311=1,0 -23309=1,3
Reshape                  pnnx_unique_54_ncnnreshape0 1 1 912 913 0=0 1=0
InnerProduct             linear_249               1 1 909 914 0=1024 1=1 2=393216
Split                    splitncnn_143            1 2 914 915 916
BinaryOp                 sub_138                  1 1 915 917 0=1 1=1 2=1.000000e+00
Sigmoid                  sigmoid_58               1 1 917 918
BinaryOp                 mul_139                  2 1 916 918 919 0=2
InnerProduct             linear_250               1 1 919 920 0=384 1=1 2=393216
BinaryOp                 add_140                  2 1 906 920 921 0=0
Split                    splitncnn_144            1 2 921 922 923
Crop                     select_25                1 1 25 924 -23310=1,4 -23311=1,0 -23309=1,3
Crop                     select_26                1 1 5 925 -23310=1,4 -23311=1,0 -23309=1,3
PoolingModuleNoProj      pooling_modul_no_proj_722 3 3 923 925 924 926 927 928
InnerProduct             linear_251               1 1 926 929 0=384 1=0 2=147456
BinaryOp                 add_141                  2 1 922 929 930 0=0
Split                    splitncnn_145            1 2 930 931 932
Crop                     select_27                1 1 45 933 -23310=1,4 -23311=1,0 -23309=1,3
Crop                     select_28                1 1 65 934 -23310=1,4 -23311=1,0 -23309=1,3
InnerProduct             linear_252               1 1 932 935 0=512 1=1 2=196608
Slice                    tensor_split_5           1 4 935 936 937 938 939 -23300=4,192,192,96,-233 1=1
Concat                   cat_25                   2 1 934 938 940 0=0
Split                    splitncnn_146            1 2 940 941 942
Reshape                  reshape_401              1 1 941 943 0=12 1=8 2=40
Reshape                  reshape_402              1 1 936 944 0=24 1=8 2=8
Reshape                  reshape_403              1 1 939 945 0=4 1=8 2=8
Concat                   cat_26                   2 1 933 937 946 0=0
Split                    splitncnn_147            1 2 946 947 948
Reshape                  reshape_404              1 1 947 949 0=24 1=8 2=40
Permute                  permute_771              1 1 945 950 0=2
MatMul                   matmul_608               2 1 950 526 951
Permute                  permute_772              1 1 949 952 0=3
Permute                  permute_770              1 1 944 953 0=2
MatMul                   matmul_609               2 1 953 952 954
TensorAsStrided          tensor_as_strided_877    1 1 951 955 -23300=3,8,8,40 -23301=3,376,46,1 2=7
BinaryOp                 add_142                  2 1 954 955 956 0=0
Reshape                  view_558                 1 1 956 957 0=40 1=8 2=8
Softmax                  softmax_114              1 1 957 958 0=-1 1=1
Split                    splitncnn_148            1 2 958 959 960
Permute                  permute_769              1 1 943 961 0=2
MatMul                   bmm_578                  2 1 960 961 962
Permute                  permute_773              1 1 962 963 0=2
Reshape                  reshape_405              1 1 963 964 0=96 1=8
InnerProduct             linear_253               1 1 964 965 0=384 1=1 2=36864
BinaryOp                 add_143                  2 1 931 965 966 0=0
Split                    splitncnn_149            1 2 966 967 968
Permute                  permute_665              1 1 968 969 0=1
Convolution1D            conv1d_148               1 1 969 970 0=768 1=1 2=1 3=1 4=0 5=1 6=294912
GLU                      glu_10                   1 1 970 971 0=0
Concat                   cat_27                   2 1 911 971 972 0=1
Split                    splitncnn_150            1 2 972 973 974
ConvolutionDepthWise1D   convdw1d_906             1 1 974 975 0=384 1=31 2=1 3=1 4=0 5=1 6=11904 7=384
Split                    splitncnn_151            1 2 975 976 977
BinaryOp                 sub_144                  1 1 976 978 0=1 1=1 2=1.000000e+00
Sigmoid                  sigmoid_59               1 1 978 979
BinaryOp                 mul_145                  2 1 977 979 980 0=2
Convolution1D            conv1d_149               1 1 980 981 0=384 1=1 2=1 3=1 4=0 5=1 6=147456
Permute                  permute_666              1 1 981 982 0=1
BinaryOp                 add_146                  2 1 967 982 983 0=0
Split                    splitncnn_152            1 2 983 984 985
InnerProduct             linear_254               1 1 985 986 0=1024 1=1 2=393216
Split                    splitncnn_153            1 2 986 987 988
BinaryOp                 sub_147                  1 1 987 989 0=1 1=1 2=1.000000e+00
Sigmoid                  sigmoid_60               1 1 989 990
BinaryOp                 mul_148                  2 1 988 990 991 0=2
InnerProduct             linear_255               1 1 991 992 0=384 1=1 2=393216
BinaryOp                 add_149                  2 1 984 992 993 0=0
Split                    splitncnn_154            1 2 993 994 995
Crop                     select_29                1 1 85 996 -23310=1,4 -23311=1,0 -23309=1,3
InnerProduct             linear_256               1 1 995 997 0=96 1=0 2=36864
Concat                   cat_28                   2 1 996 997 998 0=0
Split                    splitncnn_155            1 2 998 999 1000
Reshape                  reshape_406              1 1 999 1001 0=12 1=8 2=40
Permute                  permute_774              1 1 1001 1002 0=2
MatMul                   bmm_579                  2 1 959 1002 1003
Permute                  permute_775              1 1 1003 1004 0=2
Reshape                  reshape_407              1 1 1004 1005 0=96 1=8
InnerProduct             linear_257               1 1 1005 1006 0=384 1=1 2=36864
BinaryOp                 add_150                  2 1 994 1006 1007 0=0
Split                    splitncnn_156            1 2 1007 1008 1009
Permute                  permute_667              1 1 1009 1010 0=1
Convolution1D            conv1d_150               1 1 1010 1011 0=768 1=1 2=1 3=1 4=0 5=1 6=294912
GLU                      glu_11                   1 1 1011 1012 0=0
Concat                   cat_29                   2 1 913 1012 1013 0=1
Split                    splitncnn_157            1 2 1013 1014 1015
ConvolutionDepthWise1D   convdw1d_907             1 1 1015 1016 0=384 1=31 2=1 3=1 4=0 5=1 6=11904 7=384
Split                    splitncnn_158            1 2 1016 1017 1018
BinaryOp                 sub_151                  1 1 1017 1019 0=1 1=1 2=1.000000e+00
Sigmoid                  sigmoid_61               1 1 1019 1020
BinaryOp                 mul_152                  2 1 1018 1020 1021 0=2
Convolution1D            conv1d_151               1 1 1021 1022 0=384 1=1 2=1 3=1 4=0 5=1 6=147456
Permute                  permute_668              1 1 1022 1023 0=1
BinaryOp                 add_153                  2 1 1008 1023 1024 0=0
Split                    splitncnn_159            1 2 1024 1025 1026
InnerProduct             linear_258               1 1 1026 1027 0=1024 1=1 2=393216
Split                    splitncnn_160            1 2 1027 1028 1029
BinaryOp                 sub_154                  1 1 1028 1030 0=1 1=1 2=1.000000e+00
Sigmoid                  sigmoid_62               1 1 1030 1031
BinaryOp                 mul_155                  2 1 1029 1031 1032 0=2
InnerProduct             linear_259               1 1 1032 1033 0=384 1=1 2=393216
BinaryOp                 add_156                  2 1 1025 1033 1034 0=0
Split                    splitncnn_161            1 3 1034 1035 1036 1037
BinaryOp                 mul_157                  2 1 1035 1036 1038 0=2
Reduction                mean_633                 1 1 1038 1039 0=3 1=0 -23303=1,-1 4=1 5=1
BinaryOp                 add_158                  1 1 1039 1040 0=0 1=1 2=2.500000e-01
BinaryOp                 pow_159                  1 1 1040 1041 0=6 1=1 2=-5.000000e-01
BinaryOp                 mul_160                  2 1 1037 1041 1042 0=2
BinaryOp                 sub_161                  2 1 1042 907 1043 0=1
BinaryOp                 mul_162                  2 1 1043 153 1044 0=2
BinaryOp                 add_163                  2 1 908 1044 1045 0=0
MemoryData               encoder.encoders.1.out_combiner 0 1 1046 0=1
BinaryOp                 mul_164                  2 1 468 1046 1047 0=2
SimpleUpsample           simple_upsample_892      1 1 1045 1048 0=2 1=384 2=768
BinaryOp                 add_165                  2 1 1047 1048 1049 0=0
Split                    splitncnn_162            1 3 1049 1050 1051 1052
MemoryData               encoder.encoders.2.downsample 0 1 1053 0=384 1=1
Reshape                  reshape_408              1 1 1052 1054 0=384 1=4 2=4
Split                    splitncnn_163            1 2 1054 1055 1056
BinaryOp                 mul_166                  2 1 1055 1053 1057 0=2
Reduction                sum_708                  1 1 1057 1058 0=0 1=0 -23303=1,-1 4=1 5=1
Softmax                  softmax_115              1 1 1058 1059
BinaryOp                 mul_167                  2 1 1056 1059 1060 0=2
Reduction                sum_709                  1 1 1060 1061 0=0 1=0 -23303=0 4=0 5=1
Crop                     crop_854                 1 1 112 1062 -23310=1,1 -23311=1,0 -23309=1,0
Reshape                  encoder.encoders.2.encoder.state_select_list.0_ncnnreshape0 1 1 1062 1063 0=0 1=0
Crop                     crop_855                 1 1 132 1064 -23310=1,1 -23311=1,0 -23309=1,0
Reshape                  pnnx_unique_63_ncnnreshape0 1 1 1064 1065 0=0 1=0
Split                    splitncnn_164            1 4 1061 1066 1067 1068 1069
InnerProduct             linear_260               1 1 1069 1070 0=2048 1=1 2=786432
Split                    splitncnn_165            1 2 1070 1071 1072
BinaryOp                 sub_168                  1 1 1071 1073 0=1 1=1 2=1.000000e+00
Sigmoid                  sigmoid_63               1 1 1073 1074
BinaryOp                 mul_169                  2 1 1072 1074 1075 0=2
InnerProduct             linear_261               1 1 1075 1076 0=384 1=1 2=786432
BinaryOp                 add_170                  2 1 1066 1076 1077 0=0
Split                    splitncnn_166            1 2 1077 1078 1079
Crop                     select_30                1 1 32 1080 -23310=1,1 -23311=1,0 -23309=1,0
Crop                     select_31                1 1 12 1081 -23310=1,1 -23311=1,0 -23309=1,0
PoolingModuleNoProj      pooling_modul_no_proj_723 3 3 1079 1081 1080 1082 1083 1084
InnerProduct             linear_262               1 1 1082 1085 0=384 1=0 2=147456
BinaryOp                 add_171                  2 1 1078 1085 1086 0=0
Split                    splitncnn_167            1 2 1086 1087 1088
Crop                     select_32                1 1 52 1089 -23310=1,1 -23311=1,0 -23309=1,0
Crop                     select_33                1 1 72 1090 -23310=1,1 -23311=1,0 -23309=1,0
InnerProduct             linear_263               1 1 1088 1091 0=512 1=1 2=196608
Slice                    tensor_split_6           1 4 1091 1092 1093 1094 1095 -23300=4,192,192,96,-233 1=1
Concat                   cat_30                   2 1 1090 1094 1096 0=0
Split                    splitncnn_168            1 2 1096 1097 1098
Reshape                  reshape_409              1 1 1097 1099 0=12 1=8 2=20
Reshape                  reshape_410              1 1 1092 1100 0=24 1=8 2=4
Reshape                  reshape_411              1 1 1095 1101 0=4 1=8 2=4
Concat                   cat_31                   2 1 1089 1093 1102 0=0
Split                    splitncnn_169            1 2 1102 1103 1104
Reshape                  reshape_412              1 1 1103 1105 0=24 1=8 2=20
InnerProduct             linear_264               1 1 152 1106 0=32 1=0 2=12288
Reshape                  reshape_413              1 1 1106 1107 0=4 1=8 2=23
Permute                  permute_780              1 1 1107 1108 0=3
Split                    splitncnn_170            1 3 1108 1109 1110 1111
Permute                  permute_778              1 1 1101 1112 0=2
MatMul                   matmul_610               2 1 1112 1111 1113
Permute                  permute_779              1 1 1105 1114 0=3
Permute                  permute_777              1 1 1100 1115 0=2
MatMul                   matmul_611               2 1 1115 1114 1116
TensorAsStrided          tensor_as_strided_878    1 1 1113 1117 -23300=3,8,4,20 -23301=3,92,22,1 2=3
BinaryOp                 add_172                  2 1 1116 1117 1118 0=0
Reshape                  view_559                 1 1 1118 1119 0=20 1=4 2=8
Softmax                  softmax_116              1 1 1119 1120 0=-1 1=1
Split                    splitncnn_171            1 2 1120 1121 1122
Permute                  permute_776              1 1 1099 1123 0=2
MatMul                   bmm_580                  2 1 1122 1123 1124
Permute                  permute_781              1 1 1124 1125 0=2
Reshape                  reshape_414              1 1 1125 1126 0=96 1=4
InnerProduct             linear_265               1 1 1126 1127 0=384 1=1 2=36864
BinaryOp                 add_173                  2 1 1087 1127 1128 0=0
Split                    splitncnn_172            1 2 1128 1129 1130
Permute                  permute_669              1 1 1130 1131 0=1
Convolution1D            conv1d_152               1 1 1131 1132 0=768 1=1 2=1 3=1 4=0 5=1 6=294912
GLU                      glu_12                   1 1 1132 1133 0=0
Concat                   cat_32                   2 1 1063 1133 1134 0=1
Split                    splitncnn_173            1 2 1134 1135 1136
ConvolutionDepthWise1D   convdw1d_908             1 1 1136 1137 0=384 1=31 2=1 3=1 4=0 5=1 6=11904 7=384
Split                    splitncnn_174            1 2 1137 1138 1139
BinaryOp                 sub_174                  1 1 1138 1140 0=1 1=1 2=1.000000e+00
Sigmoid                  sigmoid_64               1 1 1140 1141
BinaryOp                 mul_175                  2 1 1139 1141 1142 0=2
Convolution1D            conv1d_153               1 1 1142 1143 0=384 1=1 2=1 3=1 4=0 5=1 6=147456
Permute                  permute_670              1 1 1143 1144 0=1
BinaryOp                 add_176                  2 1 1129 1144 1145 0=0
Split                    splitncnn_175            1 2 1145 1146 1147
InnerProduct             linear_266               1 1 1147 1148 0=2048 1=1 2=786432
Split                    splitncnn_176            1 2 1148 1149 1150
BinaryOp                 sub_177                  1 1 1149 1151 0=1 1=1 2=1.000000e+00
Sigmoid                  sigmoid_65               1 1 1151 1152
BinaryOp                 mul_178                  2 1 1150 1152 1153 0=2
InnerProduct             linear_267               1 1 1153 1154 0=384 1=1 2=786432
BinaryOp                 add_179                  2 1 1146 1154 1155 0=0
Split                    splitncnn_177            1 2 1155 1156 1157
Crop                     select_34                1 1 92 1158 -23310=1,1 -23311=1,0 -23309=1,0
InnerProduct             linear_268               1 1 1157 1159 0=96 1=0 2=36864
Concat                   cat_33                   2 1 1158 1159 1160 0=0
Split                    splitncnn_178            1 2 1160 1161 1162
Reshape                  reshape_415              1 1 1161 1163 0=12 1=8 2=20
Permute                  permute_782              1 1 1163 1164 0=2
MatMul                   bmm_581                  2 1 1121 1164 1165
Permute                  permute_783              1 1 1165 1166 0=2
Reshape                  reshape_416              1 1 1166 1167 0=96 1=4
InnerProduct             linear_269               1 1 1167 1168 0=384 1=1 2=36864
BinaryOp                 add_180                  2 1 1156 1168 1169 0=0
Split                    splitncnn_179            1 2 1169 1170 1171
Permute                  permute_671              1 1 1171 1172 0=1
Convolution1D            conv1d_154               1 1 1172 1173 0=768 1=1 2=1 3=1 4=0 5=1 6=294912
GLU                      glu_13                   1 1 1173 1174 0=0
Concat                   cat_34                   2 1 1065 1174 1175 0=1
Split                    splitncnn_180            1 2 1175 1176 1177
ConvolutionDepthWise1D   convdw1d_909             1 1 1177 1178 0=384 1=31 2=1 3=1 4=0 5=1 6=11904 7=384
Split                    splitncnn_181            1 2 1178 1179 1180
BinaryOp                 sub_181                  1 1 1179 1181 0=1 1=1 2=1.000000e+00
Sigmoid                  sigmoid_66               1 1 1181 1182
BinaryOp                 mul_182                  2 1 1180 1182 1183 0=2
Convolution1D            conv1d_155               1 1 1183 1184 0=384 1=1 2=1 3=1 4=0 5=1 6=147456
Permute                  permute_672              1 1 1184 1185 0=1
BinaryOp                 add_183                  2 1 1170 1185 1186 0=0
Split                    splitncnn_182            1 2 1186 1187 1188
InnerProduct             linear_270               1 1 1188 1189 0=2048 1=1 2=786432
Split                    splitncnn_183            1 2 1189 1190 1191
BinaryOp                 sub_184                  1 1 1190 1192 0=1 1=1 2=1.000000e+00
Sigmoid                  sigmoid_67               1 1 1192 1193
BinaryOp                 mul_185                  2 1 1191 1193 1194 0=2
InnerProduct             linear_271               1 1 1194 1195 0=384 1=1 2=786432
BinaryOp                 add_186                  2 1 1187 1195 1196 0=0
Split                    splitncnn_184            1 3 1196 1197 1198 1199
BinaryOp                 mul_187                  2 1 1197 1198 1200 0=2
Reduction                mean_634                 1 1 1200 1201 0=3 1=0 -23303=1,-1 4=1 5=1
BinaryOp                 add_188                  1 1 1201 1202 0=0 1=1 2=2.500000e-01
BinaryOp                 pow_189                  1 1 1202 1203 0=6 1=1 2=-5.000000e-01
BinaryOp                 mul_190                  2 1 1199 1203 1204 0=2
BinaryOp                 sub_191                  2 1 1204 1067 1205 0=1
BinaryOp                 mul_192                  2 1 1205 151 1206 0=2
BinaryOp                 add_193                  2 1 1068 1206 1207 0=0
Split                    splitncnn_185            1 4 1207 1208 1209 1210 1211
Crop                     crop_856                 1 1 111 1212 -23310=1,2 -23311=1,0 -23309=1,1
Reshape                  encoder.encoders.2.encoder.state_select_list.1_ncnnreshape0 1 1 1212 1213 0=0 1=0
Crop                     crop_857                 1 1 131 1214 -23310=1,2 -23311=1,0 -23309=1,1
Reshape                  pnnx_unique_71_ncnnreshape0 1 1 1214 1215 0=0 1=0
InnerProduct             linear_272               1 1 1211 1216 0=2048 1=1 2=786432
Split                    splitncnn_186            1 2 1216 1217 1218
BinaryOp                 sub_194                  1 1 1217 1219 0=1 1=1 2=1.000000e+00
Sigmoid                  sigmoid_68               1 1 1219 1220
BinaryOp                 mul_195                  2 1 1218 1220 1221 0=2
InnerProduct             linear_273               1 1 1221 1222 0=384 1=1 2=786432
BinaryOp                 add_196                  2 1 1208 1222 1223 0=0
Split                    splitncnn_187            1 2 1223 1224 1225
Crop                     select_35                1 1 31 1226 -23310=1,2 -23311=1,0 -23309=1,1
Crop                     select_36                1 1 11 1227 -23310=1,2 -23311=1,0 -23309=1,1
PoolingModuleNoProj      pooling_modul_no_proj_724 3 3 1225 1227 1226 1228 1229 1230
InnerProduct             linear_274               1 1 1228 1231 0=384 1=0 2=147456
BinaryOp                 add_197                  2 1 1224 1231 1232 0=0
Split                    splitncnn_188            1 2 1232 1233 1234
Crop                     select_37                1 1 51 1235 -23310=1,2 -23311=1,0 -23309=1,1
Crop                     select_38                1 1 71 1236 -23310=1,2 -23311=1,0 -23309=1,1
InnerProduct             linear_275               1 1 1234 1237 0=512 1=1 2=196608
Slice                    tensor_split_7           1 4 1237 1238 1239 1240 1241 -23300=4,192,192,96,-233 1=1
Concat                   cat_35                   2 1 1236 1240 1242 0=0
Split                    splitncnn_189            1 2 1242 1243 1244
Reshape                  reshape_417              1 1 1243 1245 0=12 1=8 2=20
Reshape                  reshape_418              1 1 1238 1246 0=24 1=8 2=4
Reshape                  reshape_419              1 1 1241 1247 0=4 1=8 2=4
Concat                   cat_36                   2 1 1235 1239 1248 0=0
Split                    splitncnn_190            1 2 1248 1249 1250
Reshape                  reshape_420              1 1 1249 1251 0=24 1=8 2=20
Permute                  permute_786              1 1 1247 1252 0=2
MatMul                   matmul_612               2 1 1252 1110 1253
Permute                  permute_787              1 1 1251 1254 0=3
Permute                  permute_785              1 1 1246 1255 0=2
MatMul                   matmul_613               2 1 1255 1254 1256
TensorAsStrided          tensor_as_strided_879    1 1 1253 1257 -23300=3,8,4,20 -23301=3,92,22,1 2=3
BinaryOp                 add_198                  2 1 1256 1257 1258 0=0
Reshape                  view_560                 1 1 1258 1259 0=20 1=4 2=8
Softmax                  softmax_117              1 1 1259 1260 0=-1 1=1
Split                    splitncnn_191            1 2 1260 1261 1262
Permute                  permute_784              1 1 1245 1263 0=2
MatMul                   bmm_582                  2 1 1262 1263 1264
Permute                  permute_788              1 1 1264 1265 0=2
Reshape                  reshape_421              1 1 1265 1266 0=96 1=4
InnerProduct             linear_276               1 1 1266 1267 0=384 1=1 2=36864
BinaryOp                 add_199                  2 1 1233 1267 1268 0=0
Split                    splitncnn_192            1 2 1268 1269 1270
Permute                  permute_673              1 1 1270 1271 0=1
Convolution1D            conv1d_156               1 1 1271 1272 0=768 1=1 2=1 3=1 4=0 5=1 6=294912
GLU                      glu_14                   1 1 1272 1273 0=0
Concat                   cat_37                   2 1 1213 1273 1274 0=1
Split                    splitncnn_193            1 2 1274 1275 1276
ConvolutionDepthWise1D   convdw1d_910             1 1 1276 1277 0=384 1=31 2=1 3=1 4=0 5=1 6=11904 7=384
Split                    splitncnn_194            1 2 1277 1278 1279
BinaryOp                 sub_200                  1 1 1278 1280 0=1 1=1 2=1.000000e+00
Sigmoid                  sigmoid_69               1 1 1280 1281
BinaryOp                 mul_201                  2 1 1279 1281 1282 0=2
Convolution1D            conv1d_157               1 1 1282 1283 0=384 1=1 2=1 3=1 4=0 5=1 6=147456
Permute                  permute_674              1 1 1283 1284 0=1
BinaryOp                 add_202                  2 1 1269 1284 1285 0=0
Split                    splitncnn_195            1 2 1285 1286 1287
InnerProduct             linear_277               1 1 1287 1288 0=2048 1=1 2=786432
Split                    splitncnn_196            1 2 1288 1289 1290
BinaryOp                 sub_203                  1 1 1289 1291 0=1 1=1 2=1.000000e+00
Sigmoid                  sigmoid_70               1 1 1291 1292
BinaryOp                 mul_204                  2 1 1290 1292 1293 0=2
InnerProduct             linear_278               1 1 1293 1294 0=384 1=1 2=786432
BinaryOp                 add_205                  2 1 1286 1294 1295 0=0
Split                    splitncnn_197            1 2 1295 1296 1297
Crop                     select_39                1 1 91 1298 -23310=1,2 -23311=1,0 -23309=1,1
InnerProduct             linear_279               1 1 1297 1299 0=96 1=0 2=36864
Concat                   cat_38                   2 1 1298 1299 1300 0=0
Split                    splitncnn_198            1 2 1300 1301 1302
Reshape                  reshape_422              1 1 1301 1303 0=12 1=8 2=20
Permute                  permute_789              1 1 1303 1304 0=2
MatMul                   bmm_583                  2 1 1261 1304 1305
Permute                  permute_790              1 1 1305 1306 0=2
Reshape                  reshape_423              1 1 1306 1307 0=96 1=4
InnerProduct             linear_280               1 1 1307 1308 0=384 1=1 2=36864
BinaryOp                 add_206                  2 1 1296 1308 1309 0=0
Split                    splitncnn_199            1 2 1309 1310 1311
Permute                  permute_675              1 1 1311 1312 0=1
Convolution1D            conv1d_158               1 1 1312 1313 0=768 1=1 2=1 3=1 4=0 5=1 6=294912
GLU                      glu_15                   1 1 1313 1314 0=0
Concat                   cat_39                   2 1 1215 1314 1315 0=1
Split                    splitncnn_200            1 2 1315 1316 1317
ConvolutionDepthWise1D   convdw1d_911             1 1 1317 1318 0=384 1=31 2=1 3=1 4=0 5=1 6=11904 7=384
Split                    splitncnn_201            1 2 1318 1319 1320
BinaryOp                 sub_207                  1 1 1319 1321 0=1 1=1 2=1.000000e+00
Sigmoid                  sigmoid_71               1 1 1321 1322
BinaryOp                 mul_208                  2 1 1320 1322 1323 0=2
Convolution1D            conv1d_159               1 1 1323 1324 0=384 1=1 2=1 3=1 4=0 5=1 6=147456
Permute                  permute_676              1 1 1324 1325 0=1
BinaryOp                 add_209                  2 1 1310 1325 1326 0=0
Split                    splitncnn_202            1 2 1326 1327 1328
InnerProduct             linear_281               1 1 1328 1329 0=2048 1=1 2=786432
Split                    splitncnn_203            1 2 1329 1330 1331
BinaryOp                 sub_210                  1 1 1330 1332 0=1 1=1 2=1.000000e+00
Sigmoid                  sigmoid_72               1 1 1332 1333
BinaryOp                 mul_211                  2 1 1331 1333 1334 0=2
InnerProduct             linear_282               1 1 1334 1335 0=384 1=1 2=786432
BinaryOp                 add_212                  2 1 1327 1335 1336 0=0
Split                    splitncnn_204            1 3 1336 1337 1338 1339
BinaryOp                 mul_213                  2 1 1337 1338 1340 0=2
Reduction                mean_635                 1 1 1340 1341 0=3 1=0 -23303=1,-1 4=1 5=1
BinaryOp                 add_214                  1 1 1341 1342 0=0 1=1 2=2.500000e-01
BinaryOp                 pow_215                  1 1 1342 1343 0=6 1=1 2=-5.000000e-01
BinaryOp                 mul_216                  2 1 1339 1343 1344 0=2
BinaryOp                 sub_217                  2 1 1344 1209 1345 0=1
BinaryOp                 mul_218                  2 1 1345 150 1346 0=2
BinaryOp                 add_219                  2 1 1210 1346 1347 0=0
Split                    splitncnn_205            1 4 1347 1348 1349 1350 1351
Crop                     crop_858                 1 1 110 1352 -23310=1,3 -23311=1,0 -23309=1,2
Reshape                  encoder.encoders.2.encoder.state_select_list.2_ncnnreshape0 1 1 1352 1353 0=0 1=0
Crop                     crop_859                 1 1 130 1354 -23310=1,3 -23311=1,0 -23309=1,2
Reshape                  pnnx_unique_79_ncnnreshape0 1 1 1354 1355 0=0 1=0
InnerProduct             linear_283               1 1 1351 1356 0=2048 1=1 2=786432
Split                    splitncnn_206            1 2 1356 1357 1358
BinaryOp                 sub_220                  1 1 1357 1359 0=1 1=1 2=1.000000e+00
Sigmoid                  sigmoid_73               1 1 1359 1360
BinaryOp                 mul_221                  2 1 1358 1360 1361 0=2
InnerProduct             linear_284               1 1 1361 1362 0=384 1=1 2=786432
BinaryOp                 add_222                  2 1 1348 1362 1363 0=0
Split                    splitncnn_207            1 2 1363 1364 1365
Crop                     select_40                1 1 30 1366 -23310=1,3 -23311=1,0 -23309=1,2
Crop                     select_41                1 1 10 1367 -23310=1,3 -23311=1,0 -23309=1,2
PoolingModuleNoProj      pooling_modul_no_proj_725 3 3 1365 1367 1366 1368 1369 1370
InnerProduct             linear_285               1 1 1368 1371 0=384 1=0 2=147456
BinaryOp                 add_223                  2 1 1364 1371 1372 0=0
Split                    splitncnn_208            1 2 1372 1373 1374
Crop                     select_42                1 1 50 1375 -23310=1,3 -23311=1,0 -23309=1,2
Crop                     select_43                1 1 70 1376 -23310=1,3 -23311=1,0 -23309=1,2
InnerProduct             linear_286               1 1 1374 1377 0=512 1=1 2=196608
Slice                    tensor_split_8           1 4 1377 1378 1379 1380 1381 -23300=4,192,192,96,-233 1=1
Concat                   cat_40                   2 1 1376 1380 1382 0=0
Split                    splitncnn_209            1 2 1382 1383 1384
Reshape                  reshape_424              1 1 1383 1385 0=12 1=8 2=20
Reshape                  reshape_425              1 1 1378 1386 0=24 1=8 2=4
Reshape                  reshape_426              1 1 1381 1387 0=4 1=8 2=4
Concat                   cat_41                   2 1 1375 1379 1388 0=0
Split                    splitncnn_210            1 2 1388 1389 1390
Reshape                  reshape_427              1 1 1389 1391 0=24 1=8 2=20
Permute                  permute_793              1 1 1387 1392 0=2
MatMul                   matmul_614               2 1 1392 1109 1393
Permute                  permute_794              1 1 1391 1394 0=3
Permute                  permute_792              1 1 1386 1395 0=2
MatMul                   matmul_615               2 1 1395 1394 1396
TensorAsStrided          tensor_as_strided_880    1 1 1393 1397 -23300=3,8,4,20 -23301=3,92,22,1 2=3
BinaryOp                 add_224                  2 1 1396 1397 1398 0=0
Reshape                  view_561                 1 1 1398 1399 0=20 1=4 2=8
Softmax                  softmax_118              1 1 1399 1400 0=-1 1=1
Split                    splitncnn_211            1 2 1400 1401 1402
Permute                  permute_791              1 1 1385 1403 0=2
MatMul                   bmm_584                  2 1 1402 1403 1404
Permute                  permute_795              1 1 1404 1405 0=2
Reshape                  reshape_428              1 1 1405 1406 0=96 1=4
InnerProduct             linear_287               1 1 1406 1407 0=384 1=1 2=36864
BinaryOp                 add_225                  2 1 1373 1407 1408 0=0
Split                    splitncnn_212            1 2 1408 1409 1410
Permute                  permute_677              1 1 1410 1411 0=1
Convolution1D            conv1d_160               1 1 1411 1412 0=768 1=1 2=1 3=1 4=0 5=1 6=294912
GLU                      glu_16                   1 1 1412 1413 0=0
Concat                   cat_42                   2 1 1353 1413 1414 0=1
Split                    splitncnn_213            1 2 1414 1415 1416
ConvolutionDepthWise1D   convdw1d_912             1 1 1416 1417 0=384 1=31 2=1 3=1 4=0 5=1 6=11904 7=384
Split                    splitncnn_214            1 2 1417 1418 1419
BinaryOp                 sub_226                  1 1 1418 1420 0=1 1=1 2=1.000000e+00
Sigmoid                  sigmoid_74               1 1 1420 1421
BinaryOp                 mul_227                  2 1 1419 1421 1422 0=2
Convolution1D            conv1d_161               1 1 1422 1423 0=384 1=1 2=1 3=1 4=0 5=1 6=147456
Permute                  permute_678              1 1 1423 1424 0=1
BinaryOp                 add_228                  2 1 1409 1424 1425 0=0
Split                    splitncnn_215            1 2 1425 1426 1427
InnerProduct             linear_288               1 1 1427 1428 0=2048 1=1 2=786432
Split                    splitncnn_216            1 2 1428 1429 1430
BinaryOp                 sub_229                  1 1 1429 1431 0=1 1=1 2=1.000000e+00
Sigmoid                  sigmoid_75               1 1 1431 1432
BinaryOp                 mul_230                  2 1 1430 1432 1433 0=2
InnerProduct             linear_289               1 1 1433 1434 0=384 1=1 2=786432
BinaryOp                 add_231                  2 1 1426 1434 1435 0=0
Split                    splitncnn_217            1 2 1435 1436 1437
Crop                     select_44                1 1 90 1438 -23310=1,3 -23311=1,0 -23309=1,2
InnerProduct             linear_290               1 1 1437 1439 0=96 1=0 2=36864
Concat                   cat_43                   2 1 1438 1439 1440 0=0
Split                    splitncnn_218            1 2 1440 1441 1442
Reshape                  reshape_429              1 1 1441 1443 0=12 1=8 2=20
Permute                  permute_796              1 1 1443 1444 0=2
MatMul                   bmm_585                  2 1 1401 1444 1445
Permute                  permute_797              1 1 1445 1446 0=2
Reshape                  reshape_430              1 1 1446 1447 0=96 1=4
InnerProduct             linear_291               1 1 1447 1448 0=384 1=1 2=36864
BinaryOp                 add_232                  2 1 1436 1448 1449 0=0
Split                    splitncnn_219            1 2 1449 1450 1451
Permute                  permute_679              1 1 1451 1452 0=1
Convolution1D            conv1d_162               1 1 1452 1453 0=768 1=1 2=1 3=1 4=0 5=1 6=294912
GLU                      glu_17                   1 1 1453 1454 0=0
Concat                   cat_44                   2 1 1355 1454 1455 0=1
Split                    splitncnn_220            1 2 1455 1456 1457
ConvolutionDepthWise1D   convdw1d_913             1 1 1457 1458 0=384 1=31 2=1 3=1 4=0 5=1 6=11904 7=384
Split                    splitncnn_221            1 2 1458 1459 1460
BinaryOp                 sub_233                  1 1 1459 1461 0=1 1=1 2=1.000000e+00
Sigmoid                  sigmoid_76               1 1 1461 1462
BinaryOp                 mul_234                  2 1 1460 1462 1463 0=2
Convolution1D            conv1d_163               1 1 1463 1464 0=384 1=1 2=1 3=1 4=0 5=1 6=147456
Permute                  permute_680              1 1 1464 1465 0=1
BinaryOp                 add_235                  2 1 1450 1465 1466 0=0
Split                    splitncnn_222            1 2 1466 1467 1468
InnerProduct             linear_292               1 1 1468 1469 0=2048 1=1 2=786432
Split                    splitncnn_223            1 2 1469 1470 1471
BinaryOp                 sub_236                  1 1 1470 1472 0=1 1=1 2=1.000000e+00
Sigmoid                  sigmoid_77               1 1 1472 1473
BinaryOp                 mul_237                  2 1 1471 1473 1474 0=2
InnerProduct             linear_293               1 1 1474 1475 0=384 1=1 2=786432
BinaryOp                 add_238                  2 1 1467 1475 1476 0=0
Split                    splitncnn_224            1 3 1476 1477 1478 1479
BinaryOp                 mul_239                  2 1 1477 1478 1480 0=2
Reduction                mean_636                 1 1 1480 1481 0=3 1=0 -23303=1,-1 4=1 5=1
BinaryOp                 add_240                  1 1 1481 1482 0=0 1=1 2=2.500000e-01
BinaryOp                 pow_241                  1 1 1482 1483 0=6 1=1 2=-5.000000e-01
BinaryOp                 mul_242                  2 1 1479 1483 1484 0=2
BinaryOp                 sub_243                  2 1 1484 1349 1485 0=1
BinaryOp                 mul_244                  2 1 1485 149 1486 0=2
BinaryOp                 add_245                  2 1 1350 1486 1487 0=0
MemoryData               encoder.encoders.2.out_combiner 0 1 1488 0=1
BinaryOp                 mul_246                  2 1 1050 1488 1489 0=2
SimpleUpsample           simple_upsample_893      1 1 1487 1490 0=4 1=384 2=1536
BinaryOp                 add_247                  2 1 1489 1490 1491 0=0
Split                    splitncnn_225            1 2 1491 1492 1493
MemoryData               encoder.encoders.3.downsample 0 1 1494 0=384 1=1
Reshape                  reshape_431              1 1 1493 1495 0=384 1=8 2=2
Split                    splitncnn_226            1 2 1495 1496 1497
BinaryOp                 mul_248                  2 1 1496 1494 1498 0=2
Reduction                sum_710                  1 1 1498 1499 0=0 1=0 -23303=1,-1 4=1 5=1
Softmax                  softmax_119              1 1 1499 1500
BinaryOp                 mul_249                  2 1 1497 1500 1501 0=2
Reduction                sum_711                  1 1 1501 1502 0=0 1=0 -23303=0 4=0 5=1
Crop                     crop_860                 1 1 115 1503 -23310=1,1 -23311=1,0 -23309=1,0
Reshape                  encoder.encoders.3.encoder.state_select_list.0_ncnnreshape0 1 1 1503 1504 0=0 1=0
Crop                     crop_861                 1 1 135 1505 -23310=1,1 -23311=1,0 -23309=1,0
Reshape                  pnnx_unique_88_ncnnreshape0 1 1 1505 1506 0=0 1=0
Split                    splitncnn_227            1 4 1502 1507 1508 1509 1510
InnerProduct             linear_294               1 1 1510 1511 0=2048 1=1 2=786432
Split                    splitncnn_228            1 2 1511 1512 1513
BinaryOp                 sub_250                  1 1 1512 1514 0=1 1=1 2=1.000000e+00
Sigmoid                  sigmoid_78               1 1 1514 1515
BinaryOp                 mul_251                  2 1 1513 1515 1516 0=2
InnerProduct             linear_295               1 1 1516 1517 0=384 1=1 2=786432
BinaryOp                 add_252                  2 1 1507 1517 1518 0=0
Split                    splitncnn_229            1 2 1518 1519 1520
Crop                     select_45                1 1 35 1521 -23310=1,1 -23311=1,0 -23309=1,0
Crop                     select_46                1 1 15 1522 -23310=1,1 -23311=1,0 -23309=1,0
PoolingModuleNoProj      pooling_modul_no_proj_726 3 3 1520 1522 1521 1523 1524 1525
InnerProduct             linear_296               1 1 1523 1526 0=384 1=0 2=147456
BinaryOp                 add_253                  2 1 1519 1526 1527 0=0
Split                    splitncnn_230            1 2 1527 1528 1529
Crop                     select_47                1 1 55 1530 -23310=1,1 -23311=1,0 -23309=1,0
Crop                     select_48                1 1 75 1531 -23310=1,1 -23311=1,0 -23309=1,0
InnerProduct             linear_297               1 1 1529 1532 0=512 1=1 2=196608
Slice                    tensor_split_9           1 4 1532 1533 1534 1535 1536 -23300=4,192,192,96,-233 1=1
Concat                   cat_45                   2 1 1531 1535 1537 0=0
Split                    splitncnn_231            1 2 1537 1538 1539
Reshape                  reshape_432              1 1 1538 1540 0=12 1=8 2=10
Reshape                  reshape_433              1 1 1533 1541 0=24 1=8 2=2
Reshape                  reshape_434              1 1 1536 1542 0=4 1=8 2=2
Concat                   cat_46                   2 1 1530 1534 1543 0=0
Split                    splitncnn_232            1 2 1543 1544 1545
Reshape                  reshape_435              1 1 1544 1546 0=24 1=8 2=10
InnerProduct             linear_298               1 1 148 1547 0=32 1=0 2=12288
Reshape                  reshape_436              1 1 1547 1548 0=4 1=8 2=11
Permute                  permute_802              1 1 1548 1549 0=3
Split                    splitncnn_233            1 2 1549 1550 1551
Permute                  permute_800              1 1 1542 1552 0=2
MatMul                   matmul_616               2 1 1552 1551 1553
Permute                  permute_801              1 1 1546 1554 0=3
Permute                  permute_799              1 1 1541 1555 0=2
MatMul                   matmul_617               2 1 1555 1554 1556
TensorAsStrided          tensor_as_strided_881    1 1 1553 1557 -23300=3,8,2,10 -23301=3,22,10,1 2=1
BinaryOp                 add_254                  2 1 1556 1557 1558 0=0
Reshape                  view_562                 1 1 1558 1559 0=10 1=2 2=8
Softmax                  softmax_120              1 1 1559 1560 0=-1 1=1
Split                    splitncnn_234            1 2 1560 1561 1562
Permute                  permute_798              1 1 1540 1563 0=2
MatMul                   bmm_586                  2 1 1562 1563 1564
Permute                  permute_803              1 1 1564 1565 0=2
Reshape                  reshape_437              1 1 1565 1566 0=96 1=2
InnerProduct             linear_299               1 1 1566 1567 0=384 1=1 2=36864
BinaryOp                 add_255                  2 1 1528 1567 1568 0=0
Split                    splitncnn_235            1 2 1568 1569 1570
Permute                  permute_681              1 1 1570 1571 0=1
Convolution1D            conv1d_164               1 1 1571 1572 0=768 1=1 2=1 3=1 4=0 5=1 6=294912
GLU                      glu_18                   1 1 1572 1573 0=0
Concat                   cat_47                   2 1 1504 1573 1574 0=1
Split                    splitncnn_236            1 2 1574 1575 1576
ConvolutionDepthWise1D   convdw1d_914             1 1 1576 1577 0=384 1=31 2=1 3=1 4=0 5=1 6=11904 7=384
Split                    splitncnn_237            1 2 1577 1578 1579
BinaryOp                 sub_256                  1 1 1578 1580 0=1 1=1 2=1.000000e+00
Sigmoid                  sigmoid_79               1 1 1580 1581
BinaryOp                 mul_257                  2 1 1579 1581 1582 0=2
Convolution1D            conv1d_165               1 1 1582 1583 0=384 1=1 2=1 3=1 4=0 5=1 6=147456
Permute                  permute_682              1 1 1583 1584 0=1
BinaryOp                 add_258                  2 1 1569 1584 1585 0=0
Split                    splitncnn_238            1 2 1585 1586 1587
InnerProduct             linear_300               1 1 1587 1588 0=2048 1=1 2=786432
Split                    splitncnn_239            1 2 1588 1589 1590
BinaryOp                 sub_259                  1 1 1589 1591 0=1 1=1 2=1.000000e+00
Sigmoid                  sigmoid_80               1 1 1591 1592
BinaryOp                 mul_260                  2 1 1590 1592 1593 0=2
InnerProduct             linear_301               1 1 1593 1594 0=384 1=1 2=786432
BinaryOp                 add_261                  2 1 1586 1594 1595 0=0
Split                    splitncnn_240            1 2 1595 1596 1597
Crop                     select_49                1 1 95 1598 -23310=1,1 -23311=1,0 -23309=1,0
InnerProduct             linear_302               1 1 1597 1599 0=96 1=0 2=36864
Concat                   cat_48                   2 1 1598 1599 1600 0=0
Split                    splitncnn_241            1 2 1600 1601 1602
Reshape                  reshape_438              1 1 1601 1603 0=12 1=8 2=10
Permute                  permute_804              1 1 1603 1604 0=2
MatMul                   bmm_587                  2 1 1561 1604 1605
Permute                  permute_805              1 1 1605 1606 0=2
Reshape                  reshape_439              1 1 1606 1607 0=96 1=2
InnerProduct             linear_303               1 1 1607 1608 0=384 1=1 2=36864
BinaryOp                 add_262                  2 1 1596 1608 1609 0=0
Split                    splitncnn_242            1 2 1609 1610 1611
Permute                  permute_683              1 1 1611 1612 0=1
Convolution1D            conv1d_166               1 1 1612 1613 0=768 1=1 2=1 3=1 4=0 5=1 6=294912
GLU                      glu_19                   1 1 1613 1614 0=0
Concat                   cat_49                   2 1 1506 1614 1615 0=1
Split                    splitncnn_243            1 2 1615 1616 1617
ConvolutionDepthWise1D   convdw1d_915             1 1 1617 1618 0=384 1=31 2=1 3=1 4=0 5=1 6=11904 7=384
Split                    splitncnn_244            1 2 1618 1619 1620
BinaryOp                 sub_263                  1 1 1619 1621 0=1 1=1 2=1.000000e+00
Sigmoid                  sigmoid_81               1 1 1621 1622
BinaryOp                 mul_264                  2 1 1620 1622 1623 0=2
Convolution1D            conv1d_167               1 1 1623 1624 0=384 1=1 2=1 3=1 4=0 5=1 6=147456
Permute                  permute_684              1 1 1624 1625 0=1
BinaryOp                 add_265                  2 1 1610 1625 1626 0=0
Split                    splitncnn_245            1 2 1626 1627 1628
InnerProduct             linear_304               1 1 1628 1629 0=2048 1=1 2=786432
Split                    splitncnn_246            1 2 1629 1630 1631
BinaryOp                 sub_266                  1 1 1630 1632 0=1 1=1 2=1.000000e+00
Sigmoid                  sigmoid_82               1 1 1632 1633
BinaryOp                 mul_267                  2 1 1631 1633 1634 0=2
InnerProduct             linear_305               1 1 1634 1635 0=384 1=1 2=786432
BinaryOp                 add_268                  2 1 1627 1635 1636 0=0
Split                    splitncnn_247            1 3 1636 1637 1638 1639
BinaryOp                 mul_269                  2 1 1637 1638 1640 0=2
Reduction                mean_637                 1 1 1640 1641 0=3 1=0 -23303=1,-1 4=1 5=1
BinaryOp                 add_270                  1 1 1641 1642 0=0 1=1 2=2.500000e-01
BinaryOp                 pow_271                  1 1 1642 1643 0=6 1=1 2=-5.000000e-01
BinaryOp                 mul_272                  2 1 1639 1643 1644 0=2
BinaryOp                 sub_273                  2 1 1644 1508 1645 0=1
BinaryOp                 mul_274                  2 1 1645 147 1646 0=2
BinaryOp                 add_275                  2 1 1509 1646 1647 0=0
Split                    splitncnn_248            1 4 1647 1648 1649 1650 1651
Crop                     crop_862                 1 1 114 1652 -23310=1,2 -23311=1,0 -23309=1,1
Reshape                  encoder.encoders.3.encoder.state_select_list.1_ncnnreshape0 1 1 1652 1653 0=0 1=0
Crop                     crop_863                 1 1 134 1654 -23310=1,2 -23311=1,0 -23309=1,1
Reshape                  pnnx_unique_96_ncnnreshape0 1 1 1654 1655 0=0 1=0
InnerProduct             linear_306               1 1 1651 1656 0=2048 1=1 2=786432
Split                    splitncnn_249            1 2 1656 1657 1658
BinaryOp                 sub_276                  1 1 1657 1659 0=1 1=1 2=1.000000e+00
Sigmoid                  sigmoid_83               1 1 1659 1660
BinaryOp                 mul_277                  2 1 1658 1660 1661 0=2
InnerProduct             linear_307               1 1 1661 1662 0=384 1=1 2=786432
BinaryOp                 add_278                  2 1 1648 1662 1663 0=0
Split                    splitncnn_250            1 2 1663 1664 1665
Crop                     select_50                1 1 34 1666 -23310=1,2 -23311=1,0 -23309=1,1
Crop                     select_51                1 1 14 1667 -23310=1,2 -23311=1,0 -23309=1,1
PoolingModuleNoProj      pooling_modul_no_proj_727 3 3 1665 1667 1666 1668 1669 1670
InnerProduct             linear_308               1 1 1668 1671 0=384 1=0 2=147456
BinaryOp                 add_279                  2 1 1664 1671 1672 0=0
Split                    splitncnn_251            1 2 1672 1673 1674
Crop                     select_52                1 1 54 1675 -23310=1,2 -23311=1,0 -23309=1,1
Crop                     select_53                1 1 74 1676 -23310=1,2 -23311=1,0 -23309=1,1
InnerProduct             linear_309               1 1 1674 1677 0=512 1=1 2=196608
Slice                    tensor_split_10          1 4 1677 1678 1679 1680 1681 -23300=4,192,192,96,-233 1=1
Concat                   cat_50                   2 1 1676 1680 1682 0=0
Split                    splitncnn_252            1 2 1682 1683 1684
Reshape                  reshape_440              1 1 1683 1685 0=12 1=8 2=10
Reshape                  reshape_441              1 1 1678 1686 0=24 1=8 2=2
Reshape                  reshape_442              1 1 1681 1687 0=4 1=8 2=2
Concat                   cat_51                   2 1 1675 1679 1688 0=0
Split                    splitncnn_253            1 2 1688 1689 1690
Reshape                  reshape_443              1 1 1689 1691 0=24 1=8 2=10
Permute                  permute_808              1 1 1687 1692 0=2
MatMul                   matmul_618               2 1 1692 1550 1693
Permute                  permute_809              1 1 1691 1694 0=3
Permute                  permute_807              1 1 1686 1695 0=2
MatMul                   matmul_619               2 1 1695 1694 1696
TensorAsStrided          tensor_as_strided_882    1 1 1693 1697 -23300=3,8,2,10 -23301=3,22,10,1 2=1
BinaryOp                 add_280                  2 1 1696 1697 1698 0=0
Reshape                  view_563                 1 1 1698 1699 0=10 1=2 2=8
Softmax                  softmax_121              1 1 1699 1700 0=-1 1=1
Split                    splitncnn_254            1 2 1700 1701 1702
Permute                  permute_806              1 1 1685 1703 0=2
MatMul                   bmm_588                  2 1 1702 1703 1704
Permute                  permute_810              1 1 1704 1705 0=2
Reshape                  reshape_444              1 1 1705 1706 0=96 1=2
InnerProduct             linear_310               1 1 1706 1707 0=384 1=1 2=36864
BinaryOp                 add_281                  2 1 1673 1707 1708 0=0
Split                    splitncnn_255            1 2 1708 1709 1710
Permute                  permute_685              1 1 1710 1711 0=1
Convolution1D            conv1d_168               1 1 1711 1712 0=768 1=1 2=1 3=1 4=0 5=1 6=294912
GLU                      glu_20                   1 1 1712 1713 0=0
Concat                   cat_52                   2 1 1653 1713 1714 0=1
Split                    splitncnn_256            1 2 1714 1715 1716
ConvolutionDepthWise1D   convdw1d_916             1 1 1716 1717 0=384 1=31 2=1 3=1 4=0 5=1 6=11904 7=384
Split                    splitncnn_257            1 2 1717 1718 1719
BinaryOp                 sub_282                  1 1 1718 1720 0=1 1=1 2=1.000000e+00
Sigmoid                  sigmoid_84               1 1 1720 1721
BinaryOp                 mul_283                  2 1 1719 1721 1722 0=2
Convolution1D            conv1d_169               1 1 1722 1723 0=384 1=1 2=1 3=1 4=0 5=1 6=147456
Permute                  permute_686              1 1 1723 1724 0=1
BinaryOp                 add_284                  2 1 1709 1724 1725 0=0
Split                    splitncnn_258            1 2 1725 1726 1727
InnerProduct             linear_311               1 1 1727 1728 0=2048 1=1 2=786432
Split                    splitncnn_259            1 2 1728 1729 1730
BinaryOp                 sub_285                  1 1 1729 1731 0=1 1=1 2=1.000000e+00
Sigmoid                  sigmoid_85               1 1 1731 1732
BinaryOp                 mul_286                  2 1 1730 1732 1733 0=2
InnerProduct             linear_312               1 1 1733 1734 0=384 1=1 2=786432
BinaryOp                 add_287                  2 1 1726 1734 1735 0=0
Split                    splitncnn_260            1 2 1735 1736 1737
Crop                     select_54                1 1 94 1738 -23310=1,2 -23311=1,0 -23309=1,1
InnerProduct             linear_313               1 1 1737 1739 0=96 1=0 2=36864
Concat                   cat_53                   2 1 1738 1739 1740 0=0
Split                    splitncnn_261            1 2 1740 1741 1742
Reshape                  reshape_445              1 1 1741 1743 0=12 1=8 2=10
Permute                  permute_811              1 1 1743 1744 0=2
MatMul                   bmm_589                  2 1 1701 1744 1745
Permute                  permute_812              1 1 1745 1746 0=2
Reshape                  reshape_446              1 1 1746 1747 0=96 1=2
InnerProduct             linear_314               1 1 1747 1748 0=384 1=1 2=36864
BinaryOp                 add_288                  2 1 1736 1748 1749 0=0
Split                    splitncnn_262            1 2 1749 1750 1751
Permute                  permute_687              1 1 1751 1752 0=1
Convolution1D            conv1d_170               1 1 1752 1753 0=768 1=1 2=1 3=1 4=0 5=1 6=294912
GLU                      glu_21                   1 1 1753 1754 0=0
Concat                   cat_54                   2 1 1655 1754 1755 0=1
Split                    splitncnn_263            1 2 1755 1756 1757
ConvolutionDepthWise1D   convdw1d_917             1 1 1757 1758 0=384 1=31 2=1 3=1 4=0 5=1 6=11904 7=384
Split                    splitncnn_264            1 2 1758 1759 1760
BinaryOp                 sub_289                  1 1 1759 1761 0=1 1=1 2=1.000000e+00
Sigmoid                  sigmoid_86               1 1 1761 1762
BinaryOp                 mul_290                  2 1 1760 1762 1763 0=2
Convolution1D            conv1d_171               1 1 1763 1764 0=384 1=1 2=1 3=1 4=0 5=1 6=147456
Permute                  permute_688              1 1 1764 1765 0=1
BinaryOp                 add_291                  2 1 1750 1765 1766 0=0
Split                    splitncnn_265            1 2 1766 1767 1768
InnerProduct             linear_315               1 1 1768 1769 0=2048 1=1 2=786432
Split                    splitncnn_266            1 2 1769 1770 1771
BinaryOp                 sub_292                  1 1 1770 1772 0=1 1=1 2=1.000000e+00
Sigmoid                  sigmoid_87               1 1 1772 1773
BinaryOp                 mul_293                  2 1 1771 1773 1774 0=2
InnerProduct             linear_316               1 1 1774 1775 0=384 1=1 2=786432
BinaryOp                 add_294                  2 1 1767 1775 1776 0=0
Split                    splitncnn_267            1 3 1776 1777 1778 1779
BinaryOp                 mul_295                  2 1 1777 1778 1780 0=2
Reduction                mean_638                 1 1 1780 1781 0=3 1=0 -23303=1,-1 4=1 5=1
BinaryOp                 add_296                  1 1 1781 1782 0=0 1=1 2=2.500000e-01
BinaryOp                 pow_297                  1 1 1782 1783 0=6 1=1 2=-5.000000e-01
BinaryOp                 mul_298                  2 1 1779 1783 1784 0=2
BinaryOp                 sub_299                  2 1 1784 1649 1785 0=1
BinaryOp                 mul_300                  2 1 1785 146 1786 0=2
BinaryOp                 add_301                  2 1 1650 1786 1787 0=0
MemoryData               encoder.encoders.3.out_combiner 0 1 1788 0=1
MemoryData               encoder.skip_modules.4   0 1 1789 0=1
BinaryOp                 mul_302                  2 1 1492 1788 1790 0=2
SimpleUpsample           simple_upsample_894      1 1 1787 1791 0=8 1=384 2=3072
BinaryOp                 add_303                  2 1 1790 1791 1792 0=0
BinaryOp                 mul_304                  2 1 1051 1789 1793 0=2
BinaryOp                 add_305                  2 1 1793 1792 1794 0=0
Split                    splitncnn_268            1 2 1794 1795 1796
MemoryData               encoder.encoders.4.downsample 0 1 1797 0=384 1=1
Reshape                  reshape_447              1 1 1796 1798 0=384 1=2 2=8
Split                    splitncnn_269            1 2 1798 1799 1800
BinaryOp                 mul_306                  2 1 1799 1797 1801 0=2
Reduction                sum_712                  1 1 1801 1802 0=0 1=0 -23303=1,-1 4=1 5=1
Softmax                  softmax_122              1 1 1802 1803
BinaryOp                 mul_307                  2 1 1800 1803 1804 0=2
Reduction                sum_713                  1 1 1804 1805 0=0 1=0 -23303=0 4=0 5=1
Crop                     crop_864                 1 1 120 1806 -23310=1,1 -23311=1,0 -23309=1,0
Reshape                  encoder.encoders.4.encoder.state_select_list.0_ncnnreshape0 1 1 1806 1807 0=0 1=0
Crop                     crop_865                 1 1 140 1808 -23310=1,1 -23311=1,0 -23309=1,0
Reshape                  pnnx_unique_105_ncnnreshape0 1 1 1808 1809 0=0 1=0
Split                    splitncnn_270            1 4 1805 1810 1811 1812 1813
InnerProduct             linear_317               1 1 1813 1814 0=1024 1=1 2=393216
Split                    splitncnn_271            1 2 1814 1815 1816
BinaryOp                 sub_308                  1 1 1815 1817 0=1 1=1 2=1.000000e+00
Sigmoid                  sigmoid_88               1 1 1817 1818
BinaryOp                 mul_309                  2 1 1816 1818 1819 0=2
InnerProduct             linear_318               1 1 1819 1820 0=384 1=1 2=393216
BinaryOp                 add_310                  2 1 1810 1820 1821 0=0
Split                    splitncnn_272            1 2 1821 1822 1823
Crop                     select_55                1 1 40 1824 -23310=1,1 -23311=1,0 -23309=1,0
Crop                     select_56                1 1 20 1825 -23310=1,1 -23311=1,0 -23309=1,0
PoolingModuleNoProj      pooling_modul_no_proj_728 3 3 1823 1825 1824 1826 1827 1828
InnerProduct             linear_319               1 1 1826 1829 0=384 1=0 2=147456
BinaryOp                 add_311                  2 1 1822 1829 1830 0=0
Split                    splitncnn_273            1 2 1830 1831 1832
Crop                     select_57                1 1 60 1833 -23310=1,1 -23311=1,0 -23309=1,0
Crop                     select_58                1 1 80 1834 -23310=1,1 -23311=1,0 -23309=1,0
InnerProduct             linear_320               1 1 1832 1835 0=512 1=1 2=196608
Slice                    tensor_split_11          1 4 1835 1836 1837 1838 1839 -23300=4,192,192,96,-233 1=1
Concat                   cat_55                   2 1 1834 1838 1840 0=0
Split                    splitncnn_274            1 2 1840 1841 1842
Reshape                  reshape_448              1 1 1841 1843 0=12 1=8 2=40
Reshape                  reshape_449              1 1 1836 1844 0=24 1=8 2=8
Reshape                  reshape_450              1 1 1839 1845 0=4 1=8 2=8
Concat                   cat_56                   2 1 1833 1837 1846 0=0
Split                    splitncnn_275            1 2 1846 1847 1848
Reshape                  reshape_451              1 1 1847 1849 0=24 1=8 2=40
InnerProduct             linear_321               1 1 145 1850 0=32 1=0 2=12288
Reshape                  reshape_452              1 1 1850 1851 0=4 1=8 2=47
Permute                  permute_817              1 1 1851 1852 0=3
Split                    splitncnn_276            1 4 1852 1853 1854 1855 1856
Permute                  permute_815              1 1 1845 1857 0=2
MatMul                   matmul_620               2 1 1857 1856 1858
Permute                  permute_816              1 1 1849 1859 0=3
Permute                  permute_814              1 1 1844 1860 0=2
MatMul                   matmul_621               2 1 1860 1859 1861
TensorAsStrided          tensor_as_strided_883    1 1 1858 1862 -23300=3,8,8,40 -23301=3,376,46,1 2=7
BinaryOp                 add_312                  2 1 1861 1862 1863 0=0
Reshape                  view_564                 1 1 1863 1864 0=40 1=8 2=8
Softmax                  softmax_123              1 1 1864 1865 0=-1 1=1
Split                    splitncnn_277            1 2 1865 1866 1867
Permute                  permute_813              1 1 1843 1868 0=2
MatMul                   bmm_590                  2 1 1867 1868 1869
Permute                  permute_818              1 1 1869 1870 0=2
Reshape                  reshape_453              1 1 1870 1871 0=96 1=8
InnerProduct             linear_322               1 1 1871 1872 0=384 1=1 2=36864
BinaryOp                 add_313                  2 1 1831 1872 1873 0=0
Split                    splitncnn_278            1 2 1873 1874 1875
Permute                  permute_689              1 1 1875 1876 0=1
Convolution1D            conv1d_172               1 1 1876 1877 0=768 1=1 2=1 3=1 4=0 5=1 6=294912
GLU                      glu_22                   1 1 1877 1878 0=0
Concat                   cat_57                   2 1 1807 1878 1879 0=1
Split                    splitncnn_279            1 2 1879 1880 1881
ConvolutionDepthWise1D   convdw1d_918             1 1 1881 1882 0=384 1=31 2=1 3=1 4=0 5=1 6=11904 7=384
Split                    splitncnn_280            1 2 1882 1883 1884
BinaryOp                 sub_314                  1 1 1883 1885 0=1 1=1 2=1.000000e+00
Sigmoid                  sigmoid_89               1 1 1885 1886
BinaryOp                 mul_315                  2 1 1884 1886 1887 0=2
Convolution1D            conv1d_173               1 1 1887 1888 0=384 1=1 2=1 3=1 4=0 5=1 6=147456
Permute                  permute_690              1 1 1888 1889 0=1
BinaryOp                 add_316                  2 1 1874 1889 1890 0=0
Split                    splitncnn_281            1 2 1890 1891 1892
InnerProduct             linear_323               1 1 1892 1893 0=1024 1=1 2=393216
Split                    splitncnn_282            1 2 1893 1894 1895
BinaryOp                 sub_317                  1 1 1894 1896 0=1 1=1 2=1.000000e+00
Sigmoid                  sigmoid_90               1 1 1896 1897
BinaryOp                 mul_318                  2 1 1895 1897 1898 0=2
InnerProduct             linear_324               1 1 1898 1899 0=384 1=1 2=393216
BinaryOp                 add_319                  2 1 1891 1899 1900 0=0
Split                    splitncnn_283            1 2 1900 1901 1902
Crop                     select_59                1 1 100 1903 -23310=1,1 -23311=1,0 -23309=1,0
InnerProduct             linear_325               1 1 1902 1904 0=96 1=0 2=36864
Concat                   cat_58                   2 1 1903 1904 1905 0=0
Split                    splitncnn_284            1 2 1905 1906 1907
Reshape                  reshape_454              1 1 1906 1908 0=12 1=8 2=40
Permute                  permute_819              1 1 1908 1909 0=2
MatMul                   bmm_591                  2 1 1866 1909 1910
Permute                  permute_820              1 1 1910 1911 0=2
Reshape                  reshape_455              1 1 1911 1912 0=96 1=8
InnerProduct             linear_326               1 1 1912 1913 0=384 1=1 2=36864
BinaryOp                 add_320                  2 1 1901 1913 1914 0=0
Split                    splitncnn_285            1 2 1914 1915 1916
Permute                  permute_691              1 1 1916 1917 0=1
Convolution1D            conv1d_174               1 1 1917 1918 0=768 1=1 2=1 3=1 4=0 5=1 6=294912
GLU                      glu_23                   1 1 1918 1919 0=0
Concat                   cat_59                   2 1 1809 1919 1920 0=1
Split                    splitncnn_286            1 2 1920 1921 1922
ConvolutionDepthWise1D   convdw1d_919             1 1 1922 1923 0=384 1=31 2=1 3=1 4=0 5=1 6=11904 7=384
Split                    splitncnn_287            1 2 1923 1924 1925
BinaryOp                 sub_321                  1 1 1924 1926 0=1 1=1 2=1.000000e+00
Sigmoid                  sigmoid_91               1 1 1926 1927
BinaryOp                 mul_322                  2 1 1925 1927 1928 0=2
Convolution1D            conv1d_175               1 1 1928 1929 0=384 1=1 2=1 3=1 4=0 5=1 6=147456
Permute                  permute_692              1 1 1929 1930 0=1
BinaryOp                 add_323                  2 1 1915 1930 1931 0=0
Split                    splitncnn_288            1 2 1931 1932 1933
InnerProduct             linear_327               1 1 1933 1934 0=1024 1=1 2=393216
Split                    splitncnn_289            1 2 1934 1935 1936
BinaryOp                 sub_324                  1 1 1935 1937 0=1 1=1 2=1.000000e+00
Sigmoid                  sigmoid_92               1 1 1937 1938
BinaryOp                 mul_325                  2 1 1936 1938 1939 0=2
InnerProduct             linear_328               1 1 1939 1940 0=384 1=1 2=393216
BinaryOp                 add_326                  2 1 1932 1940 1941 0=0
Split                    splitncnn_290            1 3 1941 1942 1943 1944
BinaryOp                 mul_327                  2 1 1942 1943 1945 0=2
Reduction                mean_639                 1 1 1945 1946 0=3 1=0 -23303=1,-1 4=1 5=1
BinaryOp                 add_328                  1 1 1946 1947 0=0 1=1 2=2.500000e-01
BinaryOp                 pow_329                  1 1 1947 1948 0=6 1=1 2=-5.000000e-01
BinaryOp                 mul_330                  2 1 1944 1948 1949 0=2
BinaryOp                 sub_331                  2 1 1949 1811 1950 0=1
BinaryOp                 mul_332                  2 1 1950 144 1951 0=2
BinaryOp                 add_333                  2 1 1812 1951 1952 0=0
Split                    splitncnn_291            1 4 1952 1953 1954 1955 1956
Crop                     crop_866                 1 1 119 1957 -23310=1,2 -23311=1,0 -23309=1,1
Reshape                  encoder.encoders.4.encoder.state_select_list.1_ncnnreshape0 1 1 1957 1958 0=0 1=0
Crop                     crop_867                 1 1 139 1959 -23310=1,2 -23311=1,0 -23309=1,1
Reshape                  pnnx_unique_113_ncnnreshape0 1 1 1959 1960 0=0 1=0
InnerProduct             linear_329               1 1 1956 1961 0=1024 1=1 2=393216
Split                    splitncnn_292            1 2 1961 1962 1963
BinaryOp                 sub_334                  1 1 1962 1964 0=1 1=1 2=1.000000e+00
Sigmoid                  sigmoid_93               1 1 1964 1965
BinaryOp                 mul_335                  2 1 1963 1965 1966 0=2
InnerProduct             linear_330               1 1 1966 1967 0=384 1=1 2=393216
BinaryOp                 add_336                  2 1 1953 1967 1968 0=0
Split                    splitncnn_293            1 2 1968 1969 1970
Crop                     select_60                1 1 39 1971 -23310=1,2 -23311=1,0 -23309=1,1
Crop                     select_61                1 1 19 1972 -23310=1,2 -23311=1,0 -23309=1,1
PoolingModuleNoProj      pooling_modul_no_proj_729 3 3 1970 1972 1971 1973 1974 1975
InnerProduct             linear_331               1 1 1973 1976 0=384 1=0 2=147456
BinaryOp                 add_337                  2 1 1969 1976 1977 0=0
Split                    splitncnn_294            1 2 1977 1978 1979
Crop                     select_62                1 1 59 1980 -23310=1,2 -23311=1,0 -23309=1,1
Crop                     select_63                1 1 79 1981 -23310=1,2 -23311=1,0 -23309=1,1
InnerProduct             linear_332               1 1 1979 1982 0=512 1=1 2=196608
Slice                    tensor_split_12          1 4 1982 1983 1984 1985 1986 -23300=4,192,192,96,-233 1=1
Concat                   cat_60                   2 1 1981 1985 1987 0=0
Split                    splitncnn_295            1 2 1987 1988 1989
Reshape                  reshape_456              1 1 1988 1990 0=12 1=8 2=40
Reshape                  reshape_457              1 1 1983 1991 0=24 1=8 2=8
Reshape                  reshape_458              1 1 1986 1992 0=4 1=8 2=8
Concat                   cat_61                   2 1 1980 1984 1993 0=0
Split                    splitncnn_296            1 2 1993 1994 1995
Reshape                  reshape_459              1 1 1994 1996 0=24 1=8 2=40
Permute                  permute_823              1 1 1992 1997 0=2
MatMul                   matmul_622               2 1 1997 1855 1998
Permute                  permute_824              1 1 1996 1999 0=3
Permute                  permute_822              1 1 1991 2000 0=2
MatMul                   matmul_623               2 1 2000 1999 2001
TensorAsStrided          tensor_as_strided_884    1 1 1998 2002 -23300=3,8,8,40 -23301=3,376,46,1 2=7
BinaryOp                 add_338                  2 1 2001 2002 2003 0=0
Reshape                  view_565                 1 1 2003 2004 0=40 1=8 2=8
Softmax                  softmax_124              1 1 2004 2005 0=-1 1=1
Split                    splitncnn_297            1 2 2005 2006 2007
Permute                  permute_821              1 1 1990 2008 0=2
MatMul                   bmm_592                  2 1 2007 2008 2009
Permute                  permute_825              1 1 2009 2010 0=2
Reshape                  reshape_460              1 1 2010 2011 0=96 1=8
InnerProduct             linear_333               1 1 2011 2012 0=384 1=1 2=36864
BinaryOp                 add_339                  2 1 1978 2012 2013 0=0
Split                    splitncnn_298            1 2 2013 2014 2015
Permute                  permute_693              1 1 2015 2016 0=1
Convolution1D            conv1d_176               1 1 2016 2017 0=768 1=1 2=1 3=1 4=0 5=1 6=294912
GLU                      glu_24                   1 1 2017 2018 0=0
Concat                   cat_62                   2 1 1958 2018 2019 0=1
Split                    splitncnn_299            1 2 2019 2020 2021
ConvolutionDepthWise1D   convdw1d_920             1 1 2021 2022 0=384 1=31 2=1 3=1 4=0 5=1 6=11904 7=384
Split                    splitncnn_300            1 2 2022 2023 2024
BinaryOp                 sub_340                  1 1 2023 2025 0=1 1=1 2=1.000000e+00
Sigmoid                  sigmoid_94               1 1 2025 2026
BinaryOp                 mul_341                  2 1 2024 2026 2027 0=2
Convolution1D            conv1d_177               1 1 2027 2028 0=384 1=1 2=1 3=1 4=0 5=1 6=147456
Permute                  permute_694              1 1 2028 2029 0=1
BinaryOp                 add_342                  2 1 2014 2029 2030 0=0
Split                    splitncnn_301            1 2 2030 2031 2032
InnerProduct             linear_334               1 1 2032 2033 0=1024 1=1 2=393216
Split                    splitncnn_302            1 2 2033 2034 2035
BinaryOp                 sub_343                  1 1 2034 2036 0=1 1=1 2=1.000000e+00
Sigmoid                  sigmoid_95               1 1 2036 2037
BinaryOp                 mul_344                  2 1 2035 2037 2038 0=2
InnerProduct             linear_335               1 1 2038 2039 0=384 1=1 2=393216
BinaryOp                 add_345                  2 1 2031 2039 2040 0=0
Split                    splitncnn_303            1 2 2040 2041 2042
Crop                     select_64                1 1 99 2043 -23310=1,2 -23311=1,0 -23309=1,1
InnerProduct             linear_336               1 1 2042 2044 0=96 1=0 2=36864
Concat                   cat_63                   2 1 2043 2044 2045 0=0
Split                    splitncnn_304            1 2 2045 2046 2047
Reshape                  reshape_461              1 1 2046 2048 0=12 1=8 2=40
Permute                  permute_826              1 1 2048 2049 0=2
MatMul                   bmm_593                  2 1 2006 2049 2050
Permute                  permute_827              1 1 2050 2051 0=2
Reshape                  reshape_462              1 1 2051 2052 0=96 1=8
InnerProduct             linear_337               1 1 2052 2053 0=384 1=1 2=36864
BinaryOp                 add_346                  2 1 2041 2053 2054 0=0
Split                    splitncnn_305            1 2 2054 2055 2056
Permute                  permute_695              1 1 2056 2057 0=1
Convolution1D            conv1d_178               1 1 2057 2058 0=768 1=1 2=1 3=1 4=0 5=1 6=294912
GLU                      glu_25                   1 1 2058 2059 0=0
Concat                   cat_64                   2 1 1960 2059 2060 0=1
Split                    splitncnn_306            1 2 2060 2061 2062
ConvolutionDepthWise1D   convdw1d_921             1 1 2062 2063 0=384 1=31 2=1 3=1 4=0 5=1 6=11904 7=384
Split                    splitncnn_307            1 2 2063 2064 2065
BinaryOp                 sub_347                  1 1 2064 2066 0=1 1=1 2=1.000000e+00
Sigmoid                  sigmoid_96               1 1 2066 2067
BinaryOp                 mul_348                  2 1 2065 2067 2068 0=2
Convolution1D            conv1d_179               1 1 2068 2069 0=384 1=1 2=1 3=1 4=0 5=1 6=147456
Permute                  permute_696              1 1 2069 2070 0=1
BinaryOp                 add_349                  2 1 2055 2070 2071 0=0
Split                    splitncnn_308            1 2 2071 2072 2073
InnerProduct             linear_338               1 1 2073 2074 0=1024 1=1 2=393216
Split                    splitncnn_309            1 2 2074 2075 2076
BinaryOp                 sub_350                  1 1 2075 2077 0=1 1=1 2=1.000000e+00
Sigmoid                  sigmoid_97               1 1 2077 2078
BinaryOp                 mul_351                  2 1 2076 2078 2079 0=2
InnerProduct             linear_339               1 1 2079 2080 0=384 1=1 2=393216
BinaryOp                 add_352                  2 1 2072 2080 2081 0=0
Split                    splitncnn_310            1 3 2081 2082 2083 2084
BinaryOp                 mul_353                  2 1 2082 2083 2085 0=2
Reduction                mean_640                 1 1 2085 2086 0=3 1=0 -23303=1,-1 4=1 5=1
BinaryOp                 add_354                  1 1 2086 2087 0=0 1=1 2=2.500000e-01
BinaryOp                 pow_355                  1 1 2087 2088 0=6 1=1 2=-5.000000e-01
BinaryOp                 mul_356                  2 1 2084 2088 2089 0=2
BinaryOp                 sub_357                  2 1 2089 1954 2090 0=1
BinaryOp                 mul_358                  2 1 2090 143 2091 0=2
BinaryOp                 add_359                  2 1 1955 2091 2092 0=0
Split                    splitncnn_311            1 4 2092 2093 2094 2095 2096
Crop                     crop_868                 1 1 118 2097 -23310=1,3 -23311=1,0 -23309=1,2
Reshape                  encoder.encoders.4.encoder.state_select_list.2_ncnnreshape0 1 1 2097 2098 0=0 1=0
Crop                     crop_869                 1 1 138 2099 -23310=1,3 -23311=1,0 -23309=1,2
Reshape                  pnnx_unique_121_ncnnreshape0 1 1 2099 2100 0=0 1=0
InnerProduct             linear_340               1 1 2096 2101 0=1024 1=1 2=393216
Split                    splitncnn_312            1 2 2101 2102 2103
BinaryOp                 sub_360                  1 1 2102 2104 0=1 1=1 2=1.000000e+00
Sigmoid                  sigmoid_98               1 1 2104 2105
BinaryOp                 mul_361                  2 1 2103 2105 2106 0=2
InnerProduct             linear_341               1 1 2106 2107 0=384 1=1 2=393216
BinaryOp                 add_362                  2 1 2093 2107 2108 0=0
Split                    splitncnn_313            1 2 2108 2109 2110
Crop                     select_65                1 1 38 2111 -23310=1,3 -23311=1,0 -23309=1,2
Crop                     select_66                1 1 18 2112 -23310=1,3 -23311=1,0 -23309=1,2
PoolingModuleNoProj      pooling_modul_no_proj_730 3 3 2110 2112 2111 2113 2114 2115
InnerProduct             linear_342               1 1 2113 2116 0=384 1=0 2=147456
BinaryOp                 add_363                  2 1 2109 2116 2117 0=0
Split                    splitncnn_314            1 2 2117 2118 2119
Crop                     select_67                1 1 58 2120 -23310=1,3 -23311=1,0 -23309=1,2
Crop                     select_68                1 1 78 2121 -23310=1,3 -23311=1,0 -23309=1,2
InnerProduct             linear_343               1 1 2119 2122 0=512 1=1 2=196608
Slice                    tensor_split_13          1 4 2122 2123 2124 2125 2126 -23300=4,192,192,96,-233 1=1
Concat                   cat_65                   2 1 2121 2125 2127 0=0
Split                    splitncnn_315            1 2 2127 2128 2129
Reshape                  reshape_463              1 1 2128 2130 0=12 1=8 2=40
Reshape                  reshape_464              1 1 2123 2131 0=24 1=8 2=8
Reshape                  reshape_465              1 1 2126 2132 0=4 1=8 2=8
Concat                   cat_66                   2 1 2120 2124 2133 0=0
Split                    splitncnn_316            1 2 2133 2134 2135
Reshape                  reshape_466              1 1 2134 2136 0=24 1=8 2=40
Permute                  permute_830              1 1 2132 2137 0=2
MatMul                   matmul_624               2 1 2137 1854 2138
Permute                  permute_831              1 1 2136 2139 0=3
Permute                  permute_829              1 1 2131 2140 0=2
MatMul                   matmul_625               2 1 2140 2139 2141
TensorAsStrided          tensor_as_strided_885    1 1 2138 2142 -23300=3,8,8,40 -23301=3,376,46,1 2=7
BinaryOp                 add_364                  2 1 2141 2142 2143 0=0
Reshape                  view_566                 1 1 2143 2144 0=40 1=8 2=8
Softmax                  softmax_125              1 1 2144 2145 0=-1 1=1
Split                    splitncnn_317            1 2 2145 2146 2147
Permute                  permute_828              1 1 2130 2148 0=2
MatMul                   bmm_594                  2 1 2147 2148 2149
Permute                  permute_832              1 1 2149 2150 0=2
Reshape                  reshape_467              1 1 2150 2151 0=96 1=8
InnerProduct             linear_344               1 1 2151 2152 0=384 1=1 2=36864
BinaryOp                 add_365                  2 1 2118 2152 2153 0=0
Split                    splitncnn_318            1 2 2153 2154 2155
Permute                  permute_697              1 1 2155 2156 0=1
Convolution1D            conv1d_180               1 1 2156 2157 0=768 1=1 2=1 3=1 4=0 5=1 6=294912
GLU                      glu_26                   1 1 2157 2158 0=0
Concat                   cat_67                   2 1 2098 2158 2159 0=1
Split                    splitncnn_319            1 2 2159 2160 2161
ConvolutionDepthWise1D   convdw1d_922             1 1 2161 2162 0=384 1=31 2=1 3=1 4=0 5=1 6=11904 7=384
Split                    splitncnn_320            1 2 2162 2163 2164
BinaryOp                 sub_366                  1 1 2163 2165 0=1 1=1 2=1.000000e+00
Sigmoid                  sigmoid_99               1 1 2165 2166
BinaryOp                 mul_367                  2 1 2164 2166 2167 0=2
Convolution1D            conv1d_181               1 1 2167 2168 0=384 1=1 2=1 3=1 4=0 5=1 6=147456
Permute                  permute_698              1 1 2168 2169 0=1
BinaryOp                 add_368                  2 1 2154 2169 2170 0=0
Split                    splitncnn_321            1 2 2170 2171 2172
InnerProduct             linear_345               1 1 2172 2173 0=1024 1=1 2=393216
Split                    splitncnn_322            1 2 2173 2174 2175
BinaryOp                 sub_369                  1 1 2174 2176 0=1 1=1 2=1.000000e+00
Sigmoid                  sigmoid_100              1 1 2176 2177
BinaryOp                 mul_370                  2 1 2175 2177 2178 0=2
InnerProduct             linear_346               1 1 2178 2179 0=384 1=1 2=393216
BinaryOp                 add_371                  2 1 2171 2179 2180 0=0
Split                    splitncnn_323            1 2 2180 2181 2182
Crop                     select_69                1 1 98 2183 -23310=1,3 -23311=1,0 -23309=1,2
InnerProduct             linear_347               1 1 2182 2184 0=96 1=0 2=36864
Concat                   cat_68                   2 1 2183 2184 2185 0=0
Split                    splitncnn_324            1 2 2185 2186 2187
Reshape                  reshape_468              1 1 2186 2188 0=12 1=8 2=40
Permute                  permute_833              1 1 2188 2189 0=2
MatMul                   bmm_595                  2 1 2146 2189 2190
Permute                  permute_834              1 1 2190 2191 0=2
Reshape                  reshape_469              1 1 2191 2192 0=96 1=8
InnerProduct             linear_348               1 1 2192 2193 0=384 1=1 2=36864
BinaryOp                 add_372                  2 1 2181 2193 2194 0=0
Split                    splitncnn_325            1 2 2194 2195 2196
Permute                  permute_699              1 1 2196 2197 0=1
Convolution1D            conv1d_182               1 1 2197 2198 0=768 1=1 2=1 3=1 4=0 5=1 6=294912
GLU                      glu_27                   1 1 2198 2199 0=0
Concat                   cat_69                   2 1 2100 2199 2200 0=1
Split                    splitncnn_326            1 2 2200 2201 2202
ConvolutionDepthWise1D   convdw1d_923             1 1 2202 2203 0=384 1=31 2=1 3=1 4=0 5=1 6=11904 7=384
Split                    splitncnn_327            1 2 2203 2204 2205
BinaryOp                 sub_373                  1 1 2204 2206 0=1 1=1 2=1.000000e+00
Sigmoid                  sigmoid_101              1 1 2206 2207
BinaryOp                 mul_374                  2 1 2205 2207 2208 0=2
Convolution1D            conv1d_183               1 1 2208 2209 0=384 1=1 2=1 3=1 4=0 5=1 6=147456
Permute                  permute_700              1 1 2209 2210 0=1
BinaryOp                 add_375                  2 1 2195 2210 2211 0=0
Split                    splitncnn_328            1 2 2211 2212 2213
InnerProduct             linear_349               1 1 2213 2214 0=1024 1=1 2=393216
Split                    splitncnn_329            1 2 2214 2215 2216
BinaryOp                 sub_376                  1 1 2215 2217 0=1 1=1 2=1.000000e+00
Sigmoid                  sigmoid_102              1 1 2217 2218
BinaryOp                 mul_377                  2 1 2216 2218 2219 0=2
InnerProduct             linear_350               1 1 2219 2220 0=384 1=1 2=393216
BinaryOp                 add_378                  2 1 2212 2220 2221 0=0
Split                    splitncnn_330            1 3 2221 2222 2223 2224
BinaryOp                 mul_379                  2 1 2222 2223 2225 0=2
Reduction                mean_641                 1 1 2225 2226 0=3 1=0 -23303=1,-1 4=1 5=1
BinaryOp                 add_380                  1 1 2226 2227 0=0 1=1 2=2.500000e-01
BinaryOp                 pow_381                  1 1 2227 2228 0=6 1=1 2=-5.000000e-01
BinaryOp                 mul_382                  2 1 2224 2228 2229 0=2
BinaryOp                 sub_383                  2 1 2229 2094 2230 0=1
BinaryOp                 mul_384                  2 1 2230 142 2231 0=2
BinaryOp                 add_385                  2 1 2095 2231 2232 0=0
Split                    splitncnn_331            1 4 2232 2233 2234 2235 2236
Crop                     crop_870                 1 1 117 2237 -23310=1,4 -23311=1,0 -23309=1,3
Reshape                  encoder.encoders.4.encoder.state_select_list.3_ncnnreshape0 1 1 2237 2238 0=0 1=0
Crop                     crop_871                 1 1 137 2239 -23310=1,4 -23311=1,0 -23309=1,3
Reshape                  pnnx_unique_129_ncnnreshape0 1 1 2239 2240 0=0 1=0
InnerProduct             linear_351               1 1 2236 2241 0=1024 1=1 2=393216
Split                    splitncnn_332            1 2 2241 2242 2243
BinaryOp                 sub_386                  1 1 2242 2244 0=1 1=1 2=1.000000e+00
Sigmoid                  sigmoid_103              1 1 2244 2245
BinaryOp                 mul_387                  2 1 2243 2245 2246 0=2
InnerProduct             linear_352               1 1 2246 2247 0=384 1=1 2=393216
BinaryOp                 add_388                  2 1 2233 2247 2248 0=0
Split                    splitncnn_333            1 2 2248 2249 2250
Crop                     select_70                1 1 37 2251 -23310=1,4 -23311=1,0 -23309=1,3
Crop                     select_71                1 1 17 2252 -23310=1,4 -23311=1,0 -23309=1,3
PoolingModuleNoProj      pooling_modul_no_proj_731 3 3 2250 2252 2251 2253 2254 2255
InnerProduct             linear_353               1 1 2253 2256 0=384 1=0 2=147456
BinaryOp                 add_389                  2 1 2249 2256 2257 0=0
Split                    splitncnn_334            1 2 2257 2258 2259
Crop                     select_72                1 1 57 2260 -23310=1,4 -23311=1,0 -23309=1,3
Crop                     select_73                1 1 77 2261 -23310=1,4 -23311=1,0 -23309=1,3
InnerProduct             linear_354               1 1 2259 2262 0=512 1=1 2=196608
Slice                    tensor_split_14          1 4 2262 2263 2264 2265 2266 -23300=4,192,192,96,-233 1=1
Concat                   cat_70                   2 1 2261 2265 2267 0=0
Split                    splitncnn_335            1 2 2267 2268 2269
Reshape                  reshape_470              1 1 2268 2270 0=12 1=8 2=40
Reshape                  reshape_471              1 1 2263 2271 0=24 1=8 2=8
Reshape                  reshape_472              1 1 2266 2272 0=4 1=8 2=8
Concat                   cat_71                   2 1 2260 2264 2273 0=0
Split                    splitncnn_336            1 2 2273 2274 2275
Reshape                  reshape_473              1 1 2274 2276 0=24 1=8 2=40
Permute                  permute_837              1 1 2272 2277 0=2
MatMul                   matmul_626               2 1 2277 1853 2278
Permute                  permute_838              1 1 2276 2279 0=3
Permute                  permute_836              1 1 2271 2280 0=2
MatMul                   matmul_627               2 1 2280 2279 2281
TensorAsStrided          tensor_as_strided_886    1 1 2278 2282 -23300=3,8,8,40 -23301=3,376,46,1 2=7
BinaryOp                 add_390                  2 1 2281 2282 2283 0=0
Reshape                  view_567                 1 1 2283 2284 0=40 1=8 2=8
Softmax                  softmax_126              1 1 2284 2285 0=-1 1=1
Split                    splitncnn_337            1 2 2285 2286 2287
Permute                  permute_835              1 1 2270 2288 0=2
MatMul                   bmm_596                  2 1 2287 2288 2289
Permute                  permute_839              1 1 2289 2290 0=2
Reshape                  reshape_474              1 1 2290 2291 0=96 1=8
InnerProduct             linear_355               1 1 2291 2292 0=384 1=1 2=36864
BinaryOp                 add_391                  2 1 2258 2292 2293 0=0
Split                    splitncnn_338            1 2 2293 2294 2295
Permute                  permute_701              1 1 2295 2296 0=1
Convolution1D            conv1d_184               1 1 2296 2297 0=768 1=1 2=1 3=1 4=0 5=1 6=294912
GLU                      glu_28                   1 1 2297 2298 0=0
Concat                   cat_72                   2 1 2238 2298 2299 0=1
Split                    splitncnn_339            1 2 2299 2300 2301
ConvolutionDepthWise1D   convdw1d_924             1 1 2301 2302 0=384 1=31 2=1 3=1 4=0 5=1 6=11904 7=384
Split                    splitncnn_340            1 2 2302 2303 2304
BinaryOp                 sub_392                  1 1 2303 2305 0=1 1=1 2=1.000000e+00
Sigmoid                  sigmoid_104              1 1 2305 2306
BinaryOp                 mul_393                  2 1 2304 2306 2307 0=2
Convolution1D            conv1d_185               1 1 2307 2308 0=384 1=1 2=1 3=1 4=0 5=1 6=147456
Permute                  permute_702              1 1 2308 2309 0=1
BinaryOp                 add_394                  2 1 2294 2309 2310 0=0
Split                    splitncnn_341            1 2 2310 2311 2312
InnerProduct             linear_356               1 1 2312 2313 0=1024 1=1 2=393216
Split                    splitncnn_342            1 2 2313 2314 2315
BinaryOp                 sub_395                  1 1 2314 2316 0=1 1=1 2=1.000000e+00
Sigmoid                  sigmoid_105              1 1 2316 2317
BinaryOp                 mul_396                  2 1 2315 2317 2318 0=2
InnerProduct             linear_357               1 1 2318 2319 0=384 1=1 2=393216
BinaryOp                 add_397                  2 1 2311 2319 2320 0=0
Split                    splitncnn_343            1 2 2320 2321 2322
Crop                     select_74                1 1 97 2323 -23310=1,4 -23311=1,0 -23309=1,3
InnerProduct             linear_358               1 1 2322 2324 0=96 1=0 2=36864
Concat                   cat_73                   2 1 2323 2324 2325 0=0
Split                    splitncnn_344            1 2 2325 2326 2327
Reshape                  reshape_475              1 1 2326 2328 0=12 1=8 2=40
Permute                  permute_840              1 1 2328 2329 0=2
MatMul                   bmm_597                  2 1 2286 2329 2330
Permute                  permute_841              1 1 2330 2331 0=2
Reshape                  reshape_476              1 1 2331 2332 0=96 1=8
InnerProduct             linear_359               1 1 2332 2333 0=384 1=1 2=36864
BinaryOp                 add_398                  2 1 2321 2333 2334 0=0
Split                    splitncnn_345            1 2 2334 2335 2336
Permute                  permute_703              1 1 2336 2337 0=1
Convolution1D            conv1d_186               1 1 2337 2338 0=768 1=1 2=1 3=1 4=0 5=1 6=294912
GLU                      glu_29                   1 1 2338 2339 0=0
Concat                   cat_74                   2 1 2240 2339 2340 0=1
Split                    splitncnn_346            1 2 2340 2341 2342
ConvolutionDepthWise1D   convdw1d_925             1 1 2342 2343 0=384 1=31 2=1 3=1 4=0 5=1 6=11904 7=384
Split                    splitncnn_347            1 2 2343 2344 2345
BinaryOp                 sub_399                  1 1 2344 2346 0=1 1=1 2=1.000000e+00
Sigmoid                  sigmoid_106              1 1 2346 2347
BinaryOp                 mul_400                  2 1 2345 2347 2348 0=2
Convolution1D            conv1d_187               1 1 2348 2349 0=384 1=1 2=1 3=1 4=0 5=1 6=147456
Permute                  permute_704              1 1 2349 2350 0=1
BinaryOp                 add_401                  2 1 2335 2350 2351 0=0
Split                    splitncnn_348            1 2 2351 2352 2353
InnerProduct             linear_360               1 1 2353 2354 0=1024 1=1 2=393216
Split                    splitncnn_349            1 2 2354 2355 2356
BinaryOp                 sub_402                  1 1 2355 2357 0=1 1=1 2=1.000000e+00
Sigmoid                  sigmoid_107              1 1 2357 2358
BinaryOp                 mul_403                  2 1 2356 2358 2359 0=2
InnerProduct             linear_361               1 1 2359 2360 0=384 1=1 2=393216
BinaryOp                 add_404                  2 1 2352 2360 2361 0=0
Split                    splitncnn_350            1 3 2361 2362 2363 2364
BinaryOp                 mul_405                  2 1 2362 2363 2365 0=2
Reduction                mean_642                 1 1 2365 2366 0=3 1=0 -23303=1,-1 4=1 5=1
BinaryOp                 add_406                  1 1 2366 2367 0=0 1=1 2=2.500000e-01
BinaryOp                 pow_407                  1 1 2367 2368 0=6 1=1 2=-5.000000e-01
BinaryOp                 mul_408                  2 1 2364 2368 2369 0=2
BinaryOp                 sub_409                  2 1 2369 2234 2370 0=1
BinaryOp                 mul_410                  2 1 2370 141 2371 0=2
BinaryOp                 add_411                  2 1 2235 2371 2372 0=0
MemoryData               encoder.encoders.4.out_combiner 0 1 2373 0=1
BinaryOp                 mul_412                  2 1 1795 2373 2374 0=2
SimpleUpsample           simple_upsample_895      1 1 2372 2375 0=2 1=384 2=768
BinaryOp                 add_413                  2 1 2374 2375 2376 0=0
MemoryData               encoder.downsample_output 0 1 2377 0=384 1=1 2=1
Reshape                  reshape_477              1 1 2376 2378 0=384 1=2 2=8
Split                    splitncnn_351            1 2 2378 2379 2380
BinaryOp                 mul_414                  2 1 2379 2377 2381 0=2
Reduction                sum_714                  1 1 2381 2382 0=0 1=0 -23303=1,-1 4=1 5=1
Softmax                  softmax_127              1 1 2382 2383 0=1 1=1
BinaryOp                 mul_415                  2 1 2380 2383 2384 0=2
Reduction                sum_715                  1 1 2384 out0 0=0 1=0 -23303=1,1 4=0 5=1
Crop                     slice_481                1 1 2341 2386 -23310=1,-233 -23311=1,1 -23309=1,8
Crop                     slice_480                1 1 2201 2387 -23310=1,-233 -23311=1,1 -23309=1,8
Crop                     slice_479                1 1 2061 2388 -23310=1,-233 -23311=1,1 -23309=1,8
Crop                     slice_478                1 1 1921 2389 -23310=1,-233 -23311=1,1 -23309=1,8
Stack                    stack_0                  4 1 2389 2388 2387 2386 out35 0=0
Crop                     slice_485                1 1 2300 2391 -23310=1,-233 -23311=1,1 -23309=1,8
Crop                     slice_484                1 1 2160 2392 -23310=1,-233 -23311=1,1 -23309=1,8
Crop                     slice_483                1 1 2020 2393 -23310=1,-233 -23311=1,1 -23309=1,8
Crop                     slice_482                1 1 1880 2394 -23310=1,-233 -23311=1,1 -23309=1,8
Stack                    stack_1                  4 1 2394 2393 2392 2391 out30 0=0
Crop                     slice_489                1 1 2327 2396 -23310=1,-233 -23311=1,0 -23309=1,-32
Crop                     slice_488                1 1 2187 2397 -23310=1,-233 -23311=1,0 -23309=1,-32
Crop                     slice_487                1 1 2047 2398 -23310=1,-233 -23311=1,0 -23309=1,-32
Crop                     slice_486                1 1 1907 2399 -23310=1,-233 -23311=1,0 -23309=1,-32
Stack                    stack_2                  4 1 2399 2398 2397 2396 out25 0=0
Crop                     slice_493                1 1 2269 2401 -23310=1,-233 -23311=1,0 -23309=1,8
Crop                     slice_492                1 1 2129 2402 -23310=1,-233 -23311=1,0 -23309=1,8
Crop                     slice_491                1 1 1989 2403 -23310=1,-233 -23311=1,0 -23309=1,8
Crop                     slice_490                1 1 1842 2404 -23310=1,-233 -23311=1,0 -23309=1,8
Stack                    stack_3                  4 1 2404 2403 2402 2401 out20 0=0
Crop                     slice_497                1 1 2275 2406 -23310=1,-233 -23311=1,0 -23309=1,8
Crop                     slice_496                1 1 2135 2407 -23310=1,-233 -23311=1,0 -23309=1,8
Crop                     slice_495                1 1 1995 2408 -23310=1,-233 -23311=1,0 -23309=1,8
Crop                     slice_494                1 1 1848 2409 -23310=1,-233 -23311=1,0 -23309=1,8
Stack                    stack_4                  4 1 2409 2408 2407 2406 out15 0=0
Stack                    stack_5                  4 1 1828 1975 2115 2255 out10 0=0
Stack                    stack_6                  4 1 1827 1974 2114 2254 out5 0=0
Crop                     slice_499                1 1 1756 2413 -23310=1,-233 -23311=1,1 -23309=1,2
Crop                     slice_498                1 1 1616 2414 -23310=1,-233 -23311=1,1 -23309=1,2
Stack                    stack_7                  2 1 2414 2413 out34 0=0
Crop                     slice_501                1 1 1715 2416 -23310=1,-233 -23311=1,1 -23309=1,2
Crop                     slice_500                1 1 1575 2417 -23310=1,-233 -23311=1,1 -23309=1,2
Stack                    stack_8                  2 1 2417 2416 out29 0=0
Crop                     slice_503                1 1 1742 2419 -23310=1,-233 -23311=1,0 -23309=1,-8
Crop                     slice_502                1 1 1602 2420 -23310=1,-233 -23311=1,0 -23309=1,-8
Stack                    stack_9                  2 1 2420 2419 out24 0=0
Crop                     slice_505                1 1 1684 2422 -23310=1,-233 -23311=1,0 -23309=1,2
Crop                     slice_504                1 1 1539 2423 -23310=1,-233 -23311=1,0 -23309=1,2
Stack                    stack_10                 2 1 2423 2422 out19 0=0
Crop                     slice_507                1 1 1690 2425 -23310=1,-233 -23311=1,0 -23309=1,2
Crop                     slice_506                1 1 1545 2426 -23310=1,-233 -23311=1,0 -23309=1,2
Stack                    stack_11                 2 1 2426 2425 out14 0=0
Stack                    stack_12                 2 1 1525 1670 out9 0=0
Stack                    stack_13                 2 1 1524 1669 out4 0=0
Crop                     slice_510                1 1 1456 2430 -23310=1,-233 -23311=1,1 -23309=1,4
Crop                     slice_509                1 1 1316 2431 -23310=1,-233 -23311=1,1 -23309=1,4
Crop                     slice_508                1 1 1176 2432 -23310=1,-233 -23311=1,1 -23309=1,4
Stack                    stack_14                 3 1 2432 2431 2430 out33 0=0
Crop                     slice_513                1 1 1415 2434 -23310=1,-233 -23311=1,1 -23309=1,4
Crop                     slice_512                1 1 1275 2435 -23310=1,-233 -23311=1,1 -23309=1,4
Crop                     slice_511                1 1 1135 2436 -23310=1,-233 -23311=1,1 -23309=1,4
Stack                    stack_15                 3 1 2436 2435 2434 out28 0=0
Crop                     slice_516                1 1 1442 2438 -23310=1,-233 -23311=1,0 -23309=1,-16
Crop                     slice_515                1 1 1302 2439 -23310=1,-233 -23311=1,0 -23309=1,-16
Crop                     slice_514                1 1 1162 2440 -23310=1,-233 -23311=1,0 -23309=1,-16
Stack                    stack_16                 3 1 2440 2439 2438 out23 0=0
Crop                     slice_519                1 1 1384 2442 -23310=1,-233 -23311=1,0 -23309=1,4
Crop                     slice_518                1 1 1244 2443 -23310=1,-233 -23311=1,0 -23309=1,4
Crop                     slice_517                1 1 1098 2444 -23310=1,-233 -23311=1,0 -23309=1,4
Stack                    stack_17                 3 1 2444 2443 2442 out18 0=0
Crop                     slice_522                1 1 1390 2446 -23310=1,-233 -23311=1,0 -23309=1,4
Crop                     slice_521                1 1 1250 2447 -23310=1,-233 -23311=1,0 -23309=1,4
Crop                     slice_520                1 1 1104 2448 -23310=1,-233 -23311=1,0 -23309=1,4
Stack                    stack_18                 3 1 2448 2447 2446 out13 0=0
Stack                    stack_19                 3 1 1084 1230 1370 out8 0=0
Stack                    stack_20                 3 1 1083 1229 1369 out3 0=0
Crop                     slice_526                1 1 1014 2452 -23310=1,-233 -23311=1,1 -23309=1,8
Crop                     slice_525                1 1 874 2453 -23310=1,-233 -23311=1,1 -23309=1,8
Crop                     slice_524                1 1 734 2454 -23310=1,-233 -23311=1,1 -23309=1,8
Crop                     slice_523                1 1 594 2455 -23310=1,-233 -23311=1,1 -23309=1,8
Stack                    stack_21                 4 1 2455 2454 2453 2452 out32 0=0
Crop                     slice_530                1 1 973 2457 -23310=1,-233 -23311=1,1 -23309=1,8
Crop                     slice_529                1 1 833 2458 -23310=1,-233 -23311=1,1 -23309=1,8
Crop                     slice_528                1 1 693 2459 -23310=1,-233 -23311=1,1 -23309=1,8
Crop                     slice_527                1 1 553 2460 -23310=1,-233 -23311=1,1 -23309=1,8
Stack                    stack_22                 4 1 2460 2459 2458 2457 out27 0=0
Crop                     slice_534                1 1 1000 2462 -23310=1,-233 -23311=1,0 -23309=1,-32
Crop                     slice_533                1 1 860 2463 -23310=1,-233 -23311=1,0 -23309=1,-32
Crop                     slice_532                1 1 720 2464 -23310=1,-233 -23311=1,0 -23309=1,-32
Crop                     slice_531                1 1 580 2465 -23310=1,-233 -23311=1,0 -23309=1,-32
Stack                    stack_23                 4 1 2465 2464 2463 2462 out22 0=0
Crop                     slice_538                1 1 942 2467 -23310=1,-233 -23311=1,0 -23309=1,8
Crop                     slice_537                1 1 802 2468 -23310=1,-233 -23311=1,0 -23309=1,8
Crop                     slice_536                1 1 662 2469 -23310=1,-233 -23311=1,0 -23309=1,8
Crop                     slice_535                1 1 515 2470 -23310=1,-233 -23311=1,0 -23309=1,8
Stack                    stack_24                 4 1 2470 2469 2468 2467 out17 0=0
Crop                     slice_542                1 1 948 2472 -23310=1,-233 -23311=1,0 -23309=1,8
Crop                     slice_541                1 1 808 2473 -23310=1,-233 -23311=1,0 -23309=1,8
Crop                     slice_540                1 1 668 2474 -23310=1,-233 -23311=1,0 -23309=1,8
Crop                     slice_539                1 1 521 2475 -23310=1,-233 -23311=1,0 -23309=1,8
Stack                    stack_25                 4 1 2475 2474 2473 2472 out12 0=0
Stack                    stack_26                 4 1 501 648 788 928 out7 0=0
Stack                    stack_27                 4 1 500 647 787 927 out2 0=0
Crop                     slice_544                1 1 436 2479 -23310=1,-233 -23311=1,1 -23309=1,16
Crop                     slice_543                1 1 296 2480 -23310=1,-233 -23311=1,1 -23309=1,16
Stack                    stack_28                 2 1 2480 2479 out31 0=0
Crop                     slice_546                1 1 395 2482 -23310=1,-233 -23311=1,1 -23309=1,16
Crop                     slice_545                1 1 255 2483 -23310=1,-233 -23311=1,1 -23309=1,16
Stack                    stack_29                 2 1 2483 2482 out26 0=0
Crop                     slice_548                1 1 422 2485 -23310=1,-233 -23311=1,0 -23309=1,-64
Crop                     slice_547                1 1 282 2486 -23310=1,-233 -23311=1,0 -23309=1,-64
Stack                    stack_30                 2 1 2486 2485 out21 0=0
Crop                     slice_550                1 1 364 2488 -23310=1,-233 -23311=1,0 -23309=1,16
Crop                     slice_549                1 1 219 2489 -23310=1,-233 -23311=1,0 -23309=1,16
Stack                    stack_31                 2 1 2489 2488 out16 0=0
Crop                     slice_552                1 1 370 2491 -23310=1,-233 -23311=1,0 -23309=1,16
Crop                     slice_551                1 1 225 2492 -23310=1,-233 -23311=1,0 -23309=1,16
Stack                    stack_32                 2 1 2492 2491 out11 0=0
Stack                    stack_33                 2 1 205 350 out6 0=0
Stack                    stack_34                 2 1 204 349 out1 0=0
