7767517
1794 2232
Input                    in0                      0 1 in0
Input                    in1                      0 1 in1
Input                    in2                      0 1 in2
Split                    splitncnn_0              1 2 in2 3 4
Input                    in3                      0 1 in3
Split                    splitncnn_1              1 4 in3 6 7 8 9
Input                    in4                      0 1 in4
Split                    splitncnn_2              1 3 in4 11 12 13
Input                    in5                      0 1 in5
Split                    splitncnn_3              1 2 in5 15 16
Input                    in6                      0 1 in6
Split                    splitncnn_4              1 4 in6 18 19 20 21
Input                    in7                      0 1 in7
Split                    splitncnn_5              1 2 in7 23 24
Input                    in8                      0 1 in8
Split                    splitncnn_6              1 4 in8 26 27 28 29
Input                    in9                      0 1 in9
Split                    splitncnn_7              1 3 in9 31 32 33
Input                    in10                     0 1 in10
Split                    splitncnn_8              1 2 in10 35 36
Input                    in11                     0 1 in11
Split                    splitncnn_9              1 4 in11 38 39 40 41
Input                    in12                     0 1 in12
Split                    splitncnn_10             1 2 in12 43 44
Input                    in13                     0 1 in13
Split                    splitncnn_11             1 4 in13 46 47 48 49
Input                    in14                     0 1 in14
Split                    splitncnn_12             1 3 in14 51 52 53
Input                    in15                     0 1 in15
Split                    splitncnn_13             1 2 in15 55 56
Input                    in16                     0 1 in16
Split                    splitncnn_14             1 4 in16 58 59 60 61
Input                    in17                     0 1 in17
Split                    splitncnn_15             1 2 in17 63 64
Input                    in18                     0 1 in18
Split                    splitncnn_16             1 4 in18 66 67 68 69
Input                    in19                     0 1 in19
Split                    splitncnn_17             1 3 in19 71 72 73
Input                    in20                     0 1 in20
Split                    splitncnn_18             1 2 in20 75 76
Input                    in21                     0 1 in21
Split                    splitncnn_19             1 4 in21 78 79 80 81
Input                    in22                     0 1 in22
Split                    splitncnn_20             1 2 in22 83 84
Input                    in23                     0 1 in23
Split                    splitncnn_21             1 4 in23 86 87 88 89
Input                    in24                     0 1 in24
Split                    splitncnn_22             1 3 in24 91 92 93
Input                    in25                     0 1 in25
Split                    splitncnn_23             1 2 in25 95 96
Input                    in26                     0 1 in26
Split                    splitncnn_24             1 4 in26 98 99 100 101
Input                    in27                     0 1 in27
Split                    splitncnn_25             1 2 in27 103 104
Input                    in28                     0 1 in28
Split                    splitncnn_26             1 4 in28 106 107 108 109
Input                    in29                     0 1 in29
Split                    splitncnn_27             1 3 in29 111 112 113
Input                    in30                     0 1 in30
Split                    splitncnn_28             1 2 in30 115 116
Input                    in31                     0 1 in31
Split                    splitncnn_29             1 4 in31 118 119 120 121
Input                    in32                     0 1 in32
Split                    splitncnn_30             1 2 in32 123 124
Input                    in33                     0 1 in33
Split                    splitncnn_31             1 4 in33 126 127 128 129
Input                    in34                     0 1 in34
Split                    splitncnn_32             1 3 in34 131 132 133
Input                    in35                     0 1 in35
Split                    splitncnn_33             1 2 in35 135 136
Input                    in36                     0 1 in36
Split                    splitncnn_34             1 4 in36 138 139 140 141
MemoryData               encoder.encoders.4.encoder.layers.3 0 1 142 0=1
MemoryData               encoder.encoders.4.encoder.layers.2 0 1 143 0=1
MemoryData               encoder.encoders.4.encoder.layers.1 0 1 144 0=1
MemoryData               encoder.encoders.4.encoder.layers.0 0 1 145 0=1
MemoryData               encoder.encoders.4.encoder.encoder_pos 0 1 146 0=384 1=47 2=1
MemoryData               encoder.encoders.3.encoder.layers.1 0 1 147 0=1
MemoryData               encoder.encoders.3.encoder.layers.0 0 1 148 0=1
MemoryData               encoder.encoders.3.encoder.encoder_pos 0 1 149 0=384 1=11 2=1
MemoryData               encoder.encoders.2.encoder.layers.2 0 1 150 0=1
MemoryData               encoder.encoders.2.encoder.layers.1 0 1 151 0=1
MemoryData               encoder.encoders.2.encoder.layers.0 0 1 152 0=1
MemoryData               encoder.encoders.2.encoder.encoder_pos 0 1 153 0=384 1=23 2=1
MemoryData               encoder.encoders.1.encoder.layers.3 0 1 154 0=1
MemoryData               encoder.encoders.1.encoder.layers.2 0 1 155 0=1
MemoryData               encoder.encoders.1.encoder.layers.1 0 1 156 0=1
MemoryData               encoder.encoders.1.encoder.layers.0 0 1 157 0=1
MemoryData               encoder.encoders.1.encoder.encoder_pos 0 1 158 0=384 1=47 2=1
MemoryData               encoder.encoders.0.layers.1 0 1 159 0=1
MemoryData               encoder.encoders.0.layers.0 0 1 160 0=1
MemoryData               encoder.encoders.0.encoder_pos 0 1 161 0=384 1=95 2=1
ExpandDims               unsqueeze_636            1 1 in0 162 -23303=1,0
Convolution              conv_187                 1 1 162 163 0=8 1=3 11=3 12=1 13=1 14=0 2=1 3=1 4=1 5=1 6=72
Split                    splitncnn_35             1 2 163 164 165
BinaryOp                 sub_0                    1 1 164 166 0=1 1=1 2=1.000000e+00
Sigmoid                  sigmoid_30               1 1 166 167
BinaryOp                 mul_1                    2 1 165 167 168 0=2
Convolution              conv_188                 1 1 168 169 0=32 1=3 11=3 12=1 13=2 14=0 2=1 3=2 4=0 5=1 6=2304
Split                    splitncnn_36             1 2 169 170 171
BinaryOp                 sub_2                    1 1 170 172 0=1 1=1 2=1.000000e+00
Sigmoid                  sigmoid_31               1 1 172 173
BinaryOp                 mul_3                    2 1 171 173 174 0=2
Convolution              conv_189                 1 1 174 175 0=128 1=3 11=3 12=1 13=1 14=0 2=1 3=2 4=0 5=1 6=36864
Split                    splitncnn_37             1 2 175 176 177
BinaryOp                 sub_4                    1 1 176 178 0=1 1=1 2=1.000000e+00
Sigmoid                  sigmoid_32               1 1 178 179
BinaryOp                 mul_5                    2 1 177 179 180 0=2
BinaryOp                 sub_6                    1 1 in1 181 0=1 1=1 2=7.000000e+00
BinaryOp                 div_7                    1 1 181 182 0=3 1=1 2=2.000000e+00
UnaryOp                  floor_8                  1 1 182 out1 0=2
Crop                     crop_762                 1 1 104 184 -23310=1,1 -23311=1,0 -23309=1,0
Reshape                  encoder.encoders.0.state_select_list.0_ncnnreshape0 1 1 184 185 0=0 1=0
Crop                     crop_763                 1 1 124 186 -23310=1,1 -23311=1,0 -23309=1,0
Reshape                  pnnx_unique_15_ncnnreshape0 1 1 186 187 0=0 1=0
Permute                  permute_566              1 1 180 188 0=2
Reshape                  reshape_361              1 1 188 189 0=2432 1=-1
InnerProduct             linear_190               1 1 189 190 0=384 1=1 2=933888
Split                    splitncnn_38             1 4 190 191 192 193 194
InnerProduct             linear_191               1 1 194 195 0=1024 1=1 2=393216
Split                    splitncnn_39             1 2 195 196 197
BinaryOp                 sub_9                    1 1 196 198 0=1 1=1 2=1.000000e+00
Sigmoid                  sigmoid_33               1 1 198 199
BinaryOp                 mul_10                   2 1 197 199 200 0=2
InnerProduct             linear_192               1 1 200 201 0=384 1=1 2=393216
BinaryOp                 add_11                   2 1 191 201 202 0=0
Split                    splitncnn_40             1 2 202 203 204
Crop                     select_0                 1 1 24 205 -23310=1,1 -23311=1,0 -23309=1,0
Crop                     select_1                 1 1 4 206 -23310=1,1 -23311=1,0 -23309=1,0
PoolingModuleNoProj      pooling_modul_no_proj_637 3 3 204 206 205 207 208 209
InnerProduct             linear_193               1 1 207 210 0=384 1=0 2=147456
BinaryOp                 add_12                   2 1 203 210 211 0=0
Split                    splitncnn_41             1 2 211 212 213
Crop                     select_2                 1 1 44 214 -23310=1,1 -23311=1,0 -23309=1,0
Crop                     select_3                 1 1 64 215 -23310=1,1 -23311=1,0 -23309=1,0
InnerProduct             linear_194               1 1 213 216 0=512 1=1 2=196608
Slice                    tensor_split_0           1 4 216 217 218 219 220 -23300=4,192,192,96,-233 1=1
Concat                   cat_0                    2 1 215 219 221 0=0
Reshape                  reshape_362              1 1 221 222 0=12 1=8 2=80
Reshape                  reshape_363              1 1 217 223 0=24 1=8 2=16
Reshape                  reshape_364              1 1 220 224 0=4 1=8 2=16
Concat                   cat_1                    2 1 214 218 225 0=0
Reshape                  reshape_365              1 1 225 226 0=24 1=8 2=80
InnerProduct             linear_195               1 1 161 227 0=32 1=0 2=12288
Reshape                  reshape_366              1 1 227 228 0=4 1=8 2=95
Permute                  permute_656              1 1 228 229 0=3
Split                    splitncnn_42             1 2 229 230 231
Permute                  permute_654              1 1 224 232 0=2
MatMul                   matmul_521               2 1 232 231 233
Permute                  permute_655              1 1 226 234 0=3
Permute                  permute_653              1 1 223 235 0=2
MatMul                   matmul_522               2 1 235 234 236
TensorAsStrided          tensor_as_strided_792    1 1 233 237 -23300=3,8,16,80 -23301=3,1520,94,1 2=15
BinaryOp                 add_13                   2 1 236 237 238 0=0
Reshape                  view_476                 1 1 238 239 0=80 1=16 2=8
Softmax                  softmax_108              1 1 239 240 0=-1 1=1
Split                    splitncnn_43             1 2 240 241 242
Permute                  permute_652              1 1 222 243 0=2
MatMul                   bmm_491                  2 1 242 243 244
Permute                  permute_657              1 1 244 245 0=2
Reshape                  reshape_367              1 1 245 246 0=96 1=16
InnerProduct             linear_196               1 1 246 247 0=384 1=1 2=36864
BinaryOp                 add_14                   2 1 212 247 248 0=0
Split                    splitncnn_44             1 2 248 249 250
Permute                  permute_568              1 1 250 251 0=1
Convolution1D            conv1d_127               1 1 251 252 0=768 1=1 2=1 3=1 4=0 5=1 6=294912
GLU                      glu_0                    1 1 252 253 0=0
Concat                   cat_2                    2 1 185 253 254 0=1
ConvolutionDepthWise1D   convdw1d_815             1 1 254 255 0=384 1=31 2=1 3=1 4=0 5=1 6=11904 7=384
Split                    splitncnn_45             1 2 255 256 257
BinaryOp                 sub_15                   1 1 256 258 0=1 1=1 2=1.000000e+00
Sigmoid                  sigmoid_34               1 1 258 259
BinaryOp                 mul_16                   2 1 257 259 260 0=2
Convolution1D            conv1d_128               1 1 260 261 0=384 1=1 2=1 3=1 4=0 5=1 6=147456
Permute                  permute_569              1 1 261 262 0=1
BinaryOp                 add_17                   2 1 249 262 263 0=0
Split                    splitncnn_46             1 2 263 264 265
InnerProduct             linear_197               1 1 265 266 0=1024 1=1 2=393216
Split                    splitncnn_47             1 2 266 267 268
BinaryOp                 sub_18                   1 1 267 269 0=1 1=1 2=1.000000e+00
Sigmoid                  sigmoid_35               1 1 269 270
BinaryOp                 mul_19                   2 1 268 270 271 0=2
InnerProduct             linear_198               1 1 271 272 0=384 1=1 2=393216
BinaryOp                 add_20                   2 1 264 272 273 0=0
Split                    splitncnn_48             1 2 273 274 275
Crop                     select_4                 1 1 84 276 -23310=1,1 -23311=1,0 -23309=1,0
InnerProduct             linear_199               1 1 275 277 0=96 1=0 2=36864
Concat                   cat_3                    2 1 276 277 278 0=0
Reshape                  reshape_368              1 1 278 279 0=12 1=8 2=80
Permute                  permute_658              1 1 279 280 0=2
MatMul                   bmm_492                  2 1 241 280 281
Permute                  permute_659              1 1 281 282 0=2
Reshape                  reshape_369              1 1 282 283 0=96 1=16
InnerProduct             linear_200               1 1 283 284 0=384 1=1 2=36864
BinaryOp                 add_21                   2 1 274 284 285 0=0
Split                    splitncnn_49             1 2 285 286 287
Permute                  permute_570              1 1 287 288 0=1
Convolution1D            conv1d_129               1 1 288 289 0=768 1=1 2=1 3=1 4=0 5=1 6=294912
GLU                      glu_1                    1 1 289 290 0=0
Concat                   cat_4                    2 1 187 290 291 0=1
ConvolutionDepthWise1D   convdw1d_816             1 1 291 292 0=384 1=31 2=1 3=1 4=0 5=1 6=11904 7=384
Split                    splitncnn_50             1 2 292 293 294
BinaryOp                 sub_22                   1 1 293 295 0=1 1=1 2=1.000000e+00
Sigmoid                  sigmoid_36               1 1 295 296
BinaryOp                 mul_23                   2 1 294 296 297 0=2
Convolution1D            conv1d_130               1 1 297 298 0=384 1=1 2=1 3=1 4=0 5=1 6=147456
Permute                  permute_571              1 1 298 299 0=1
BinaryOp                 add_24                   2 1 286 299 300 0=0
Split                    splitncnn_51             1 2 300 301 302
InnerProduct             linear_201               1 1 302 303 0=1024 1=1 2=393216
Split                    splitncnn_52             1 2 303 304 305
BinaryOp                 sub_25                   1 1 304 306 0=1 1=1 2=1.000000e+00
Sigmoid                  sigmoid_37               1 1 306 307
BinaryOp                 mul_26                   2 1 305 307 308 0=2
InnerProduct             linear_202               1 1 308 309 0=384 1=1 2=393216
BinaryOp                 add_27                   2 1 301 309 310 0=0
Split                    splitncnn_53             1 3 310 311 312 313
BinaryOp                 mul_28                   2 1 311 312 314 0=2
Reduction                mean_551                 1 1 314 315 0=3 1=0 -23303=1,-1 4=1 5=1
BinaryOp                 add_29                   1 1 315 316 0=0 1=1 2=2.500000e-01
BinaryOp                 pow_30                   1 1 316 317 0=6 1=1 2=-5.000000e-01
BinaryOp                 mul_31                   2 1 313 317 318 0=2
BinaryOp                 sub_32                   2 1 318 192 319 0=1
BinaryOp                 mul_33                   2 1 319 160 320 0=2
BinaryOp                 add_34                   2 1 193 320 321 0=0
Split                    splitncnn_54             1 4 321 322 323 324 325
Crop                     crop_764                 1 1 103 326 -23310=1,2 -23311=1,0 -23309=1,1
Reshape                  encoder.encoders.0.state_select_list.1_ncnnreshape0 1 1 326 327 0=0 1=0
Crop                     crop_765                 1 1 123 328 -23310=1,2 -23311=1,0 -23309=1,1
Reshape                  pnnx_unique_22_ncnnreshape0 1 1 328 329 0=0 1=0
InnerProduct             linear_203               1 1 325 330 0=1024 1=1 2=393216
Split                    splitncnn_55             1 2 330 331 332
BinaryOp                 sub_35                   1 1 331 333 0=1 1=1 2=1.000000e+00
Sigmoid                  sigmoid_38               1 1 333 334
BinaryOp                 mul_36                   2 1 332 334 335 0=2
InnerProduct             linear_204               1 1 335 336 0=384 1=1 2=393216
BinaryOp                 add_37                   2 1 322 336 337 0=0
Split                    splitncnn_56             1 2 337 338 339
Crop                     select_5                 1 1 23 340 -23310=1,2 -23311=1,0 -23309=1,1
Crop                     select_6                 1 1 3 341 -23310=1,2 -23311=1,0 -23309=1,1
PoolingModuleNoProj      pooling_modul_no_proj_638 3 3 339 341 340 342 343 344
InnerProduct             linear_205               1 1 342 345 0=384 1=0 2=147456
BinaryOp                 add_38                   2 1 338 345 346 0=0
Split                    splitncnn_57             1 2 346 347 348
Crop                     select_7                 1 1 43 349 -23310=1,2 -23311=1,0 -23309=1,1
Crop                     select_8                 1 1 63 350 -23310=1,2 -23311=1,0 -23309=1,1
InnerProduct             linear_206               1 1 348 351 0=512 1=1 2=196608
Slice                    tensor_split_1           1 4 351 352 353 354 355 -23300=4,192,192,96,-233 1=1
Concat                   cat_5                    2 1 350 354 356 0=0
Reshape                  reshape_370              1 1 356 357 0=12 1=8 2=80
Reshape                  reshape_371              1 1 352 358 0=24 1=8 2=16
Reshape                  reshape_372              1 1 355 359 0=4 1=8 2=16
Concat                   cat_6                    2 1 349 353 360 0=0
Reshape                  reshape_373              1 1 360 361 0=24 1=8 2=80
Permute                  permute_662              1 1 359 362 0=2
MatMul                   matmul_523               2 1 362 230 363
Permute                  permute_663              1 1 361 364 0=3
Permute                  permute_661              1 1 358 365 0=2
MatMul                   matmul_524               2 1 365 364 366
TensorAsStrided          tensor_as_strided_793    1 1 363 367 -23300=3,8,16,80 -23301=3,1520,94,1 2=15
BinaryOp                 add_39                   2 1 366 367 368 0=0
Reshape                  view_477                 1 1 368 369 0=80 1=16 2=8
Softmax                  softmax_109              1 1 369 370 0=-1 1=1
Split                    splitncnn_58             1 2 370 371 372
Permute                  permute_660              1 1 357 373 0=2
MatMul                   bmm_493                  2 1 372 373 374
Permute                  permute_664              1 1 374 375 0=2
Reshape                  reshape_374              1 1 375 376 0=96 1=16
InnerProduct             linear_207               1 1 376 377 0=384 1=1 2=36864
BinaryOp                 add_40                   2 1 347 377 378 0=0
Split                    splitncnn_59             1 2 378 379 380
Permute                  permute_572              1 1 380 381 0=1
Convolution1D            conv1d_131               1 1 381 382 0=768 1=1 2=1 3=1 4=0 5=1 6=294912
GLU                      glu_2                    1 1 382 383 0=0
Concat                   cat_7                    2 1 327 383 384 0=1
ConvolutionDepthWise1D   convdw1d_817             1 1 384 385 0=384 1=31 2=1 3=1 4=0 5=1 6=11904 7=384
Split                    splitncnn_60             1 2 385 386 387
BinaryOp                 sub_41                   1 1 386 388 0=1 1=1 2=1.000000e+00
Sigmoid                  sigmoid_39               1 1 388 389
BinaryOp                 mul_42                   2 1 387 389 390 0=2
Convolution1D            conv1d_132               1 1 390 391 0=384 1=1 2=1 3=1 4=0 5=1 6=147456
Permute                  permute_573              1 1 391 392 0=1
BinaryOp                 add_43                   2 1 379 392 393 0=0
Split                    splitncnn_61             1 2 393 394 395
InnerProduct             linear_208               1 1 395 396 0=1024 1=1 2=393216
Split                    splitncnn_62             1 2 396 397 398
BinaryOp                 sub_44                   1 1 397 399 0=1 1=1 2=1.000000e+00
Sigmoid                  sigmoid_40               1 1 399 400
BinaryOp                 mul_45                   2 1 398 400 401 0=2
InnerProduct             linear_209               1 1 401 402 0=384 1=1 2=393216
BinaryOp                 add_46                   2 1 394 402 403 0=0
Split                    splitncnn_63             1 2 403 404 405
Crop                     select_9                 1 1 83 406 -23310=1,2 -23311=1,0 -23309=1,1
InnerProduct             linear_210               1 1 405 407 0=96 1=0 2=36864
Concat                   cat_8                    2 1 406 407 408 0=0
Reshape                  reshape_375              1 1 408 409 0=12 1=8 2=80
Permute                  permute_665              1 1 409 410 0=2
MatMul                   bmm_494                  2 1 371 410 411
Permute                  permute_666              1 1 411 412 0=2
Reshape                  reshape_376              1 1 412 413 0=96 1=16
InnerProduct             linear_211               1 1 413 414 0=384 1=1 2=36864
BinaryOp                 add_47                   2 1 404 414 415 0=0
Split                    splitncnn_64             1 2 415 416 417
Permute                  permute_574              1 1 417 418 0=1
Convolution1D            conv1d_133               1 1 418 419 0=768 1=1 2=1 3=1 4=0 5=1 6=294912
GLU                      glu_3                    1 1 419 420 0=0
Concat                   cat_9                    2 1 329 420 421 0=1
ConvolutionDepthWise1D   convdw1d_818             1 1 421 422 0=384 1=31 2=1 3=1 4=0 5=1 6=11904 7=384
Split                    splitncnn_65             1 2 422 423 424
BinaryOp                 sub_48                   1 1 423 425 0=1 1=1 2=1.000000e+00
Sigmoid                  sigmoid_41               1 1 425 426
BinaryOp                 mul_49                   2 1 424 426 427 0=2
Convolution1D            conv1d_134               1 1 427 428 0=384 1=1 2=1 3=1 4=0 5=1 6=147456
Permute                  permute_575              1 1 428 429 0=1
BinaryOp                 add_50                   2 1 416 429 430 0=0
Split                    splitncnn_66             1 2 430 431 432
InnerProduct             linear_212               1 1 432 433 0=1024 1=1 2=393216
Split                    splitncnn_67             1 2 433 434 435
BinaryOp                 sub_51                   1 1 434 436 0=1 1=1 2=1.000000e+00
Sigmoid                  sigmoid_42               1 1 436 437
BinaryOp                 mul_52                   2 1 435 437 438 0=2
InnerProduct             linear_213               1 1 438 439 0=384 1=1 2=393216
BinaryOp                 add_53                   2 1 431 439 440 0=0
Split                    splitncnn_68             1 3 440 441 442 443
BinaryOp                 mul_54                   2 1 441 442 444 0=2
Reduction                mean_552                 1 1 444 445 0=3 1=0 -23303=1,-1 4=1 5=1
BinaryOp                 add_55                   1 1 445 446 0=0 1=1 2=2.500000e-01
BinaryOp                 pow_56                   1 1 446 447 0=6 1=1 2=-5.000000e-01
BinaryOp                 mul_57                   2 1 443 447 448 0=2
BinaryOp                 sub_58                   2 1 448 323 449 0=1
BinaryOp                 mul_59                   2 1 449 159 450 0=2
BinaryOp                 add_60                   2 1 324 450 451 0=0
Split                    splitncnn_69             1 2 451 452 453
MemoryData               encoder.encoders.1.downsample 0 1 454 0=384 1=1
Reshape                  reshape_377              1 1 453 455 0=384 1=2 2=8
Split                    splitncnn_70             1 2 455 456 457
BinaryOp                 mul_61                   2 1 456 454 458 0=2
Reduction                sum_628                  1 1 458 459 0=0 1=0 -23303=1,-1 4=1 5=1
Softmax                  softmax_110              1 1 459 460
BinaryOp                 mul_62                   2 1 457 460 461 0=2
Reduction                sum_629                  1 1 461 462 0=0 1=0 -23303=0 4=0 5=1
Crop                     crop_766                 1 1 109 463 -23310=1,1 -23311=1,0 -23309=1,0
Reshape                  encoder.encoders.1.encoder.state_select_list.0_ncnnreshape0 1 1 463 464 0=0 1=0
Crop                     crop_767                 1 1 129 465 -23310=1,1 -23311=1,0 -23309=1,0
Reshape                  pnnx_unique_30_ncnnreshape0 1 1 465 466 0=0 1=0
Split                    splitncnn_71             1 4 462 467 468 469 470
InnerProduct             linear_214               1 1 470 471 0=1024 1=1 2=393216
Split                    splitncnn_72             1 2 471 472 473
BinaryOp                 sub_63                   1 1 472 474 0=1 1=1 2=1.000000e+00
Sigmoid                  sigmoid_43               1 1 474 475
BinaryOp                 mul_64                   2 1 473 475 476 0=2
InnerProduct             linear_215               1 1 476 477 0=384 1=1 2=393216
BinaryOp                 add_65                   2 1 467 477 478 0=0
Split                    splitncnn_73             1 2 478 479 480
Crop                     select_10                1 1 29 481 -23310=1,1 -23311=1,0 -23309=1,0
Crop                     select_11                1 1 9 482 -23310=1,1 -23311=1,0 -23309=1,0
PoolingModuleNoProj      pooling_modul_no_proj_639 3 3 480 482 481 483 484 485
InnerProduct             linear_216               1 1 483 486 0=384 1=0 2=147456
BinaryOp                 add_66                   2 1 479 486 487 0=0
Split                    splitncnn_74             1 2 487 488 489
Crop                     select_12                1 1 49 490 -23310=1,1 -23311=1,0 -23309=1,0
Crop                     select_13                1 1 69 491 -23310=1,1 -23311=1,0 -23309=1,0
InnerProduct             linear_217               1 1 489 492 0=512 1=1 2=196608
Slice                    tensor_split_2           1 4 492 493 494 495 496 -23300=4,192,192,96,-233 1=1
Concat                   cat_10                   2 1 491 495 497 0=0
Reshape                  reshape_378              1 1 497 498 0=12 1=8 2=40
Reshape                  reshape_379              1 1 493 499 0=24 1=8 2=8
Reshape                  reshape_380              1 1 496 500 0=4 1=8 2=8
Concat                   cat_11                   2 1 490 494 501 0=0
Reshape                  reshape_381              1 1 501 502 0=24 1=8 2=40
InnerProduct             linear_218               1 1 158 503 0=32 1=0 2=12288
Reshape                  reshape_382              1 1 503 504 0=4 1=8 2=47
Permute                  permute_671              1 1 504 505 0=3
Split                    splitncnn_75             1 4 505 506 507 508 509
Permute                  permute_669              1 1 500 510 0=2
MatMul                   matmul_525               2 1 510 509 511
Permute                  permute_670              1 1 502 512 0=3
Permute                  permute_668              1 1 499 513 0=2
MatMul                   matmul_526               2 1 513 512 514
TensorAsStrided          tensor_as_strided_794    1 1 511 515 -23300=3,8,8,40 -23301=3,376,46,1 2=7
BinaryOp                 add_67                   2 1 514 515 516 0=0
Reshape                  view_478                 1 1 516 517 0=40 1=8 2=8
Softmax                  softmax_111              1 1 517 518 0=-1 1=1
Split                    splitncnn_76             1 2 518 519 520
Permute                  permute_667              1 1 498 521 0=2
MatMul                   bmm_495                  2 1 520 521 522
Permute                  permute_672              1 1 522 523 0=2
Reshape                  reshape_383              1 1 523 524 0=96 1=8
InnerProduct             linear_219               1 1 524 525 0=384 1=1 2=36864
BinaryOp                 add_68                   2 1 488 525 526 0=0
Split                    splitncnn_77             1 2 526 527 528
Permute                  permute_576              1 1 528 529 0=1
Convolution1D            conv1d_135               1 1 529 530 0=768 1=1 2=1 3=1 4=0 5=1 6=294912
GLU                      glu_4                    1 1 530 531 0=0
Concat                   cat_12                   2 1 464 531 532 0=1
ConvolutionDepthWise1D   convdw1d_819             1 1 532 533 0=384 1=31 2=1 3=1 4=0 5=1 6=11904 7=384
Split                    splitncnn_78             1 2 533 534 535
BinaryOp                 sub_69                   1 1 534 536 0=1 1=1 2=1.000000e+00
Sigmoid                  sigmoid_44               1 1 536 537
BinaryOp                 mul_70                   2 1 535 537 538 0=2
Convolution1D            conv1d_136               1 1 538 539 0=384 1=1 2=1 3=1 4=0 5=1 6=147456
Permute                  permute_577              1 1 539 540 0=1
BinaryOp                 add_71                   2 1 527 540 541 0=0
Split                    splitncnn_79             1 2 541 542 543
InnerProduct             linear_220               1 1 543 544 0=1024 1=1 2=393216
Split                    splitncnn_80             1 2 544 545 546
BinaryOp                 sub_72                   1 1 545 547 0=1 1=1 2=1.000000e+00
Sigmoid                  sigmoid_45               1 1 547 548
BinaryOp                 mul_73                   2 1 546 548 549 0=2
InnerProduct             linear_221               1 1 549 550 0=384 1=1 2=393216
BinaryOp                 add_74                   2 1 542 550 551 0=0
Split                    splitncnn_81             1 2 551 552 553
Crop                     select_14                1 1 89 554 -23310=1,1 -23311=1,0 -23309=1,0
InnerProduct             linear_222               1 1 553 555 0=96 1=0 2=36864
Concat                   cat_13                   2 1 554 555 556 0=0
Reshape                  reshape_384              1 1 556 557 0=12 1=8 2=40
Permute                  permute_673              1 1 557 558 0=2
MatMul                   bmm_496                  2 1 519 558 559
Permute                  permute_674              1 1 559 560 0=2
Reshape                  reshape_385              1 1 560 561 0=96 1=8
InnerProduct             linear_223               1 1 561 562 0=384 1=1 2=36864
BinaryOp                 add_75                   2 1 552 562 563 0=0
Split                    splitncnn_82             1 2 563 564 565
Permute                  permute_578              1 1 565 566 0=1
Convolution1D            conv1d_137               1 1 566 567 0=768 1=1 2=1 3=1 4=0 5=1 6=294912
GLU                      glu_5                    1 1 567 568 0=0
Concat                   cat_14                   2 1 466 568 569 0=1
ConvolutionDepthWise1D   convdw1d_820             1 1 569 570 0=384 1=31 2=1 3=1 4=0 5=1 6=11904 7=384
Split                    splitncnn_83             1 2 570 571 572
BinaryOp                 sub_76                   1 1 571 573 0=1 1=1 2=1.000000e+00
Sigmoid                  sigmoid_46               1 1 573 574
BinaryOp                 mul_77                   2 1 572 574 575 0=2
Convolution1D            conv1d_138               1 1 575 576 0=384 1=1 2=1 3=1 4=0 5=1 6=147456
Permute                  permute_579              1 1 576 577 0=1
BinaryOp                 add_78                   2 1 564 577 578 0=0
Split                    splitncnn_84             1 2 578 579 580
InnerProduct             linear_224               1 1 580 581 0=1024 1=1 2=393216
Split                    splitncnn_85             1 2 581 582 583
BinaryOp                 sub_79                   1 1 582 584 0=1 1=1 2=1.000000e+00
Sigmoid                  sigmoid_47               1 1 584 585
BinaryOp                 mul_80                   2 1 583 585 586 0=2
InnerProduct             linear_225               1 1 586 587 0=384 1=1 2=393216
BinaryOp                 add_81                   2 1 579 587 588 0=0
Split                    splitncnn_86             1 3 588 589 590 591
BinaryOp                 mul_82                   2 1 589 590 592 0=2
Reduction                mean_553                 1 1 592 593 0=3 1=0 -23303=1,-1 4=1 5=1
BinaryOp                 add_83                   1 1 593 594 0=0 1=1 2=2.500000e-01
BinaryOp                 pow_84                   1 1 594 595 0=6 1=1 2=-5.000000e-01
BinaryOp                 mul_85                   2 1 591 595 596 0=2
BinaryOp                 sub_86                   2 1 596 468 597 0=1
BinaryOp                 mul_87                   2 1 597 157 598 0=2
BinaryOp                 add_88                   2 1 469 598 599 0=0
Split                    splitncnn_87             1 4 599 600 601 602 603
Crop                     crop_768                 1 1 108 604 -23310=1,2 -23311=1,0 -23309=1,1
Reshape                  encoder.encoders.1.encoder.state_select_list.1_ncnnreshape0 1 1 604 605 0=0 1=0
Crop                     crop_769                 1 1 128 606 -23310=1,2 -23311=1,0 -23309=1,1
Reshape                  pnnx_unique_38_ncnnreshape0 1 1 606 607 0=0 1=0
InnerProduct             linear_226               1 1 603 608 0=1024 1=1 2=393216
Split                    splitncnn_88             1 2 608 609 610
BinaryOp                 sub_89                   1 1 609 611 0=1 1=1 2=1.000000e+00
Sigmoid                  sigmoid_48               1 1 611 612
BinaryOp                 mul_90                   2 1 610 612 613 0=2
InnerProduct             linear_227               1 1 613 614 0=384 1=1 2=393216
BinaryOp                 add_91                   2 1 600 614 615 0=0
Split                    splitncnn_89             1 2 615 616 617
Crop                     select_15                1 1 28 618 -23310=1,2 -23311=1,0 -23309=1,1
Crop                     select_16                1 1 8 619 -23310=1,2 -23311=1,0 -23309=1,1
PoolingModuleNoProj      pooling_modul_no_proj_640 3 3 617 619 618 620 621 622
InnerProduct             linear_228               1 1 620 623 0=384 1=0 2=147456
BinaryOp                 add_92                   2 1 616 623 624 0=0
Split                    splitncnn_90             1 2 624 625 626
Crop                     select_17                1 1 48 627 -23310=1,2 -23311=1,0 -23309=1,1
Crop                     select_18                1 1 68 628 -23310=1,2 -23311=1,0 -23309=1,1
InnerProduct             linear_229               1 1 626 629 0=512 1=1 2=196608
Slice                    tensor_split_3           1 4 629 630 631 632 633 -23300=4,192,192,96,-233 1=1
Concat                   cat_15                   2 1 628 632 634 0=0
Reshape                  reshape_386              1 1 634 635 0=12 1=8 2=40
Reshape                  reshape_387              1 1 630 636 0=24 1=8 2=8
Reshape                  reshape_388              1 1 633 637 0=4 1=8 2=8
Concat                   cat_16                   2 1 627 631 638 0=0
Reshape                  reshape_389              1 1 638 639 0=24 1=8 2=40
Permute                  permute_677              1 1 637 640 0=2
MatMul                   matmul_527               2 1 640 508 641
Permute                  permute_678              1 1 639 642 0=3
Permute                  permute_676              1 1 636 643 0=2
MatMul                   matmul_528               2 1 643 642 644
TensorAsStrided          tensor_as_strided_795    1 1 641 645 -23300=3,8,8,40 -23301=3,376,46,1 2=7
BinaryOp                 add_93                   2 1 644 645 646 0=0
Reshape                  view_479                 1 1 646 647 0=40 1=8 2=8
Softmax                  softmax_112              1 1 647 648 0=-1 1=1
Split                    splitncnn_91             1 2 648 649 650
Permute                  permute_675              1 1 635 651 0=2
MatMul                   bmm_497                  2 1 650 651 652
Permute                  permute_679              1 1 652 653 0=2
Reshape                  reshape_390              1 1 653 654 0=96 1=8
InnerProduct             linear_230               1 1 654 655 0=384 1=1 2=36864
BinaryOp                 add_94                   2 1 625 655 656 0=0
Split                    splitncnn_92             1 2 656 657 658
Permute                  permute_580              1 1 658 659 0=1
Convolution1D            conv1d_139               1 1 659 660 0=768 1=1 2=1 3=1 4=0 5=1 6=294912
GLU                      glu_6                    1 1 660 661 0=0
Concat                   cat_17                   2 1 605 661 662 0=1
ConvolutionDepthWise1D   convdw1d_821             1 1 662 663 0=384 1=31 2=1 3=1 4=0 5=1 6=11904 7=384
Split                    splitncnn_93             1 2 663 664 665
BinaryOp                 sub_95                   1 1 664 666 0=1 1=1 2=1.000000e+00
Sigmoid                  sigmoid_49               1 1 666 667
BinaryOp                 mul_96                   2 1 665 667 668 0=2
Convolution1D            conv1d_140               1 1 668 669 0=384 1=1 2=1 3=1 4=0 5=1 6=147456
Permute                  permute_581              1 1 669 670 0=1
BinaryOp                 add_97                   2 1 657 670 671 0=0
Split                    splitncnn_94             1 2 671 672 673
InnerProduct             linear_231               1 1 673 674 0=1024 1=1 2=393216
Split                    splitncnn_95             1 2 674 675 676
BinaryOp                 sub_98                   1 1 675 677 0=1 1=1 2=1.000000e+00
Sigmoid                  sigmoid_50               1 1 677 678
BinaryOp                 mul_99                   2 1 676 678 679 0=2
InnerProduct             linear_232               1 1 679 680 0=384 1=1 2=393216
BinaryOp                 add_100                  2 1 672 680 681 0=0
Split                    splitncnn_96             1 2 681 682 683
Crop                     select_19                1 1 88 684 -23310=1,2 -23311=1,0 -23309=1,1
InnerProduct             linear_233               1 1 683 685 0=96 1=0 2=36864
Concat                   cat_18                   2 1 684 685 686 0=0
Reshape                  reshape_391              1 1 686 687 0=12 1=8 2=40
Permute                  permute_680              1 1 687 688 0=2
MatMul                   bmm_498                  2 1 649 688 689
Permute                  permute_681              1 1 689 690 0=2
Reshape                  reshape_392              1 1 690 691 0=96 1=8
InnerProduct             linear_234               1 1 691 692 0=384 1=1 2=36864
BinaryOp                 add_101                  2 1 682 692 693 0=0
Split                    splitncnn_97             1 2 693 694 695
Permute                  permute_582              1 1 695 696 0=1
Convolution1D            conv1d_141               1 1 696 697 0=768 1=1 2=1 3=1 4=0 5=1 6=294912
GLU                      glu_7                    1 1 697 698 0=0
Concat                   cat_19                   2 1 607 698 699 0=1
ConvolutionDepthWise1D   convdw1d_822             1 1 699 700 0=384 1=31 2=1 3=1 4=0 5=1 6=11904 7=384
Split                    splitncnn_98             1 2 700 701 702
BinaryOp                 sub_102                  1 1 701 703 0=1 1=1 2=1.000000e+00
Sigmoid                  sigmoid_51               1 1 703 704
BinaryOp                 mul_103                  2 1 702 704 705 0=2
Convolution1D            conv1d_142               1 1 705 706 0=384 1=1 2=1 3=1 4=0 5=1 6=147456
Permute                  permute_583              1 1 706 707 0=1
BinaryOp                 add_104                  2 1 694 707 708 0=0
Split                    splitncnn_99             1 2 708 709 710
InnerProduct             linear_235               1 1 710 711 0=1024 1=1 2=393216
Split                    splitncnn_100            1 2 711 712 713
BinaryOp                 sub_105                  1 1 712 714 0=1 1=1 2=1.000000e+00
Sigmoid                  sigmoid_52               1 1 714 715
BinaryOp                 mul_106                  2 1 713 715 716 0=2
InnerProduct             linear_236               1 1 716 717 0=384 1=1 2=393216
BinaryOp                 add_107                  2 1 709 717 718 0=0
Split                    splitncnn_101            1 3 718 719 720 721
BinaryOp                 mul_108                  2 1 719 720 722 0=2
Reduction                mean_554                 1 1 722 723 0=3 1=0 -23303=1,-1 4=1 5=1
BinaryOp                 add_109                  1 1 723 724 0=0 1=1 2=2.500000e-01
BinaryOp                 pow_110                  1 1 724 725 0=6 1=1 2=-5.000000e-01
BinaryOp                 mul_111                  2 1 721 725 726 0=2
BinaryOp                 sub_112                  2 1 726 601 727 0=1
BinaryOp                 mul_113                  2 1 727 156 728 0=2
BinaryOp                 add_114                  2 1 602 728 729 0=0
Split                    splitncnn_102            1 4 729 730 731 732 733
Crop                     crop_770                 1 1 107 734 -23310=1,3 -23311=1,0 -23309=1,2
Reshape                  encoder.encoders.1.encoder.state_select_list.2_ncnnreshape0 1 1 734 735 0=0 1=0
Crop                     crop_771                 1 1 127 736 -23310=1,3 -23311=1,0 -23309=1,2
Reshape                  pnnx_unique_46_ncnnreshape0 1 1 736 737 0=0 1=0
InnerProduct             linear_237               1 1 733 738 0=1024 1=1 2=393216
Split                    splitncnn_103            1 2 738 739 740
BinaryOp                 sub_115                  1 1 739 741 0=1 1=1 2=1.000000e+00
Sigmoid                  sigmoid_53               1 1 741 742
BinaryOp                 mul_116                  2 1 740 742 743 0=2
InnerProduct             linear_238               1 1 743 744 0=384 1=1 2=393216
BinaryOp                 add_117                  2 1 730 744 745 0=0
Split                    splitncnn_104            1 2 745 746 747
Crop                     select_20                1 1 27 748 -23310=1,3 -23311=1,0 -23309=1,2
Crop                     select_21                1 1 7 749 -23310=1,3 -23311=1,0 -23309=1,2
PoolingModuleNoProj      pooling_modul_no_proj_641 3 3 747 749 748 750 751 752
InnerProduct             linear_239               1 1 750 753 0=384 1=0 2=147456
BinaryOp                 add_118                  2 1 746 753 754 0=0
Split                    splitncnn_105            1 2 754 755 756
Crop                     select_22                1 1 47 757 -23310=1,3 -23311=1,0 -23309=1,2
Crop                     select_23                1 1 67 758 -23310=1,3 -23311=1,0 -23309=1,2
InnerProduct             linear_240               1 1 756 759 0=512 1=1 2=196608
Slice                    tensor_split_4           1 4 759 760 761 762 763 -23300=4,192,192,96,-233 1=1
Concat                   cat_20                   2 1 758 762 764 0=0
Reshape                  reshape_393              1 1 764 765 0=12 1=8 2=40
Reshape                  reshape_394              1 1 760 766 0=24 1=8 2=8
Reshape                  reshape_395              1 1 763 767 0=4 1=8 2=8
Concat                   cat_21                   2 1 757 761 768 0=0
Reshape                  reshape_396              1 1 768 769 0=24 1=8 2=40
Permute                  permute_684              1 1 767 770 0=2
MatMul                   matmul_529               2 1 770 507 771
Permute                  permute_685              1 1 769 772 0=3
Permute                  permute_683              1 1 766 773 0=2
MatMul                   matmul_530               2 1 773 772 774
TensorAsStrided          tensor_as_strided_796    1 1 771 775 -23300=3,8,8,40 -23301=3,376,46,1 2=7
BinaryOp                 add_119                  2 1 774 775 776 0=0
Reshape                  view_480                 1 1 776 777 0=40 1=8 2=8
Softmax                  softmax_113              1 1 777 778 0=-1 1=1
Split                    splitncnn_106            1 2 778 779 780
Permute                  permute_682              1 1 765 781 0=2
MatMul                   bmm_499                  2 1 780 781 782
Permute                  permute_686              1 1 782 783 0=2
Reshape                  reshape_397              1 1 783 784 0=96 1=8
InnerProduct             linear_241               1 1 784 785 0=384 1=1 2=36864
BinaryOp                 add_120                  2 1 755 785 786 0=0
Split                    splitncnn_107            1 2 786 787 788
Permute                  permute_584              1 1 788 789 0=1
Convolution1D            conv1d_143               1 1 789 790 0=768 1=1 2=1 3=1 4=0 5=1 6=294912
GLU                      glu_8                    1 1 790 791 0=0
Concat                   cat_22                   2 1 735 791 792 0=1
ConvolutionDepthWise1D   convdw1d_823             1 1 792 793 0=384 1=31 2=1 3=1 4=0 5=1 6=11904 7=384
Split                    splitncnn_108            1 2 793 794 795
BinaryOp                 sub_121                  1 1 794 796 0=1 1=1 2=1.000000e+00
Sigmoid                  sigmoid_54               1 1 796 797
BinaryOp                 mul_122                  2 1 795 797 798 0=2
Convolution1D            conv1d_144               1 1 798 799 0=384 1=1 2=1 3=1 4=0 5=1 6=147456
Permute                  permute_585              1 1 799 800 0=1
BinaryOp                 add_123                  2 1 787 800 801 0=0
Split                    splitncnn_109            1 2 801 802 803
InnerProduct             linear_242               1 1 803 804 0=1024 1=1 2=393216
Split                    splitncnn_110            1 2 804 805 806
BinaryOp                 sub_124                  1 1 805 807 0=1 1=1 2=1.000000e+00
Sigmoid                  sigmoid_55               1 1 807 808
BinaryOp                 mul_125                  2 1 806 808 809 0=2
InnerProduct             linear_243               1 1 809 810 0=384 1=1 2=393216
BinaryOp                 add_126                  2 1 802 810 811 0=0
Split                    splitncnn_111            1 2 811 812 813
Crop                     select_24                1 1 87 814 -23310=1,3 -23311=1,0 -23309=1,2
InnerProduct             linear_244               1 1 813 815 0=96 1=0 2=36864
Concat                   cat_23                   2 1 814 815 816 0=0
Reshape                  reshape_398              1 1 816 817 0=12 1=8 2=40
Permute                  permute_687              1 1 817 818 0=2
MatMul                   bmm_500                  2 1 779 818 819
Permute                  permute_688              1 1 819 820 0=2
Reshape                  reshape_399              1 1 820 821 0=96 1=8
InnerProduct             linear_245               1 1 821 822 0=384 1=1 2=36864
BinaryOp                 add_127                  2 1 812 822 823 0=0
Split                    splitncnn_112            1 2 823 824 825
Permute                  permute_586              1 1 825 826 0=1
Convolution1D            conv1d_145               1 1 826 827 0=768 1=1 2=1 3=1 4=0 5=1 6=294912
GLU                      glu_9                    1 1 827 828 0=0
Concat                   cat_24                   2 1 737 828 829 0=1
ConvolutionDepthWise1D   convdw1d_824             1 1 829 830 0=384 1=31 2=1 3=1 4=0 5=1 6=11904 7=384
Split                    splitncnn_113            1 2 830 831 832
BinaryOp                 sub_128                  1 1 831 833 0=1 1=1 2=1.000000e+00
Sigmoid                  sigmoid_56               1 1 833 834
BinaryOp                 mul_129                  2 1 832 834 835 0=2
Convolution1D            conv1d_146               1 1 835 836 0=384 1=1 2=1 3=1 4=0 5=1 6=147456
Permute                  permute_587              1 1 836 837 0=1
BinaryOp                 add_130                  2 1 824 837 838 0=0
Split                    splitncnn_114            1 2 838 839 840
InnerProduct             linear_246               1 1 840 841 0=1024 1=1 2=393216
Split                    splitncnn_115            1 2 841 842 843
BinaryOp                 sub_131                  1 1 842 844 0=1 1=1 2=1.000000e+00
Sigmoid                  sigmoid_57               1 1 844 845
BinaryOp                 mul_132                  2 1 843 845 846 0=2
InnerProduct             linear_247               1 1 846 847 0=384 1=1 2=393216
BinaryOp                 add_133                  2 1 839 847 848 0=0
Split                    splitncnn_116            1 3 848 849 850 851
BinaryOp                 mul_134                  2 1 849 850 852 0=2
Reduction                mean_555                 1 1 852 853 0=3 1=0 -23303=1,-1 4=1 5=1
BinaryOp                 add_135                  1 1 853 854 0=0 1=1 2=2.500000e-01
BinaryOp                 pow_136                  1 1 854 855 0=6 1=1 2=-5.000000e-01
BinaryOp                 mul_137                  2 1 851 855 856 0=2
BinaryOp                 sub_138                  2 1 856 731 857 0=1
BinaryOp                 mul_139                  2 1 857 155 858 0=2
BinaryOp                 add_140                  2 1 732 858 859 0=0
Split                    splitncnn_117            1 4 859 860 861 862 863
Crop                     crop_772                 1 1 106 864 -23310=1,4 -23311=1,0 -23309=1,3
Reshape                  encoder.encoders.1.encoder.state_select_list.3_ncnnreshape0 1 1 864 865 0=0 1=0
Crop                     crop_773                 1 1 126 866 -23310=1,4 -23311=1,0 -23309=1,3
Reshape                  pnnx_unique_54_ncnnreshape0 1 1 866 867 0=0 1=0
InnerProduct             linear_248               1 1 863 868 0=1024 1=1 2=393216
Split                    splitncnn_118            1 2 868 869 870
BinaryOp                 sub_141                  1 1 869 871 0=1 1=1 2=1.000000e+00
Sigmoid                  sigmoid_58               1 1 871 872
BinaryOp                 mul_142                  2 1 870 872 873 0=2
InnerProduct             linear_249               1 1 873 874 0=384 1=1 2=393216
BinaryOp                 add_143                  2 1 860 874 875 0=0
Split                    splitncnn_119            1 2 875 876 877
Crop                     select_25                1 1 26 878 -23310=1,4 -23311=1,0 -23309=1,3
Crop                     select_26                1 1 6 879 -23310=1,4 -23311=1,0 -23309=1,3
PoolingModuleNoProj      pooling_modul_no_proj_642 3 3 877 879 878 880 881 882
InnerProduct             linear_250               1 1 880 883 0=384 1=0 2=147456
BinaryOp                 add_144                  2 1 876 883 884 0=0
Split                    splitncnn_120            1 2 884 885 886
Crop                     select_27                1 1 46 887 -23310=1,4 -23311=1,0 -23309=1,3
Crop                     select_28                1 1 66 888 -23310=1,4 -23311=1,0 -23309=1,3
InnerProduct             linear_251               1 1 886 889 0=512 1=1 2=196608
Slice                    tensor_split_5           1 4 889 890 891 892 893 -23300=4,192,192,96,-233 1=1
Concat                   cat_25                   2 1 888 892 894 0=0
Reshape                  reshape_400              1 1 894 895 0=12 1=8 2=40
Reshape                  reshape_401              1 1 890 896 0=24 1=8 2=8
Reshape                  reshape_402              1 1 893 897 0=4 1=8 2=8
Concat                   cat_26                   2 1 887 891 898 0=0
Reshape                  reshape_403              1 1 898 899 0=24 1=8 2=40
Permute                  permute_691              1 1 897 900 0=2
MatMul                   matmul_531               2 1 900 506 901
Permute                  permute_692              1 1 899 902 0=3
Permute                  permute_690              1 1 896 903 0=2
MatMul                   matmul_532               2 1 903 902 904
TensorAsStrided          tensor_as_strided_797    1 1 901 905 -23300=3,8,8,40 -23301=3,376,46,1 2=7
BinaryOp                 add_145                  2 1 904 905 906 0=0
Reshape                  view_481                 1 1 906 907 0=40 1=8 2=8
Softmax                  softmax_114              1 1 907 908 0=-1 1=1
Split                    splitncnn_121            1 2 908 909 910
Permute                  permute_689              1 1 895 911 0=2
MatMul                   bmm_501                  2 1 910 911 912
Permute                  permute_693              1 1 912 913 0=2
Reshape                  reshape_404              1 1 913 914 0=96 1=8
InnerProduct             linear_252               1 1 914 915 0=384 1=1 2=36864
BinaryOp                 add_146                  2 1 885 915 916 0=0
Split                    splitncnn_122            1 2 916 917 918
Permute                  permute_588              1 1 918 919 0=1
Convolution1D            conv1d_147               1 1 919 920 0=768 1=1 2=1 3=1 4=0 5=1 6=294912
GLU                      glu_10                   1 1 920 921 0=0
Concat                   cat_27                   2 1 865 921 922 0=1
ConvolutionDepthWise1D   convdw1d_825             1 1 922 923 0=384 1=31 2=1 3=1 4=0 5=1 6=11904 7=384
Split                    splitncnn_123            1 2 923 924 925
BinaryOp                 sub_147                  1 1 924 926 0=1 1=1 2=1.000000e+00
Sigmoid                  sigmoid_59               1 1 926 927
BinaryOp                 mul_148                  2 1 925 927 928 0=2
Convolution1D            conv1d_148               1 1 928 929 0=384 1=1 2=1 3=1 4=0 5=1 6=147456
Permute                  permute_589              1 1 929 930 0=1
BinaryOp                 add_149                  2 1 917 930 931 0=0
Split                    splitncnn_124            1 2 931 932 933
InnerProduct             linear_253               1 1 933 934 0=1024 1=1 2=393216
Split                    splitncnn_125            1 2 934 935 936
BinaryOp                 sub_150                  1 1 935 937 0=1 1=1 2=1.000000e+00
Sigmoid                  sigmoid_60               1 1 937 938
BinaryOp                 mul_151                  2 1 936 938 939 0=2
InnerProduct             linear_254               1 1 939 940 0=384 1=1 2=393216
BinaryOp                 add_152                  2 1 932 940 941 0=0
Split                    splitncnn_126            1 2 941 942 943
Crop                     select_29                1 1 86 944 -23310=1,4 -23311=1,0 -23309=1,3
InnerProduct             linear_255               1 1 943 945 0=96 1=0 2=36864
Concat                   cat_28                   2 1 944 945 946 0=0
Reshape                  reshape_405              1 1 946 947 0=12 1=8 2=40
Permute                  permute_694              1 1 947 948 0=2
MatMul                   bmm_502                  2 1 909 948 949
Permute                  permute_695              1 1 949 950 0=2
Reshape                  reshape_406              1 1 950 951 0=96 1=8
InnerProduct             linear_256               1 1 951 952 0=384 1=1 2=36864
BinaryOp                 add_153                  2 1 942 952 953 0=0
Split                    splitncnn_127            1 2 953 954 955
Permute                  permute_590              1 1 955 956 0=1
Convolution1D            conv1d_149               1 1 956 957 0=768 1=1 2=1 3=1 4=0 5=1 6=294912
GLU                      glu_11                   1 1 957 958 0=0
Concat                   cat_29                   2 1 867 958 959 0=1
ConvolutionDepthWise1D   convdw1d_826             1 1 959 960 0=384 1=31 2=1 3=1 4=0 5=1 6=11904 7=384
Split                    splitncnn_128            1 2 960 961 962
BinaryOp                 sub_154                  1 1 961 963 0=1 1=1 2=1.000000e+00
Sigmoid                  sigmoid_61               1 1 963 964
BinaryOp                 mul_155                  2 1 962 964 965 0=2
Convolution1D            conv1d_150               1 1 965 966 0=384 1=1 2=1 3=1 4=0 5=1 6=147456
Permute                  permute_591              1 1 966 967 0=1
BinaryOp                 add_156                  2 1 954 967 968 0=0
Split                    splitncnn_129            1 2 968 969 970
InnerProduct             linear_257               1 1 970 971 0=1024 1=1 2=393216
Split                    splitncnn_130            1 2 971 972 973
BinaryOp                 sub_157                  1 1 972 974 0=1 1=1 2=1.000000e+00
Sigmoid                  sigmoid_62               1 1 974 975
BinaryOp                 mul_158                  2 1 973 975 976 0=2
InnerProduct             linear_258               1 1 976 977 0=384 1=1 2=393216
BinaryOp                 add_159                  2 1 969 977 978 0=0
Split                    splitncnn_131            1 3 978 979 980 981
BinaryOp                 mul_160                  2 1 979 980 982 0=2
Reduction                mean_556                 1 1 982 983 0=3 1=0 -23303=1,-1 4=1 5=1
BinaryOp                 add_161                  1 1 983 984 0=0 1=1 2=2.500000e-01
BinaryOp                 pow_162                  1 1 984 985 0=6 1=1 2=-5.000000e-01
BinaryOp                 mul_163                  2 1 981 985 986 0=2
BinaryOp                 sub_164                  2 1 986 861 987 0=1
BinaryOp                 mul_165                  2 1 987 154 988 0=2
BinaryOp                 add_166                  2 1 862 988 989 0=0
MemoryData               encoder.encoders.1.out_combiner 0 1 990 0=1
BinaryOp                 mul_167                  2 1 452 990 991 0=2
SimpleUpsample           simple_upsample_811      1 1 989 992 0=2 1=384 2=768
BinaryOp                 add_168                  2 1 991 992 993 0=0
Split                    splitncnn_132            1 3 993 994 995 996
MemoryData               encoder.encoders.2.downsample 0 1 997 0=384 1=1
Reshape                  reshape_407              1 1 996 998 0=384 1=4 2=4
Split                    splitncnn_133            1 2 998 999 1000
BinaryOp                 mul_169                  2 1 999 997 1001 0=2
Reduction                sum_630                  1 1 1001 1002 0=0 1=0 -23303=1,-1 4=1 5=1
Softmax                  softmax_115              1 1 1002 1003
BinaryOp                 mul_170                  2 1 1000 1003 1004 0=2
Reduction                sum_631                  1 1 1004 1005 0=0 1=0 -23303=0 4=0 5=1
Crop                     crop_774                 1 1 113 1006 -23310=1,1 -23311=1,0 -23309=1,0
Reshape                  encoder.encoders.2.encoder.state_select_list.0_ncnnreshape0 1 1 1006 1007 0=0 1=0
Crop                     crop_775                 1 1 133 1008 -23310=1,1 -23311=1,0 -23309=1,0
Reshape                  pnnx_unique_63_ncnnreshape0 1 1 1008 1009 0=0 1=0
Split                    splitncnn_134            1 4 1005 1010 1011 1012 1013
InnerProduct             linear_259               1 1 1013 1014 0=2048 1=1 2=786432
Split                    splitncnn_135            1 2 1014 1015 1016
BinaryOp                 sub_171                  1 1 1015 1017 0=1 1=1 2=1.000000e+00
Sigmoid                  sigmoid_63               1 1 1017 1018
BinaryOp                 mul_172                  2 1 1016 1018 1019 0=2
InnerProduct             linear_260               1 1 1019 1020 0=384 1=1 2=786432
BinaryOp                 add_173                  2 1 1010 1020 1021 0=0
Split                    splitncnn_136            1 2 1021 1022 1023
Crop                     select_30                1 1 33 1024 -23310=1,1 -23311=1,0 -23309=1,0
Crop                     select_31                1 1 13 1025 -23310=1,1 -23311=1,0 -23309=1,0
PoolingModuleNoProj      pooling_modul_no_proj_643 3 3 1023 1025 1024 1026 1027 1028
InnerProduct             linear_261               1 1 1026 1029 0=384 1=0 2=147456
BinaryOp                 add_174                  2 1 1022 1029 1030 0=0
Split                    splitncnn_137            1 2 1030 1031 1032
Crop                     select_32                1 1 53 1033 -23310=1,1 -23311=1,0 -23309=1,0
Crop                     select_33                1 1 73 1034 -23310=1,1 -23311=1,0 -23309=1,0
InnerProduct             linear_262               1 1 1032 1035 0=512 1=1 2=196608
Slice                    tensor_split_6           1 4 1035 1036 1037 1038 1039 -23300=4,192,192,96,-233 1=1
Concat                   cat_30                   2 1 1034 1038 1040 0=0
Reshape                  reshape_408              1 1 1040 1041 0=12 1=8 2=20
Reshape                  reshape_409              1 1 1036 1042 0=24 1=8 2=4
Reshape                  reshape_410              1 1 1039 1043 0=4 1=8 2=4
Concat                   cat_31                   2 1 1033 1037 1044 0=0
Reshape                  reshape_411              1 1 1044 1045 0=24 1=8 2=20
InnerProduct             linear_263               1 1 153 1046 0=32 1=0 2=12288
Reshape                  reshape_412              1 1 1046 1047 0=4 1=8 2=23
Permute                  permute_700              1 1 1047 1048 0=3
Split                    splitncnn_138            1 3 1048 1049 1050 1051
Permute                  permute_698              1 1 1043 1052 0=2
MatMul                   matmul_533               2 1 1052 1051 1053
Permute                  permute_699              1 1 1045 1054 0=3
Permute                  permute_697              1 1 1042 1055 0=2
MatMul                   matmul_534               2 1 1055 1054 1056
TensorAsStrided          tensor_as_strided_798    1 1 1053 1057 -23300=3,8,4,20 -23301=3,92,22,1 2=3
BinaryOp                 add_175                  2 1 1056 1057 1058 0=0
Reshape                  view_482                 1 1 1058 1059 0=20 1=4 2=8
Softmax                  softmax_116              1 1 1059 1060 0=-1 1=1
Split                    splitncnn_139            1 2 1060 1061 1062
Permute                  permute_696              1 1 1041 1063 0=2
MatMul                   bmm_503                  2 1 1062 1063 1064
Permute                  permute_701              1 1 1064 1065 0=2
Reshape                  reshape_413              1 1 1065 1066 0=96 1=4
InnerProduct             linear_264               1 1 1066 1067 0=384 1=1 2=36864
BinaryOp                 add_176                  2 1 1031 1067 1068 0=0
Split                    splitncnn_140            1 2 1068 1069 1070
Permute                  permute_592              1 1 1070 1071 0=1
Convolution1D            conv1d_151               1 1 1071 1072 0=768 1=1 2=1 3=1 4=0 5=1 6=294912
GLU                      glu_12                   1 1 1072 1073 0=0
Concat                   cat_32                   2 1 1007 1073 1074 0=1
ConvolutionDepthWise1D   convdw1d_827             1 1 1074 1075 0=384 1=31 2=1 3=1 4=0 5=1 6=11904 7=384
Split                    splitncnn_141            1 2 1075 1076 1077
BinaryOp                 sub_177                  1 1 1076 1078 0=1 1=1 2=1.000000e+00
Sigmoid                  sigmoid_64               1 1 1078 1079
BinaryOp                 mul_178                  2 1 1077 1079 1080 0=2
Convolution1D            conv1d_152               1 1 1080 1081 0=384 1=1 2=1 3=1 4=0 5=1 6=147456
Permute                  permute_593              1 1 1081 1082 0=1
BinaryOp                 add_179                  2 1 1069 1082 1083 0=0
Split                    splitncnn_142            1 2 1083 1084 1085
InnerProduct             linear_265               1 1 1085 1086 0=2048 1=1 2=786432
Split                    splitncnn_143            1 2 1086 1087 1088
BinaryOp                 sub_180                  1 1 1087 1089 0=1 1=1 2=1.000000e+00
Sigmoid                  sigmoid_65               1 1 1089 1090
BinaryOp                 mul_181                  2 1 1088 1090 1091 0=2
InnerProduct             linear_266               1 1 1091 1092 0=384 1=1 2=786432
BinaryOp                 add_182                  2 1 1084 1092 1093 0=0
Split                    splitncnn_144            1 2 1093 1094 1095
Crop                     select_34                1 1 93 1096 -23310=1,1 -23311=1,0 -23309=1,0
InnerProduct             linear_267               1 1 1095 1097 0=96 1=0 2=36864
Concat                   cat_33                   2 1 1096 1097 1098 0=0
Reshape                  reshape_414              1 1 1098 1099 0=12 1=8 2=20
Permute                  permute_702              1 1 1099 1100 0=2
MatMul                   bmm_504                  2 1 1061 1100 1101
Permute                  permute_703              1 1 1101 1102 0=2
Reshape                  reshape_415              1 1 1102 1103 0=96 1=4
InnerProduct             linear_268               1 1 1103 1104 0=384 1=1 2=36864
BinaryOp                 add_183                  2 1 1094 1104 1105 0=0
Split                    splitncnn_145            1 2 1105 1106 1107
Permute                  permute_594              1 1 1107 1108 0=1
Convolution1D            conv1d_153               1 1 1108 1109 0=768 1=1 2=1 3=1 4=0 5=1 6=294912
GLU                      glu_13                   1 1 1109 1110 0=0
Concat                   cat_34                   2 1 1009 1110 1111 0=1
ConvolutionDepthWise1D   convdw1d_828             1 1 1111 1112 0=384 1=31 2=1 3=1 4=0 5=1 6=11904 7=384
Split                    splitncnn_146            1 2 1112 1113 1114
BinaryOp                 sub_184                  1 1 1113 1115 0=1 1=1 2=1.000000e+00
Sigmoid                  sigmoid_66               1 1 1115 1116
BinaryOp                 mul_185                  2 1 1114 1116 1117 0=2
Convolution1D            conv1d_154               1 1 1117 1118 0=384 1=1 2=1 3=1 4=0 5=1 6=147456
Permute                  permute_595              1 1 1118 1119 0=1
BinaryOp                 add_186                  2 1 1106 1119 1120 0=0
Split                    splitncnn_147            1 2 1120 1121 1122
InnerProduct             linear_269               1 1 1122 1123 0=2048 1=1 2=786432
Split                    splitncnn_148            1 2 1123 1124 1125
BinaryOp                 sub_187                  1 1 1124 1126 0=1 1=1 2=1.000000e+00
Sigmoid                  sigmoid_67               1 1 1126 1127
BinaryOp                 mul_188                  2 1 1125 1127 1128 0=2
InnerProduct             linear_270               1 1 1128 1129 0=384 1=1 2=786432
BinaryOp                 add_189                  2 1 1121 1129 1130 0=0
Split                    splitncnn_149            1 3 1130 1131 1132 1133
BinaryOp                 mul_190                  2 1 1131 1132 1134 0=2
Reduction                mean_557                 1 1 1134 1135 0=3 1=0 -23303=1,-1 4=1 5=1
BinaryOp                 add_191                  1 1 1135 1136 0=0 1=1 2=2.500000e-01
BinaryOp                 pow_192                  1 1 1136 1137 0=6 1=1 2=-5.000000e-01
BinaryOp                 mul_193                  2 1 1133 1137 1138 0=2
BinaryOp                 sub_194                  2 1 1138 1011 1139 0=1
BinaryOp                 mul_195                  2 1 1139 152 1140 0=2
BinaryOp                 add_196                  2 1 1012 1140 1141 0=0
Split                    splitncnn_150            1 4 1141 1142 1143 1144 1145
Crop                     crop_776                 1 1 112 1146 -23310=1,2 -23311=1,0 -23309=1,1
Reshape                  encoder.encoders.2.encoder.state_select_list.1_ncnnreshape0 1 1 1146 1147 0=0 1=0
Crop                     crop_777                 1 1 132 1148 -23310=1,2 -23311=1,0 -23309=1,1
Reshape                  pnnx_unique_71_ncnnreshape0 1 1 1148 1149 0=0 1=0
InnerProduct             linear_271               1 1 1145 1150 0=2048 1=1 2=786432
Split                    splitncnn_151            1 2 1150 1151 1152
BinaryOp                 sub_197                  1 1 1151 1153 0=1 1=1 2=1.000000e+00
Sigmoid                  sigmoid_68               1 1 1153 1154
BinaryOp                 mul_198                  2 1 1152 1154 1155 0=2
InnerProduct             linear_272               1 1 1155 1156 0=384 1=1 2=786432
BinaryOp                 add_199                  2 1 1142 1156 1157 0=0
Split                    splitncnn_152            1 2 1157 1158 1159
Crop                     select_35                1 1 32 1160 -23310=1,2 -23311=1,0 -23309=1,1
Crop                     select_36                1 1 12 1161 -23310=1,2 -23311=1,0 -23309=1,1
PoolingModuleNoProj      pooling_modul_no_proj_644 3 3 1159 1161 1160 1162 1163 1164
InnerProduct             linear_273               1 1 1162 1165 0=384 1=0 2=147456
BinaryOp                 add_200                  2 1 1158 1165 1166 0=0
Split                    splitncnn_153            1 2 1166 1167 1168
Crop                     select_37                1 1 52 1169 -23310=1,2 -23311=1,0 -23309=1,1
Crop                     select_38                1 1 72 1170 -23310=1,2 -23311=1,0 -23309=1,1
InnerProduct             linear_274               1 1 1168 1171 0=512 1=1 2=196608
Slice                    tensor_split_7           1 4 1171 1172 1173 1174 1175 -23300=4,192,192,96,-233 1=1
Concat                   cat_35                   2 1 1170 1174 1176 0=0
Reshape                  reshape_416              1 1 1176 1177 0=12 1=8 2=20
Reshape                  reshape_417              1 1 1172 1178 0=24 1=8 2=4
Reshape                  reshape_418              1 1 1175 1179 0=4 1=8 2=4
Concat                   cat_36                   2 1 1169 1173 1180 0=0
Reshape                  reshape_419              1 1 1180 1181 0=24 1=8 2=20
Permute                  permute_706              1 1 1179 1182 0=2
MatMul                   matmul_535               2 1 1182 1050 1183
Permute                  permute_707              1 1 1181 1184 0=3
Permute                  permute_705              1 1 1178 1185 0=2
MatMul                   matmul_536               2 1 1185 1184 1186
TensorAsStrided          tensor_as_strided_799    1 1 1183 1187 -23300=3,8,4,20 -23301=3,92,22,1 2=3
BinaryOp                 add_201                  2 1 1186 1187 1188 0=0
Reshape                  view_483                 1 1 1188 1189 0=20 1=4 2=8
Softmax                  softmax_117              1 1 1189 1190 0=-1 1=1
Split                    splitncnn_154            1 2 1190 1191 1192
Permute                  permute_704              1 1 1177 1193 0=2
MatMul                   bmm_505                  2 1 1192 1193 1194
Permute                  permute_708              1 1 1194 1195 0=2
Reshape                  reshape_420              1 1 1195 1196 0=96 1=4
InnerProduct             linear_275               1 1 1196 1197 0=384 1=1 2=36864
BinaryOp                 add_202                  2 1 1167 1197 1198 0=0
Split                    splitncnn_155            1 2 1198 1199 1200
Permute                  permute_596              1 1 1200 1201 0=1
Convolution1D            conv1d_155               1 1 1201 1202 0=768 1=1 2=1 3=1 4=0 5=1 6=294912
GLU                      glu_14                   1 1 1202 1203 0=0
Concat                   cat_37                   2 1 1147 1203 1204 0=1
ConvolutionDepthWise1D   convdw1d_829             1 1 1204 1205 0=384 1=31 2=1 3=1 4=0 5=1 6=11904 7=384
Split                    splitncnn_156            1 2 1205 1206 1207
BinaryOp                 sub_203                  1 1 1206 1208 0=1 1=1 2=1.000000e+00
Sigmoid                  sigmoid_69               1 1 1208 1209
BinaryOp                 mul_204                  2 1 1207 1209 1210 0=2
Convolution1D            conv1d_156               1 1 1210 1211 0=384 1=1 2=1 3=1 4=0 5=1 6=147456
Permute                  permute_597              1 1 1211 1212 0=1
BinaryOp                 add_205                  2 1 1199 1212 1213 0=0
Split                    splitncnn_157            1 2 1213 1214 1215
InnerProduct             linear_276               1 1 1215 1216 0=2048 1=1 2=786432
Split                    splitncnn_158            1 2 1216 1217 1218
BinaryOp                 sub_206                  1 1 1217 1219 0=1 1=1 2=1.000000e+00
Sigmoid                  sigmoid_70               1 1 1219 1220
BinaryOp                 mul_207                  2 1 1218 1220 1221 0=2
InnerProduct             linear_277               1 1 1221 1222 0=384 1=1 2=786432
BinaryOp                 add_208                  2 1 1214 1222 1223 0=0
Split                    splitncnn_159            1 2 1223 1224 1225
Crop                     select_39                1 1 92 1226 -23310=1,2 -23311=1,0 -23309=1,1
InnerProduct             linear_278               1 1 1225 1227 0=96 1=0 2=36864
Concat                   cat_38                   2 1 1226 1227 1228 0=0
Reshape                  reshape_421              1 1 1228 1229 0=12 1=8 2=20
Permute                  permute_709              1 1 1229 1230 0=2
MatMul                   bmm_506                  2 1 1191 1230 1231
Permute                  permute_710              1 1 1231 1232 0=2
Reshape                  reshape_422              1 1 1232 1233 0=96 1=4
InnerProduct             linear_279               1 1 1233 1234 0=384 1=1 2=36864
BinaryOp                 add_209                  2 1 1224 1234 1235 0=0
Split                    splitncnn_160            1 2 1235 1236 1237
Permute                  permute_598              1 1 1237 1238 0=1
Convolution1D            conv1d_157               1 1 1238 1239 0=768 1=1 2=1 3=1 4=0 5=1 6=294912
GLU                      glu_15                   1 1 1239 1240 0=0
Concat                   cat_39                   2 1 1149 1240 1241 0=1
ConvolutionDepthWise1D   convdw1d_830             1 1 1241 1242 0=384 1=31 2=1 3=1 4=0 5=1 6=11904 7=384
Split                    splitncnn_161            1 2 1242 1243 1244
BinaryOp                 sub_210                  1 1 1243 1245 0=1 1=1 2=1.000000e+00
Sigmoid                  sigmoid_71               1 1 1245 1246
BinaryOp                 mul_211                  2 1 1244 1246 1247 0=2
Convolution1D            conv1d_158               1 1 1247 1248 0=384 1=1 2=1 3=1 4=0 5=1 6=147456
Permute                  permute_599              1 1 1248 1249 0=1
BinaryOp                 add_212                  2 1 1236 1249 1250 0=0
Split                    splitncnn_162            1 2 1250 1251 1252
InnerProduct             linear_280               1 1 1252 1253 0=2048 1=1 2=786432
Split                    splitncnn_163            1 2 1253 1254 1255
BinaryOp                 sub_213                  1 1 1254 1256 0=1 1=1 2=1.000000e+00
Sigmoid                  sigmoid_72               1 1 1256 1257
BinaryOp                 mul_214                  2 1 1255 1257 1258 0=2
InnerProduct             linear_281               1 1 1258 1259 0=384 1=1 2=786432
BinaryOp                 add_215                  2 1 1251 1259 1260 0=0
Split                    splitncnn_164            1 3 1260 1261 1262 1263
BinaryOp                 mul_216                  2 1 1261 1262 1264 0=2
Reduction                mean_558                 1 1 1264 1265 0=3 1=0 -23303=1,-1 4=1 5=1
BinaryOp                 add_217                  1 1 1265 1266 0=0 1=1 2=2.500000e-01
BinaryOp                 pow_218                  1 1 1266 1267 0=6 1=1 2=-5.000000e-01
BinaryOp                 mul_219                  2 1 1263 1267 1268 0=2
BinaryOp                 sub_220                  2 1 1268 1143 1269 0=1
BinaryOp                 mul_221                  2 1 1269 151 1270 0=2
BinaryOp                 add_222                  2 1 1144 1270 1271 0=0
Split                    splitncnn_165            1 4 1271 1272 1273 1274 1275
Crop                     crop_778                 1 1 111 1276 -23310=1,3 -23311=1,0 -23309=1,2
Reshape                  encoder.encoders.2.encoder.state_select_list.2_ncnnreshape0 1 1 1276 1277 0=0 1=0
Crop                     crop_779                 1 1 131 1278 -23310=1,3 -23311=1,0 -23309=1,2
Reshape                  pnnx_unique_79_ncnnreshape0 1 1 1278 1279 0=0 1=0
InnerProduct             linear_282               1 1 1275 1280 0=2048 1=1 2=786432
Split                    splitncnn_166            1 2 1280 1281 1282
BinaryOp                 sub_223                  1 1 1281 1283 0=1 1=1 2=1.000000e+00
Sigmoid                  sigmoid_73               1 1 1283 1284
BinaryOp                 mul_224                  2 1 1282 1284 1285 0=2
InnerProduct             linear_283               1 1 1285 1286 0=384 1=1 2=786432
BinaryOp                 add_225                  2 1 1272 1286 1287 0=0
Split                    splitncnn_167            1 2 1287 1288 1289
Crop                     select_40                1 1 31 1290 -23310=1,3 -23311=1,0 -23309=1,2
Crop                     select_41                1 1 11 1291 -23310=1,3 -23311=1,0 -23309=1,2
PoolingModuleNoProj      pooling_modul_no_proj_645 3 3 1289 1291 1290 1292 1293 1294
InnerProduct             linear_284               1 1 1292 1295 0=384 1=0 2=147456
BinaryOp                 add_226                  2 1 1288 1295 1296 0=0
Split                    splitncnn_168            1 2 1296 1297 1298
Crop                     select_42                1 1 51 1299 -23310=1,3 -23311=1,0 -23309=1,2
Crop                     select_43                1 1 71 1300 -23310=1,3 -23311=1,0 -23309=1,2
InnerProduct             linear_285               1 1 1298 1301 0=512 1=1 2=196608
Slice                    tensor_split_8           1 4 1301 1302 1303 1304 1305 -23300=4,192,192,96,-233 1=1
Concat                   cat_40                   2 1 1300 1304 1306 0=0
Reshape                  reshape_423              1 1 1306 1307 0=12 1=8 2=20
Reshape                  reshape_424              1 1 1302 1308 0=24 1=8 2=4
Reshape                  reshape_425              1 1 1305 1309 0=4 1=8 2=4
Concat                   cat_41                   2 1 1299 1303 1310 0=0
Reshape                  reshape_426              1 1 1310 1311 0=24 1=8 2=20
Permute                  permute_713              1 1 1309 1312 0=2
MatMul                   matmul_537               2 1 1312 1049 1313
Permute                  permute_714              1 1 1311 1314 0=3
Permute                  permute_712              1 1 1308 1315 0=2
MatMul                   matmul_538               2 1 1315 1314 1316
TensorAsStrided          tensor_as_strided_800    1 1 1313 1317 -23300=3,8,4,20 -23301=3,92,22,1 2=3
BinaryOp                 add_227                  2 1 1316 1317 1318 0=0
Reshape                  view_484                 1 1 1318 1319 0=20 1=4 2=8
Softmax                  softmax_118              1 1 1319 1320 0=-1 1=1
Split                    splitncnn_169            1 2 1320 1321 1322
Permute                  permute_711              1 1 1307 1323 0=2
MatMul                   bmm_507                  2 1 1322 1323 1324
Permute                  permute_715              1 1 1324 1325 0=2
Reshape                  reshape_427              1 1 1325 1326 0=96 1=4
InnerProduct             linear_286               1 1 1326 1327 0=384 1=1 2=36864
BinaryOp                 add_228                  2 1 1297 1327 1328 0=0
Split                    splitncnn_170            1 2 1328 1329 1330
Permute                  permute_600              1 1 1330 1331 0=1
Convolution1D            conv1d_159               1 1 1331 1332 0=768 1=1 2=1 3=1 4=0 5=1 6=294912
GLU                      glu_16                   1 1 1332 1333 0=0
Concat                   cat_42                   2 1 1277 1333 1334 0=1
ConvolutionDepthWise1D   convdw1d_831             1 1 1334 1335 0=384 1=31 2=1 3=1 4=0 5=1 6=11904 7=384
Split                    splitncnn_171            1 2 1335 1336 1337
BinaryOp                 sub_229                  1 1 1336 1338 0=1 1=1 2=1.000000e+00
Sigmoid                  sigmoid_74               1 1 1338 1339
BinaryOp                 mul_230                  2 1 1337 1339 1340 0=2
Convolution1D            conv1d_160               1 1 1340 1341 0=384 1=1 2=1 3=1 4=0 5=1 6=147456
Permute                  permute_601              1 1 1341 1342 0=1
BinaryOp                 add_231                  2 1 1329 1342 1343 0=0
Split                    splitncnn_172            1 2 1343 1344 1345
InnerProduct             linear_287               1 1 1345 1346 0=2048 1=1 2=786432
Split                    splitncnn_173            1 2 1346 1347 1348
BinaryOp                 sub_232                  1 1 1347 1349 0=1 1=1 2=1.000000e+00
Sigmoid                  sigmoid_75               1 1 1349 1350
BinaryOp                 mul_233                  2 1 1348 1350 1351 0=2
InnerProduct             linear_288               1 1 1351 1352 0=384 1=1 2=786432
BinaryOp                 add_234                  2 1 1344 1352 1353 0=0
Split                    splitncnn_174            1 2 1353 1354 1355
Crop                     select_44                1 1 91 1356 -23310=1,3 -23311=1,0 -23309=1,2
InnerProduct             linear_289               1 1 1355 1357 0=96 1=0 2=36864
Concat                   cat_43                   2 1 1356 1357 1358 0=0
Reshape                  reshape_428              1 1 1358 1359 0=12 1=8 2=20
Permute                  permute_716              1 1 1359 1360 0=2
MatMul                   bmm_508                  2 1 1321 1360 1361
Permute                  permute_717              1 1 1361 1362 0=2
Reshape                  reshape_429              1 1 1362 1363 0=96 1=4
InnerProduct             linear_290               1 1 1363 1364 0=384 1=1 2=36864
BinaryOp                 add_235                  2 1 1354 1364 1365 0=0
Split                    splitncnn_175            1 2 1365 1366 1367
Permute                  permute_602              1 1 1367 1368 0=1
Convolution1D            conv1d_161               1 1 1368 1369 0=768 1=1 2=1 3=1 4=0 5=1 6=294912
GLU                      glu_17                   1 1 1369 1370 0=0
Concat                   cat_44                   2 1 1279 1370 1371 0=1
ConvolutionDepthWise1D   convdw1d_832             1 1 1371 1372 0=384 1=31 2=1 3=1 4=0 5=1 6=11904 7=384
Split                    splitncnn_176            1 2 1372 1373 1374
BinaryOp                 sub_236                  1 1 1373 1375 0=1 1=1 2=1.000000e+00
Sigmoid                  sigmoid_76               1 1 1375 1376
BinaryOp                 mul_237                  2 1 1374 1376 1377 0=2
Convolution1D            conv1d_162               1 1 1377 1378 0=384 1=1 2=1 3=1 4=0 5=1 6=147456
Permute                  permute_603              1 1 1378 1379 0=1
BinaryOp                 add_238                  2 1 1366 1379 1380 0=0
Split                    splitncnn_177            1 2 1380 1381 1382
InnerProduct             linear_291               1 1 1382 1383 0=2048 1=1 2=786432
Split                    splitncnn_178            1 2 1383 1384 1385
BinaryOp                 sub_239                  1 1 1384 1386 0=1 1=1 2=1.000000e+00
Sigmoid                  sigmoid_77               1 1 1386 1387
BinaryOp                 mul_240                  2 1 1385 1387 1388 0=2
InnerProduct             linear_292               1 1 1388 1389 0=384 1=1 2=786432
BinaryOp                 add_241                  2 1 1381 1389 1390 0=0
Split                    splitncnn_179            1 3 1390 1391 1392 1393
BinaryOp                 mul_242                  2 1 1391 1392 1394 0=2
Reduction                mean_559                 1 1 1394 1395 0=3 1=0 -23303=1,-1 4=1 5=1
BinaryOp                 add_243                  1 1 1395 1396 0=0 1=1 2=2.500000e-01
BinaryOp                 pow_244                  1 1 1396 1397 0=6 1=1 2=-5.000000e-01
BinaryOp                 mul_245                  2 1 1393 1397 1398 0=2
BinaryOp                 sub_246                  2 1 1398 1273 1399 0=1
BinaryOp                 mul_247                  2 1 1399 150 1400 0=2
BinaryOp                 add_248                  2 1 1274 1400 1401 0=0
MemoryData               encoder.encoders.2.out_combiner 0 1 1402 0=1
BinaryOp                 mul_249                  2 1 994 1402 1403 0=2
SimpleUpsample           simple_upsample_812      1 1 1401 1404 0=4 1=384 2=1536
BinaryOp                 add_250                  2 1 1403 1404 1405 0=0
Split                    splitncnn_180            1 2 1405 1406 1407
MemoryData               encoder.encoders.3.downsample 0 1 1408 0=384 1=1
Reshape                  reshape_430              1 1 1407 1409 0=384 1=8 2=2
Split                    splitncnn_181            1 2 1409 1410 1411
BinaryOp                 mul_251                  2 1 1410 1408 1412 0=2
Reduction                sum_632                  1 1 1412 1413 0=0 1=0 -23303=1,-1 4=1 5=1
Softmax                  softmax_119              1 1 1413 1414
BinaryOp                 mul_252                  2 1 1411 1414 1415 0=2
Reduction                sum_633                  1 1 1415 1416 0=0 1=0 -23303=0 4=0 5=1
Crop                     crop_780                 1 1 116 1417 -23310=1,1 -23311=1,0 -23309=1,0
Reshape                  encoder.encoders.3.encoder.state_select_list.0_ncnnreshape0 1 1 1417 1418 0=0 1=0
Crop                     crop_781                 1 1 136 1419 -23310=1,1 -23311=1,0 -23309=1,0
Reshape                  pnnx_unique_88_ncnnreshape0 1 1 1419 1420 0=0 1=0
Split                    splitncnn_182            1 4 1416 1421 1422 1423 1424
InnerProduct             linear_293               1 1 1424 1425 0=2048 1=1 2=786432
Split                    splitncnn_183            1 2 1425 1426 1427
BinaryOp                 sub_253                  1 1 1426 1428 0=1 1=1 2=1.000000e+00
Sigmoid                  sigmoid_78               1 1 1428 1429
BinaryOp                 mul_254                  2 1 1427 1429 1430 0=2
InnerProduct             linear_294               1 1 1430 1431 0=384 1=1 2=786432
BinaryOp                 add_255                  2 1 1421 1431 1432 0=0
Split                    splitncnn_184            1 2 1432 1433 1434
Crop                     select_45                1 1 36 1435 -23310=1,1 -23311=1,0 -23309=1,0
Crop                     select_46                1 1 16 1436 -23310=1,1 -23311=1,0 -23309=1,0
PoolingModuleNoProj      pooling_modul_no_proj_646 3 3 1434 1436 1435 1437 1438 1439
InnerProduct             linear_295               1 1 1437 1440 0=384 1=0 2=147456
BinaryOp                 add_256                  2 1 1433 1440 1441 0=0
Split                    splitncnn_185            1 2 1441 1442 1443
Crop                     select_47                1 1 56 1444 -23310=1,1 -23311=1,0 -23309=1,0
Crop                     select_48                1 1 76 1445 -23310=1,1 -23311=1,0 -23309=1,0
InnerProduct             linear_296               1 1 1443 1446 0=512 1=1 2=196608
Slice                    tensor_split_9           1 4 1446 1447 1448 1449 1450 -23300=4,192,192,96,-233 1=1
Concat                   cat_45                   2 1 1445 1449 1451 0=0
Reshape                  reshape_431              1 1 1451 1452 0=12 1=8 2=10
Reshape                  reshape_432              1 1 1447 1453 0=24 1=8 2=2
Reshape                  reshape_433              1 1 1450 1454 0=4 1=8 2=2
Concat                   cat_46                   2 1 1444 1448 1455 0=0
Reshape                  reshape_434              1 1 1455 1456 0=24 1=8 2=10
InnerProduct             linear_297               1 1 149 1457 0=32 1=0 2=12288
Reshape                  reshape_435              1 1 1457 1458 0=4 1=8 2=11
Permute                  permute_722              1 1 1458 1459 0=3
Split                    splitncnn_186            1 2 1459 1460 1461
Permute                  permute_720              1 1 1454 1462 0=2
MatMul                   matmul_539               2 1 1462 1461 1463
Permute                  permute_721              1 1 1456 1464 0=3
Permute                  permute_719              1 1 1453 1465 0=2
MatMul                   matmul_540               2 1 1465 1464 1466
TensorAsStrided          tensor_as_strided_801    1 1 1463 1467 -23300=3,8,2,10 -23301=3,22,10,1 2=1
BinaryOp                 add_257                  2 1 1466 1467 1468 0=0
Reshape                  view_485                 1 1 1468 1469 0=10 1=2 2=8
Softmax                  softmax_120              1 1 1469 1470 0=-1 1=1
Split                    splitncnn_187            1 2 1470 1471 1472
Permute                  permute_718              1 1 1452 1473 0=2
MatMul                   bmm_509                  2 1 1472 1473 1474
Permute                  permute_723              1 1 1474 1475 0=2
Reshape                  reshape_436              1 1 1475 1476 0=96 1=2
InnerProduct             linear_298               1 1 1476 1477 0=384 1=1 2=36864
BinaryOp                 add_258                  2 1 1442 1477 1478 0=0
Split                    splitncnn_188            1 2 1478 1479 1480
Permute                  permute_604              1 1 1480 1481 0=1
Convolution1D            conv1d_163               1 1 1481 1482 0=768 1=1 2=1 3=1 4=0 5=1 6=294912
GLU                      glu_18                   1 1 1482 1483 0=0
Concat                   cat_47                   2 1 1418 1483 1484 0=1
ConvolutionDepthWise1D   convdw1d_833             1 1 1484 1485 0=384 1=31 2=1 3=1 4=0 5=1 6=11904 7=384
Split                    splitncnn_189            1 2 1485 1486 1487
BinaryOp                 sub_259                  1 1 1486 1488 0=1 1=1 2=1.000000e+00
Sigmoid                  sigmoid_79               1 1 1488 1489
BinaryOp                 mul_260                  2 1 1487 1489 1490 0=2
Convolution1D            conv1d_164               1 1 1490 1491 0=384 1=1 2=1 3=1 4=0 5=1 6=147456
Permute                  permute_605              1 1 1491 1492 0=1
BinaryOp                 add_261                  2 1 1479 1492 1493 0=0
Split                    splitncnn_190            1 2 1493 1494 1495
InnerProduct             linear_299               1 1 1495 1496 0=2048 1=1 2=786432
Split                    splitncnn_191            1 2 1496 1497 1498
BinaryOp                 sub_262                  1 1 1497 1499 0=1 1=1 2=1.000000e+00
Sigmoid                  sigmoid_80               1 1 1499 1500
BinaryOp                 mul_263                  2 1 1498 1500 1501 0=2
InnerProduct             linear_300               1 1 1501 1502 0=384 1=1 2=786432
BinaryOp                 add_264                  2 1 1494 1502 1503 0=0
Split                    splitncnn_192            1 2 1503 1504 1505
Crop                     select_49                1 1 96 1506 -23310=1,1 -23311=1,0 -23309=1,0
InnerProduct             linear_301               1 1 1505 1507 0=96 1=0 2=36864
Concat                   cat_48                   2 1 1506 1507 1508 0=0
Reshape                  reshape_437              1 1 1508 1509 0=12 1=8 2=10
Permute                  permute_724              1 1 1509 1510 0=2
MatMul                   bmm_510                  2 1 1471 1510 1511
Permute                  permute_725              1 1 1511 1512 0=2
Reshape                  reshape_438              1 1 1512 1513 0=96 1=2
InnerProduct             linear_302               1 1 1513 1514 0=384 1=1 2=36864
BinaryOp                 add_265                  2 1 1504 1514 1515 0=0
Split                    splitncnn_193            1 2 1515 1516 1517
Permute                  permute_606              1 1 1517 1518 0=1
Convolution1D            conv1d_165               1 1 1518 1519 0=768 1=1 2=1 3=1 4=0 5=1 6=294912
GLU                      glu_19                   1 1 1519 1520 0=0
Concat                   cat_49                   2 1 1420 1520 1521 0=1
ConvolutionDepthWise1D   convdw1d_834             1 1 1521 1522 0=384 1=31 2=1 3=1 4=0 5=1 6=11904 7=384
Split                    splitncnn_194            1 2 1522 1523 1524
BinaryOp                 sub_266                  1 1 1523 1525 0=1 1=1 2=1.000000e+00
Sigmoid                  sigmoid_81               1 1 1525 1526
BinaryOp                 mul_267                  2 1 1524 1526 1527 0=2
Convolution1D            conv1d_166               1 1 1527 1528 0=384 1=1 2=1 3=1 4=0 5=1 6=147456
Permute                  permute_607              1 1 1528 1529 0=1
BinaryOp                 add_268                  2 1 1516 1529 1530 0=0
Split                    splitncnn_195            1 2 1530 1531 1532
InnerProduct             linear_303               1 1 1532 1533 0=2048 1=1 2=786432
Split                    splitncnn_196            1 2 1533 1534 1535
BinaryOp                 sub_269                  1 1 1534 1536 0=1 1=1 2=1.000000e+00
Sigmoid                  sigmoid_82               1 1 1536 1537
BinaryOp                 mul_270                  2 1 1535 1537 1538 0=2
InnerProduct             linear_304               1 1 1538 1539 0=384 1=1 2=786432
BinaryOp                 add_271                  2 1 1531 1539 1540 0=0
Split                    splitncnn_197            1 3 1540 1541 1542 1543
BinaryOp                 mul_272                  2 1 1541 1542 1544 0=2
Reduction                mean_560                 1 1 1544 1545 0=3 1=0 -23303=1,-1 4=1 5=1
BinaryOp                 add_273                  1 1 1545 1546 0=0 1=1 2=2.500000e-01
BinaryOp                 pow_274                  1 1 1546 1547 0=6 1=1 2=-5.000000e-01
BinaryOp                 mul_275                  2 1 1543 1547 1548 0=2
BinaryOp                 sub_276                  2 1 1548 1422 1549 0=1
BinaryOp                 mul_277                  2 1 1549 148 1550 0=2
BinaryOp                 add_278                  2 1 1423 1550 1551 0=0
Split                    splitncnn_198            1 4 1551 1552 1553 1554 1555
Crop                     crop_782                 1 1 115 1556 -23310=1,2 -23311=1,0 -23309=1,1
Reshape                  encoder.encoders.3.encoder.state_select_list.1_ncnnreshape0 1 1 1556 1557 0=0 1=0
Crop                     crop_783                 1 1 135 1558 -23310=1,2 -23311=1,0 -23309=1,1
Reshape                  pnnx_unique_96_ncnnreshape0 1 1 1558 1559 0=0 1=0
InnerProduct             linear_305               1 1 1555 1560 0=2048 1=1 2=786432
Split                    splitncnn_199            1 2 1560 1561 1562
BinaryOp                 sub_279                  1 1 1561 1563 0=1 1=1 2=1.000000e+00
Sigmoid                  sigmoid_83               1 1 1563 1564
BinaryOp                 mul_280                  2 1 1562 1564 1565 0=2
InnerProduct             linear_306               1 1 1565 1566 0=384 1=1 2=786432
BinaryOp                 add_281                  2 1 1552 1566 1567 0=0
Split                    splitncnn_200            1 2 1567 1568 1569
Crop                     select_50                1 1 35 1570 -23310=1,2 -23311=1,0 -23309=1,1
Crop                     select_51                1 1 15 1571 -23310=1,2 -23311=1,0 -23309=1,1
PoolingModuleNoProj      pooling_modul_no_proj_647 3 3 1569 1571 1570 1572 1573 1574
InnerProduct             linear_307               1 1 1572 1575 0=384 1=0 2=147456
BinaryOp                 add_282                  2 1 1568 1575 1576 0=0
Split                    splitncnn_201            1 2 1576 1577 1578
Crop                     select_52                1 1 55 1579 -23310=1,2 -23311=1,0 -23309=1,1
Crop                     select_53                1 1 75 1580 -23310=1,2 -23311=1,0 -23309=1,1
InnerProduct             linear_308               1 1 1578 1581 0=512 1=1 2=196608
Slice                    tensor_split_10          1 4 1581 1582 1583 1584 1585 -23300=4,192,192,96,-233 1=1
Concat                   cat_50                   2 1 1580 1584 1586 0=0
Reshape                  reshape_439              1 1 1586 1587 0=12 1=8 2=10
Reshape                  reshape_440              1 1 1582 1588 0=24 1=8 2=2
Reshape                  reshape_441              1 1 1585 1589 0=4 1=8 2=2
Concat                   cat_51                   2 1 1579 1583 1590 0=0
Reshape                  reshape_442              1 1 1590 1591 0=24 1=8 2=10
Permute                  permute_728              1 1 1589 1592 0=2
MatMul                   matmul_541               2 1 1592 1460 1593
Permute                  permute_729              1 1 1591 1594 0=3
Permute                  permute_727              1 1 1588 1595 0=2
MatMul                   matmul_542               2 1 1595 1594 1596
TensorAsStrided          tensor_as_strided_802    1 1 1593 1597 -23300=3,8,2,10 -23301=3,22,10,1 2=1
BinaryOp                 add_283                  2 1 1596 1597 1598 0=0
Reshape                  view_486                 1 1 1598 1599 0=10 1=2 2=8
Softmax                  softmax_121              1 1 1599 1600 0=-1 1=1
Split                    splitncnn_202            1 2 1600 1601 1602
Permute                  permute_726              1 1 1587 1603 0=2
MatMul                   bmm_511                  2 1 1602 1603 1604
Permute                  permute_730              1 1 1604 1605 0=2
Reshape                  reshape_443              1 1 1605 1606 0=96 1=2
InnerProduct             linear_309               1 1 1606 1607 0=384 1=1 2=36864
BinaryOp                 add_284                  2 1 1577 1607 1608 0=0
Split                    splitncnn_203            1 2 1608 1609 1610
Permute                  permute_608              1 1 1610 1611 0=1
Convolution1D            conv1d_167               1 1 1611 1612 0=768 1=1 2=1 3=1 4=0 5=1 6=294912
GLU                      glu_20                   1 1 1612 1613 0=0
Concat                   cat_52                   2 1 1557 1613 1614 0=1
ConvolutionDepthWise1D   convdw1d_835             1 1 1614 1615 0=384 1=31 2=1 3=1 4=0 5=1 6=11904 7=384
Split                    splitncnn_204            1 2 1615 1616 1617
BinaryOp                 sub_285                  1 1 1616 1618 0=1 1=1 2=1.000000e+00
Sigmoid                  sigmoid_84               1 1 1618 1619
BinaryOp                 mul_286                  2 1 1617 1619 1620 0=2
Convolution1D            conv1d_168               1 1 1620 1621 0=384 1=1 2=1 3=1 4=0 5=1 6=147456
Permute                  permute_609              1 1 1621 1622 0=1
BinaryOp                 add_287                  2 1 1609 1622 1623 0=0
Split                    splitncnn_205            1 2 1623 1624 1625
InnerProduct             linear_310               1 1 1625 1626 0=2048 1=1 2=786432
Split                    splitncnn_206            1 2 1626 1627 1628
BinaryOp                 sub_288                  1 1 1627 1629 0=1 1=1 2=1.000000e+00
Sigmoid                  sigmoid_85               1 1 1629 1630
BinaryOp                 mul_289                  2 1 1628 1630 1631 0=2
InnerProduct             linear_311               1 1 1631 1632 0=384 1=1 2=786432
BinaryOp                 add_290                  2 1 1624 1632 1633 0=0
Split                    splitncnn_207            1 2 1633 1634 1635
Crop                     select_54                1 1 95 1636 -23310=1,2 -23311=1,0 -23309=1,1
InnerProduct             linear_312               1 1 1635 1637 0=96 1=0 2=36864
Concat                   cat_53                   2 1 1636 1637 1638 0=0
Reshape                  reshape_444              1 1 1638 1639 0=12 1=8 2=10
Permute                  permute_731              1 1 1639 1640 0=2
MatMul                   bmm_512                  2 1 1601 1640 1641
Permute                  permute_732              1 1 1641 1642 0=2
Reshape                  reshape_445              1 1 1642 1643 0=96 1=2
InnerProduct             linear_313               1 1 1643 1644 0=384 1=1 2=36864
BinaryOp                 add_291                  2 1 1634 1644 1645 0=0
Split                    splitncnn_208            1 2 1645 1646 1647
Permute                  permute_610              1 1 1647 1648 0=1
Convolution1D            conv1d_169               1 1 1648 1649 0=768 1=1 2=1 3=1 4=0 5=1 6=294912
GLU                      glu_21                   1 1 1649 1650 0=0
Concat                   cat_54                   2 1 1559 1650 1651 0=1
ConvolutionDepthWise1D   convdw1d_836             1 1 1651 1652 0=384 1=31 2=1 3=1 4=0 5=1 6=11904 7=384
Split                    splitncnn_209            1 2 1652 1653 1654
BinaryOp                 sub_292                  1 1 1653 1655 0=1 1=1 2=1.000000e+00
Sigmoid                  sigmoid_86               1 1 1655 1656
BinaryOp                 mul_293                  2 1 1654 1656 1657 0=2
Convolution1D            conv1d_170               1 1 1657 1658 0=384 1=1 2=1 3=1 4=0 5=1 6=147456
Permute                  permute_611              1 1 1658 1659 0=1
BinaryOp                 add_294                  2 1 1646 1659 1660 0=0
Split                    splitncnn_210            1 2 1660 1661 1662
InnerProduct             linear_314               1 1 1662 1663 0=2048 1=1 2=786432
Split                    splitncnn_211            1 2 1663 1664 1665
BinaryOp                 sub_295                  1 1 1664 1666 0=1 1=1 2=1.000000e+00
Sigmoid                  sigmoid_87               1 1 1666 1667
BinaryOp                 mul_296                  2 1 1665 1667 1668 0=2
InnerProduct             linear_315               1 1 1668 1669 0=384 1=1 2=786432
BinaryOp                 add_297                  2 1 1661 1669 1670 0=0
Split                    splitncnn_212            1 3 1670 1671 1672 1673
BinaryOp                 mul_298                  2 1 1671 1672 1674 0=2
Reduction                mean_561                 1 1 1674 1675 0=3 1=0 -23303=1,-1 4=1 5=1
BinaryOp                 add_299                  1 1 1675 1676 0=0 1=1 2=2.500000e-01
BinaryOp                 pow_300                  1 1 1676 1677 0=6 1=1 2=-5.000000e-01
BinaryOp                 mul_301                  2 1 1673 1677 1678 0=2
BinaryOp                 sub_302                  2 1 1678 1553 1679 0=1
BinaryOp                 mul_303                  2 1 1679 147 1680 0=2
BinaryOp                 add_304                  2 1 1554 1680 1681 0=0
MemoryData               encoder.encoders.3.out_combiner 0 1 1682 0=1
MemoryData               encoder.skip_modules.4   0 1 1683 0=1
BinaryOp                 mul_305                  2 1 1406 1682 1684 0=2
SimpleUpsample           simple_upsample_813      1 1 1681 1685 0=8 1=384 2=3072
BinaryOp                 add_306                  2 1 1684 1685 1686 0=0
BinaryOp                 mul_307                  2 1 995 1683 1687 0=2
BinaryOp                 add_308                  2 1 1687 1686 1688 0=0
Split                    splitncnn_213            1 2 1688 1689 1690
MemoryData               encoder.encoders.4.downsample 0 1 1691 0=384 1=1
Reshape                  reshape_446              1 1 1690 1692 0=384 1=2 2=8
Split                    splitncnn_214            1 2 1692 1693 1694
BinaryOp                 mul_309                  2 1 1693 1691 1695 0=2
Reduction                sum_634                  1 1 1695 1696 0=0 1=0 -23303=1,-1 4=1 5=1
Softmax                  softmax_122              1 1 1696 1697
BinaryOp                 mul_310                  2 1 1694 1697 1698 0=2
Reduction                sum_635                  1 1 1698 1699 0=0 1=0 -23303=0 4=0 5=1
Crop                     crop_784                 1 1 121 1700 -23310=1,1 -23311=1,0 -23309=1,0
Reshape                  encoder.encoders.4.encoder.state_select_list.0_ncnnreshape0 1 1 1700 1701 0=0 1=0
Crop                     crop_785                 1 1 141 1702 -23310=1,1 -23311=1,0 -23309=1,0
Reshape                  pnnx_unique_105_ncnnreshape0 1 1 1702 1703 0=0 1=0
Split                    splitncnn_215            1 4 1699 1704 1705 1706 1707
InnerProduct             linear_316               1 1 1707 1708 0=1024 1=1 2=393216
Split                    splitncnn_216            1 2 1708 1709 1710
BinaryOp                 sub_311                  1 1 1709 1711 0=1 1=1 2=1.000000e+00
Sigmoid                  sigmoid_88               1 1 1711 1712
BinaryOp                 mul_312                  2 1 1710 1712 1713 0=2
InnerProduct             linear_317               1 1 1713 1714 0=384 1=1 2=393216
BinaryOp                 add_313                  2 1 1704 1714 1715 0=0
Split                    splitncnn_217            1 2 1715 1716 1717
Crop                     select_55                1 1 41 1718 -23310=1,1 -23311=1,0 -23309=1,0
Crop                     select_56                1 1 21 1719 -23310=1,1 -23311=1,0 -23309=1,0
PoolingModuleNoProj      pooling_modul_no_proj_648 3 3 1717 1719 1718 1720 1721 1722
InnerProduct             linear_318               1 1 1720 1723 0=384 1=0 2=147456
BinaryOp                 add_314                  2 1 1716 1723 1724 0=0
Split                    splitncnn_218            1 2 1724 1725 1726
Crop                     select_57                1 1 61 1727 -23310=1,1 -23311=1,0 -23309=1,0
Crop                     select_58                1 1 81 1728 -23310=1,1 -23311=1,0 -23309=1,0
InnerProduct             linear_319               1 1 1726 1729 0=512 1=1 2=196608
Slice                    tensor_split_11          1 4 1729 1730 1731 1732 1733 -23300=4,192,192,96,-233 1=1
Concat                   cat_55                   2 1 1728 1732 1734 0=0
Reshape                  reshape_447              1 1 1734 1735 0=12 1=8 2=40
Reshape                  reshape_448              1 1 1730 1736 0=24 1=8 2=8
Reshape                  reshape_449              1 1 1733 1737 0=4 1=8 2=8
Concat                   cat_56                   2 1 1727 1731 1738 0=0
Reshape                  reshape_450              1 1 1738 1739 0=24 1=8 2=40
InnerProduct             linear_320               1 1 146 1740 0=32 1=0 2=12288
Reshape                  reshape_451              1 1 1740 1741 0=4 1=8 2=47
Permute                  permute_737              1 1 1741 1742 0=3
Split                    splitncnn_219            1 4 1742 1743 1744 1745 1746
Permute                  permute_735              1 1 1737 1747 0=2
MatMul                   matmul_543               2 1 1747 1746 1748
Permute                  permute_736              1 1 1739 1749 0=3
Permute                  permute_734              1 1 1736 1750 0=2
MatMul                   matmul_544               2 1 1750 1749 1751
TensorAsStrided          tensor_as_strided_803    1 1 1748 1752 -23300=3,8,8,40 -23301=3,376,46,1 2=7
BinaryOp                 add_315                  2 1 1751 1752 1753 0=0
Reshape                  view_487                 1 1 1753 1754 0=40 1=8 2=8
Softmax                  softmax_123              1 1 1754 1755 0=-1 1=1
Split                    splitncnn_220            1 2 1755 1756 1757
Permute                  permute_733              1 1 1735 1758 0=2
MatMul                   bmm_513                  2 1 1757 1758 1759
Permute                  permute_738              1 1 1759 1760 0=2
Reshape                  reshape_452              1 1 1760 1761 0=96 1=8
InnerProduct             linear_321               1 1 1761 1762 0=384 1=1 2=36864
BinaryOp                 add_316                  2 1 1725 1762 1763 0=0
Split                    splitncnn_221            1 2 1763 1764 1765
Permute                  permute_612              1 1 1765 1766 0=1
Convolution1D            conv1d_171               1 1 1766 1767 0=768 1=1 2=1 3=1 4=0 5=1 6=294912
GLU                      glu_22                   1 1 1767 1768 0=0
Concat                   cat_57                   2 1 1701 1768 1769 0=1
ConvolutionDepthWise1D   convdw1d_837             1 1 1769 1770 0=384 1=31 2=1 3=1 4=0 5=1 6=11904 7=384
Split                    splitncnn_222            1 2 1770 1771 1772
BinaryOp                 sub_317                  1 1 1771 1773 0=1 1=1 2=1.000000e+00
Sigmoid                  sigmoid_89               1 1 1773 1774
BinaryOp                 mul_318                  2 1 1772 1774 1775 0=2
Convolution1D            conv1d_172               1 1 1775 1776 0=384 1=1 2=1 3=1 4=0 5=1 6=147456
Permute                  permute_613              1 1 1776 1777 0=1
BinaryOp                 add_319                  2 1 1764 1777 1778 0=0
Split                    splitncnn_223            1 2 1778 1779 1780
InnerProduct             linear_322               1 1 1780 1781 0=1024 1=1 2=393216
Split                    splitncnn_224            1 2 1781 1782 1783
BinaryOp                 sub_320                  1 1 1782 1784 0=1 1=1 2=1.000000e+00
Sigmoid                  sigmoid_90               1 1 1784 1785
BinaryOp                 mul_321                  2 1 1783 1785 1786 0=2
InnerProduct             linear_323               1 1 1786 1787 0=384 1=1 2=393216
BinaryOp                 add_322                  2 1 1779 1787 1788 0=0
Split                    splitncnn_225            1 2 1788 1789 1790
Crop                     select_59                1 1 101 1791 -23310=1,1 -23311=1,0 -23309=1,0
InnerProduct             linear_324               1 1 1790 1792 0=96 1=0 2=36864
Concat                   cat_58                   2 1 1791 1792 1793 0=0
Reshape                  reshape_453              1 1 1793 1794 0=12 1=8 2=40
Permute                  permute_739              1 1 1794 1795 0=2
MatMul                   bmm_514                  2 1 1756 1795 1796
Permute                  permute_740              1 1 1796 1797 0=2
Reshape                  reshape_454              1 1 1797 1798 0=96 1=8
InnerProduct             linear_325               1 1 1798 1799 0=384 1=1 2=36864
BinaryOp                 add_323                  2 1 1789 1799 1800 0=0
Split                    splitncnn_226            1 2 1800 1801 1802
Permute                  permute_614              1 1 1802 1803 0=1
Convolution1D            conv1d_173               1 1 1803 1804 0=768 1=1 2=1 3=1 4=0 5=1 6=294912
GLU                      glu_23                   1 1 1804 1805 0=0
Concat                   cat_59                   2 1 1703 1805 1806 0=1
ConvolutionDepthWise1D   convdw1d_838             1 1 1806 1807 0=384 1=31 2=1 3=1 4=0 5=1 6=11904 7=384
Split                    splitncnn_227            1 2 1807 1808 1809
BinaryOp                 sub_324                  1 1 1808 1810 0=1 1=1 2=1.000000e+00
Sigmoid                  sigmoid_91               1 1 1810 1811
BinaryOp                 mul_325                  2 1 1809 1811 1812 0=2
Convolution1D            conv1d_174               1 1 1812 1813 0=384 1=1 2=1 3=1 4=0 5=1 6=147456
Permute                  permute_615              1 1 1813 1814 0=1
BinaryOp                 add_326                  2 1 1801 1814 1815 0=0
Split                    splitncnn_228            1 2 1815 1816 1817
InnerProduct             linear_326               1 1 1817 1818 0=1024 1=1 2=393216
Split                    splitncnn_229            1 2 1818 1819 1820
BinaryOp                 sub_327                  1 1 1819 1821 0=1 1=1 2=1.000000e+00
Sigmoid                  sigmoid_92               1 1 1821 1822
BinaryOp                 mul_328                  2 1 1820 1822 1823 0=2
InnerProduct             linear_327               1 1 1823 1824 0=384 1=1 2=393216
BinaryOp                 add_329                  2 1 1816 1824 1825 0=0
Split                    splitncnn_230            1 3 1825 1826 1827 1828
BinaryOp                 mul_330                  2 1 1826 1827 1829 0=2
Reduction                mean_562                 1 1 1829 1830 0=3 1=0 -23303=1,-1 4=1 5=1
BinaryOp                 add_331                  1 1 1830 1831 0=0 1=1 2=2.500000e-01
BinaryOp                 pow_332                  1 1 1831 1832 0=6 1=1 2=-5.000000e-01
BinaryOp                 mul_333                  2 1 1828 1832 1833 0=2
BinaryOp                 sub_334                  2 1 1833 1705 1834 0=1
BinaryOp                 mul_335                  2 1 1834 145 1835 0=2
BinaryOp                 add_336                  2 1 1706 1835 1836 0=0
Split                    splitncnn_231            1 4 1836 1837 1838 1839 1840
Crop                     crop_786                 1 1 120 1841 -23310=1,2 -23311=1,0 -23309=1,1
Reshape                  encoder.encoders.4.encoder.state_select_list.1_ncnnreshape0 1 1 1841 1842 0=0 1=0
Crop                     crop_787                 1 1 140 1843 -23310=1,2 -23311=1,0 -23309=1,1
Reshape                  pnnx_unique_113_ncnnreshape0 1 1 1843 1844 0=0 1=0
InnerProduct             linear_328               1 1 1840 1845 0=1024 1=1 2=393216
Split                    splitncnn_232            1 2 1845 1846 1847
BinaryOp                 sub_337                  1 1 1846 1848 0=1 1=1 2=1.000000e+00
Sigmoid                  sigmoid_93               1 1 1848 1849
BinaryOp                 mul_338                  2 1 1847 1849 1850 0=2
InnerProduct             linear_329               1 1 1850 1851 0=384 1=1 2=393216
BinaryOp                 add_339                  2 1 1837 1851 1852 0=0
Split                    splitncnn_233            1 2 1852 1853 1854
Crop                     select_60                1 1 40 1855 -23310=1,2 -23311=1,0 -23309=1,1
Crop                     select_61                1 1 20 1856 -23310=1,2 -23311=1,0 -23309=1,1
PoolingModuleNoProj      pooling_modul_no_proj_649 3 3 1854 1856 1855 1857 1858 1859
InnerProduct             linear_330               1 1 1857 1860 0=384 1=0 2=147456
BinaryOp                 add_340                  2 1 1853 1860 1861 0=0
Split                    splitncnn_234            1 2 1861 1862 1863
Crop                     select_62                1 1 60 1864 -23310=1,2 -23311=1,0 -23309=1,1
Crop                     select_63                1 1 80 1865 -23310=1,2 -23311=1,0 -23309=1,1
InnerProduct             linear_331               1 1 1863 1866 0=512 1=1 2=196608
Slice                    tensor_split_12          1 4 1866 1867 1868 1869 1870 -23300=4,192,192,96,-233 1=1
Concat                   cat_60                   2 1 1865 1869 1871 0=0
Reshape                  reshape_455              1 1 1871 1872 0=12 1=8 2=40
Reshape                  reshape_456              1 1 1867 1873 0=24 1=8 2=8
Reshape                  reshape_457              1 1 1870 1874 0=4 1=8 2=8
Concat                   cat_61                   2 1 1864 1868 1875 0=0
Reshape                  reshape_458              1 1 1875 1876 0=24 1=8 2=40
Permute                  permute_743              1 1 1874 1877 0=2
MatMul                   matmul_545               2 1 1877 1745 1878
Permute                  permute_744              1 1 1876 1879 0=3
Permute                  permute_742              1 1 1873 1880 0=2
MatMul                   matmul_546               2 1 1880 1879 1881
TensorAsStrided          tensor_as_strided_804    1 1 1878 1882 -23300=3,8,8,40 -23301=3,376,46,1 2=7
BinaryOp                 add_341                  2 1 1881 1882 1883 0=0
Reshape                  view_488                 1 1 1883 1884 0=40 1=8 2=8
Softmax                  softmax_124              1 1 1884 1885 0=-1 1=1
Split                    splitncnn_235            1 2 1885 1886 1887
Permute                  permute_741              1 1 1872 1888 0=2
MatMul                   bmm_515                  2 1 1887 1888 1889
Permute                  permute_745              1 1 1889 1890 0=2
Reshape                  reshape_459              1 1 1890 1891 0=96 1=8
InnerProduct             linear_332               1 1 1891 1892 0=384 1=1 2=36864
BinaryOp                 add_342                  2 1 1862 1892 1893 0=0
Split                    splitncnn_236            1 2 1893 1894 1895
Permute                  permute_616              1 1 1895 1896 0=1
Convolution1D            conv1d_175               1 1 1896 1897 0=768 1=1 2=1 3=1 4=0 5=1 6=294912
GLU                      glu_24                   1 1 1897 1898 0=0
Concat                   cat_62                   2 1 1842 1898 1899 0=1
ConvolutionDepthWise1D   convdw1d_839             1 1 1899 1900 0=384 1=31 2=1 3=1 4=0 5=1 6=11904 7=384
Split                    splitncnn_237            1 2 1900 1901 1902
BinaryOp                 sub_343                  1 1 1901 1903 0=1 1=1 2=1.000000e+00
Sigmoid                  sigmoid_94               1 1 1903 1904
BinaryOp                 mul_344                  2 1 1902 1904 1905 0=2
Convolution1D            conv1d_176               1 1 1905 1906 0=384 1=1 2=1 3=1 4=0 5=1 6=147456
Permute                  permute_617              1 1 1906 1907 0=1
BinaryOp                 add_345                  2 1 1894 1907 1908 0=0
Split                    splitncnn_238            1 2 1908 1909 1910
InnerProduct             linear_333               1 1 1910 1911 0=1024 1=1 2=393216
Split                    splitncnn_239            1 2 1911 1912 1913
BinaryOp                 sub_346                  1 1 1912 1914 0=1 1=1 2=1.000000e+00
Sigmoid                  sigmoid_95               1 1 1914 1915
BinaryOp                 mul_347                  2 1 1913 1915 1916 0=2
InnerProduct             linear_334               1 1 1916 1917 0=384 1=1 2=393216
BinaryOp                 add_348                  2 1 1909 1917 1918 0=0
Split                    splitncnn_240            1 2 1918 1919 1920
Crop                     select_64                1 1 100 1921 -23310=1,2 -23311=1,0 -23309=1,1
InnerProduct             linear_335               1 1 1920 1922 0=96 1=0 2=36864
Concat                   cat_63                   2 1 1921 1922 1923 0=0
Reshape                  reshape_460              1 1 1923 1924 0=12 1=8 2=40
Permute                  permute_746              1 1 1924 1925 0=2
MatMul                   bmm_516                  2 1 1886 1925 1926
Permute                  permute_747              1 1 1926 1927 0=2
Reshape                  reshape_461              1 1 1927 1928 0=96 1=8
InnerProduct             linear_336               1 1 1928 1929 0=384 1=1 2=36864
BinaryOp                 add_349                  2 1 1919 1929 1930 0=0
Split                    splitncnn_241            1 2 1930 1931 1932
Permute                  permute_618              1 1 1932 1933 0=1
Convolution1D            conv1d_177               1 1 1933 1934 0=768 1=1 2=1 3=1 4=0 5=1 6=294912
GLU                      glu_25                   1 1 1934 1935 0=0
Concat                   cat_64                   2 1 1844 1935 1936 0=1
ConvolutionDepthWise1D   convdw1d_840             1 1 1936 1937 0=384 1=31 2=1 3=1 4=0 5=1 6=11904 7=384
Split                    splitncnn_242            1 2 1937 1938 1939
BinaryOp                 sub_350                  1 1 1938 1940 0=1 1=1 2=1.000000e+00
Sigmoid                  sigmoid_96               1 1 1940 1941
BinaryOp                 mul_351                  2 1 1939 1941 1942 0=2
Convolution1D            conv1d_178               1 1 1942 1943 0=384 1=1 2=1 3=1 4=0 5=1 6=147456
Permute                  permute_619              1 1 1943 1944 0=1
BinaryOp                 add_352                  2 1 1931 1944 1945 0=0
Split                    splitncnn_243            1 2 1945 1946 1947
InnerProduct             linear_337               1 1 1947 1948 0=1024 1=1 2=393216
Split                    splitncnn_244            1 2 1948 1949 1950
BinaryOp                 sub_353                  1 1 1949 1951 0=1 1=1 2=1.000000e+00
Sigmoid                  sigmoid_97               1 1 1951 1952
BinaryOp                 mul_354                  2 1 1950 1952 1953 0=2
InnerProduct             linear_338               1 1 1953 1954 0=384 1=1 2=393216
BinaryOp                 add_355                  2 1 1946 1954 1955 0=0
Split                    splitncnn_245            1 3 1955 1956 1957 1958
BinaryOp                 mul_356                  2 1 1956 1957 1959 0=2
Reduction                mean_563                 1 1 1959 1960 0=3 1=0 -23303=1,-1 4=1 5=1
BinaryOp                 add_357                  1 1 1960 1961 0=0 1=1 2=2.500000e-01
BinaryOp                 pow_358                  1 1 1961 1962 0=6 1=1 2=-5.000000e-01
BinaryOp                 mul_359                  2 1 1958 1962 1963 0=2
BinaryOp                 sub_360                  2 1 1963 1838 1964 0=1
BinaryOp                 mul_361                  2 1 1964 144 1965 0=2
BinaryOp                 add_362                  2 1 1839 1965 1966 0=0
Split                    splitncnn_246            1 4 1966 1967 1968 1969 1970
Crop                     crop_788                 1 1 119 1971 -23310=1,3 -23311=1,0 -23309=1,2
Reshape                  encoder.encoders.4.encoder.state_select_list.2_ncnnreshape0 1 1 1971 1972 0=0 1=0
Crop                     crop_789                 1 1 139 1973 -23310=1,3 -23311=1,0 -23309=1,2
Reshape                  pnnx_unique_121_ncnnreshape0 1 1 1973 1974 0=0 1=0
InnerProduct             linear_339               1 1 1970 1975 0=1024 1=1 2=393216
Split                    splitncnn_247            1 2 1975 1976 1977
BinaryOp                 sub_363                  1 1 1976 1978 0=1 1=1 2=1.000000e+00
Sigmoid                  sigmoid_98               1 1 1978 1979
BinaryOp                 mul_364                  2 1 1977 1979 1980 0=2
InnerProduct             linear_340               1 1 1980 1981 0=384 1=1 2=393216
BinaryOp                 add_365                  2 1 1967 1981 1982 0=0
Split                    splitncnn_248            1 2 1982 1983 1984
Crop                     select_65                1 1 39 1985 -23310=1,3 -23311=1,0 -23309=1,2
Crop                     select_66                1 1 19 1986 -23310=1,3 -23311=1,0 -23309=1,2
PoolingModuleNoProj      pooling_modul_no_proj_650 3 3 1984 1986 1985 1987 1988 1989
InnerProduct             linear_341               1 1 1987 1990 0=384 1=0 2=147456
BinaryOp                 add_366                  2 1 1983 1990 1991 0=0
Split                    splitncnn_249            1 2 1991 1992 1993
Crop                     select_67                1 1 59 1994 -23310=1,3 -23311=1,0 -23309=1,2
Crop                     select_68                1 1 79 1995 -23310=1,3 -23311=1,0 -23309=1,2
InnerProduct             linear_342               1 1 1993 1996 0=512 1=1 2=196608
Slice                    tensor_split_13          1 4 1996 1997 1998 1999 2000 -23300=4,192,192,96,-233 1=1
Concat                   cat_65                   2 1 1995 1999 2001 0=0
Reshape                  reshape_462              1 1 2001 2002 0=12 1=8 2=40
Reshape                  reshape_463              1 1 1997 2003 0=24 1=8 2=8
Reshape                  reshape_464              1 1 2000 2004 0=4 1=8 2=8
Concat                   cat_66                   2 1 1994 1998 2005 0=0
Reshape                  reshape_465              1 1 2005 2006 0=24 1=8 2=40
Permute                  permute_750              1 1 2004 2007 0=2
MatMul                   matmul_547               2 1 2007 1744 2008
Permute                  permute_751              1 1 2006 2009 0=3
Permute                  permute_749              1 1 2003 2010 0=2
MatMul                   matmul_548               2 1 2010 2009 2011
TensorAsStrided          tensor_as_strided_805    1 1 2008 2012 -23300=3,8,8,40 -23301=3,376,46,1 2=7
BinaryOp                 add_367                  2 1 2011 2012 2013 0=0
Reshape                  view_489                 1 1 2013 2014 0=40 1=8 2=8
Softmax                  softmax_125              1 1 2014 2015 0=-1 1=1
Split                    splitncnn_250            1 2 2015 2016 2017
Permute                  permute_748              1 1 2002 2018 0=2
MatMul                   bmm_517                  2 1 2017 2018 2019
Permute                  permute_752              1 1 2019 2020 0=2
Reshape                  reshape_466              1 1 2020 2021 0=96 1=8
InnerProduct             linear_343               1 1 2021 2022 0=384 1=1 2=36864
BinaryOp                 add_368                  2 1 1992 2022 2023 0=0
Split                    splitncnn_251            1 2 2023 2024 2025
Permute                  permute_620              1 1 2025 2026 0=1
Convolution1D            conv1d_179               1 1 2026 2027 0=768 1=1 2=1 3=1 4=0 5=1 6=294912
GLU                      glu_26                   1 1 2027 2028 0=0
Concat                   cat_67                   2 1 1972 2028 2029 0=1
ConvolutionDepthWise1D   convdw1d_841             1 1 2029 2030 0=384 1=31 2=1 3=1 4=0 5=1 6=11904 7=384
Split                    splitncnn_252            1 2 2030 2031 2032
BinaryOp                 sub_369                  1 1 2031 2033 0=1 1=1 2=1.000000e+00
Sigmoid                  sigmoid_99               1 1 2033 2034
BinaryOp                 mul_370                  2 1 2032 2034 2035 0=2
Convolution1D            conv1d_180               1 1 2035 2036 0=384 1=1 2=1 3=1 4=0 5=1 6=147456
Permute                  permute_621              1 1 2036 2037 0=1
BinaryOp                 add_371                  2 1 2024 2037 2038 0=0
Split                    splitncnn_253            1 2 2038 2039 2040
InnerProduct             linear_344               1 1 2040 2041 0=1024 1=1 2=393216
Split                    splitncnn_254            1 2 2041 2042 2043
BinaryOp                 sub_372                  1 1 2042 2044 0=1 1=1 2=1.000000e+00
Sigmoid                  sigmoid_100              1 1 2044 2045
BinaryOp                 mul_373                  2 1 2043 2045 2046 0=2
InnerProduct             linear_345               1 1 2046 2047 0=384 1=1 2=393216
BinaryOp                 add_374                  2 1 2039 2047 2048 0=0
Split                    splitncnn_255            1 2 2048 2049 2050
Crop                     select_69                1 1 99 2051 -23310=1,3 -23311=1,0 -23309=1,2
InnerProduct             linear_346               1 1 2050 2052 0=96 1=0 2=36864
Concat                   cat_68                   2 1 2051 2052 2053 0=0
Reshape                  reshape_467              1 1 2053 2054 0=12 1=8 2=40
Permute                  permute_753              1 1 2054 2055 0=2
MatMul                   bmm_518                  2 1 2016 2055 2056
Permute                  permute_754              1 1 2056 2057 0=2
Reshape                  reshape_468              1 1 2057 2058 0=96 1=8
InnerProduct             linear_347               1 1 2058 2059 0=384 1=1 2=36864
BinaryOp                 add_375                  2 1 2049 2059 2060 0=0
Split                    splitncnn_256            1 2 2060 2061 2062
Permute                  permute_622              1 1 2062 2063 0=1
Convolution1D            conv1d_181               1 1 2063 2064 0=768 1=1 2=1 3=1 4=0 5=1 6=294912
GLU                      glu_27                   1 1 2064 2065 0=0
Concat                   cat_69                   2 1 1974 2065 2066 0=1
ConvolutionDepthWise1D   convdw1d_842             1 1 2066 2067 0=384 1=31 2=1 3=1 4=0 5=1 6=11904 7=384
Split                    splitncnn_257            1 2 2067 2068 2069
BinaryOp                 sub_376                  1 1 2068 2070 0=1 1=1 2=1.000000e+00
Sigmoid                  sigmoid_101              1 1 2070 2071
BinaryOp                 mul_377                  2 1 2069 2071 2072 0=2
Convolution1D            conv1d_182               1 1 2072 2073 0=384 1=1 2=1 3=1 4=0 5=1 6=147456
Permute                  permute_623              1 1 2073 2074 0=1
BinaryOp                 add_378                  2 1 2061 2074 2075 0=0
Split                    splitncnn_258            1 2 2075 2076 2077
InnerProduct             linear_348               1 1 2077 2078 0=1024 1=1 2=393216
Split                    splitncnn_259            1 2 2078 2079 2080
BinaryOp                 sub_379                  1 1 2079 2081 0=1 1=1 2=1.000000e+00
Sigmoid                  sigmoid_102              1 1 2081 2082
BinaryOp                 mul_380                  2 1 2080 2082 2083 0=2
InnerProduct             linear_349               1 1 2083 2084 0=384 1=1 2=393216
BinaryOp                 add_381                  2 1 2076 2084 2085 0=0
Split                    splitncnn_260            1 3 2085 2086 2087 2088
BinaryOp                 mul_382                  2 1 2086 2087 2089 0=2
Reduction                mean_564                 1 1 2089 2090 0=3 1=0 -23303=1,-1 4=1 5=1
BinaryOp                 add_383                  1 1 2090 2091 0=0 1=1 2=2.500000e-01
BinaryOp                 pow_384                  1 1 2091 2092 0=6 1=1 2=-5.000000e-01
BinaryOp                 mul_385                  2 1 2088 2092 2093 0=2
BinaryOp                 sub_386                  2 1 2093 1968 2094 0=1
BinaryOp                 mul_387                  2 1 2094 143 2095 0=2
BinaryOp                 add_388                  2 1 1969 2095 2096 0=0
Split                    splitncnn_261            1 4 2096 2097 2098 2099 2100
Crop                     crop_790                 1 1 118 2101 -23310=1,4 -23311=1,0 -23309=1,3
Reshape                  encoder.encoders.4.encoder.state_select_list.3_ncnnreshape0 1 1 2101 2102 0=0 1=0
Crop                     crop_791                 1 1 138 2103 -23310=1,4 -23311=1,0 -23309=1,3
Reshape                  pnnx_unique_129_ncnnreshape0 1 1 2103 2104 0=0 1=0
InnerProduct             linear_350               1 1 2100 2105 0=1024 1=1 2=393216
Split                    splitncnn_262            1 2 2105 2106 2107
BinaryOp                 sub_389                  1 1 2106 2108 0=1 1=1 2=1.000000e+00
Sigmoid                  sigmoid_103              1 1 2108 2109
BinaryOp                 mul_390                  2 1 2107 2109 2110 0=2
InnerProduct             linear_351               1 1 2110 2111 0=384 1=1 2=393216
BinaryOp                 add_391                  2 1 2097 2111 2112 0=0
Split                    splitncnn_263            1 2 2112 2113 2114
Crop                     select_70                1 1 38 2115 -23310=1,4 -23311=1,0 -23309=1,3
Crop                     select_71                1 1 18 2116 -23310=1,4 -23311=1,0 -23309=1,3
PoolingModuleNoProj      pooling_modul_no_proj_651 3 3 2114 2116 2115 2117 2118 2119
InnerProduct             linear_352               1 1 2117 2120 0=384 1=0 2=147456
BinaryOp                 add_392                  2 1 2113 2120 2121 0=0
Split                    splitncnn_264            1 2 2121 2122 2123
Crop                     select_72                1 1 58 2124 -23310=1,4 -23311=1,0 -23309=1,3
Crop                     select_73                1 1 78 2125 -23310=1,4 -23311=1,0 -23309=1,3
InnerProduct             linear_353               1 1 2123 2126 0=512 1=1 2=196608
Slice                    tensor_split_14          1 4 2126 2127 2128 2129 2130 -23300=4,192,192,96,-233 1=1
Concat                   cat_70                   2 1 2125 2129 2131 0=0
Reshape                  reshape_469              1 1 2131 2132 0=12 1=8 2=40
Reshape                  reshape_470              1 1 2127 2133 0=24 1=8 2=8
Reshape                  reshape_471              1 1 2130 2134 0=4 1=8 2=8
Concat                   cat_71                   2 1 2124 2128 2135 0=0
Reshape                  reshape_472              1 1 2135 2136 0=24 1=8 2=40
Permute                  permute_757              1 1 2134 2137 0=2
MatMul                   matmul_549               2 1 2137 1743 2138
Permute                  permute_758              1 1 2136 2139 0=3
Permute                  permute_756              1 1 2133 2140 0=2
MatMul                   matmul_550               2 1 2140 2139 2141
TensorAsStrided          tensor_as_strided_806    1 1 2138 2142 -23300=3,8,8,40 -23301=3,376,46,1 2=7
BinaryOp                 add_393                  2 1 2141 2142 2143 0=0
Reshape                  view_490                 1 1 2143 2144 0=40 1=8 2=8
Softmax                  softmax_126              1 1 2144 2145 0=-1 1=1
Split                    splitncnn_265            1 2 2145 2146 2147
Permute                  permute_755              1 1 2132 2148 0=2
MatMul                   bmm_519                  2 1 2147 2148 2149
Permute                  permute_759              1 1 2149 2150 0=2
Reshape                  reshape_473              1 1 2150 2151 0=96 1=8
InnerProduct             linear_354               1 1 2151 2152 0=384 1=1 2=36864
BinaryOp                 add_394                  2 1 2122 2152 2153 0=0
Split                    splitncnn_266            1 2 2153 2154 2155
Permute                  permute_624              1 1 2155 2156 0=1
Convolution1D            conv1d_183               1 1 2156 2157 0=768 1=1 2=1 3=1 4=0 5=1 6=294912
GLU                      glu_28                   1 1 2157 2158 0=0
Concat                   cat_72                   2 1 2102 2158 2159 0=1
ConvolutionDepthWise1D   convdw1d_843             1 1 2159 2160 0=384 1=31 2=1 3=1 4=0 5=1 6=11904 7=384
Split                    splitncnn_267            1 2 2160 2161 2162
BinaryOp                 sub_395                  1 1 2161 2163 0=1 1=1 2=1.000000e+00
Sigmoid                  sigmoid_104              1 1 2163 2164
BinaryOp                 mul_396                  2 1 2162 2164 2165 0=2
Convolution1D            conv1d_184               1 1 2165 2166 0=384 1=1 2=1 3=1 4=0 5=1 6=147456
Permute                  permute_625              1 1 2166 2167 0=1
BinaryOp                 add_397                  2 1 2154 2167 2168 0=0
Split                    splitncnn_268            1 2 2168 2169 2170
InnerProduct             linear_355               1 1 2170 2171 0=1024 1=1 2=393216
Split                    splitncnn_269            1 2 2171 2172 2173
BinaryOp                 sub_398                  1 1 2172 2174 0=1 1=1 2=1.000000e+00
Sigmoid                  sigmoid_105              1 1 2174 2175
BinaryOp                 mul_399                  2 1 2173 2175 2176 0=2
InnerProduct             linear_356               1 1 2176 2177 0=384 1=1 2=393216
BinaryOp                 add_400                  2 1 2169 2177 2178 0=0
Split                    splitncnn_270            1 2 2178 2179 2180
Crop                     select_74                1 1 98 2181 -23310=1,4 -23311=1,0 -23309=1,3
InnerProduct             linear_357               1 1 2180 2182 0=96 1=0 2=36864
Concat                   cat_73                   2 1 2181 2182 2183 0=0
Reshape                  reshape_474              1 1 2183 2184 0=12 1=8 2=40
Permute                  permute_760              1 1 2184 2185 0=2
MatMul                   bmm_520                  2 1 2146 2185 2186
Permute                  permute_761              1 1 2186 2187 0=2
Reshape                  reshape_475              1 1 2187 2188 0=96 1=8
InnerProduct             linear_358               1 1 2188 2189 0=384 1=1 2=36864
BinaryOp                 add_401                  2 1 2179 2189 2190 0=0
Split                    splitncnn_271            1 2 2190 2191 2192
Permute                  permute_626              1 1 2192 2193 0=1
Convolution1D            conv1d_185               1 1 2193 2194 0=768 1=1 2=1 3=1 4=0 5=1 6=294912
GLU                      glu_29                   1 1 2194 2195 0=0
Concat                   cat_74                   2 1 2104 2195 2196 0=1
ConvolutionDepthWise1D   convdw1d_844             1 1 2196 2197 0=384 1=31 2=1 3=1 4=0 5=1 6=11904 7=384
Split                    splitncnn_272            1 2 2197 2198 2199
BinaryOp                 sub_402                  1 1 2198 2200 0=1 1=1 2=1.000000e+00
Sigmoid                  sigmoid_106              1 1 2200 2201
BinaryOp                 mul_403                  2 1 2199 2201 2202 0=2
Convolution1D            conv1d_186               1 1 2202 2203 0=384 1=1 2=1 3=1 4=0 5=1 6=147456
Permute                  permute_627              1 1 2203 2204 0=1
BinaryOp                 add_404                  2 1 2191 2204 2205 0=0
Split                    splitncnn_273            1 2 2205 2206 2207
InnerProduct             linear_359               1 1 2207 2208 0=1024 1=1 2=393216
Split                    splitncnn_274            1 2 2208 2209 2210
BinaryOp                 sub_405                  1 1 2209 2211 0=1 1=1 2=1.000000e+00
Sigmoid                  sigmoid_107              1 1 2211 2212
BinaryOp                 mul_406                  2 1 2210 2212 2213 0=2
InnerProduct             linear_360               1 1 2213 2214 0=384 1=1 2=393216
BinaryOp                 add_407                  2 1 2206 2214 2215 0=0
Split                    splitncnn_275            1 3 2215 2216 2217 2218
BinaryOp                 mul_408                  2 1 2216 2217 2219 0=2
Reduction                mean_565                 1 1 2219 2220 0=3 1=0 -23303=1,-1 4=1 5=1
BinaryOp                 add_409                  1 1 2220 2221 0=0 1=1 2=2.500000e-01
BinaryOp                 pow_410                  1 1 2221 2222 0=6 1=1 2=-5.000000e-01
BinaryOp                 mul_411                  2 1 2218 2222 2223 0=2
BinaryOp                 sub_412                  2 1 2223 2098 2224 0=1
BinaryOp                 mul_413                  2 1 2224 142 2225 0=2
BinaryOp                 add_414                  2 1 2099 2225 2226 0=0
MemoryData               encoder.encoders.4.out_combiner 0 1 2227 0=1
BinaryOp                 mul_415                  2 1 1689 2227 2228 0=2
SimpleUpsample           simple_upsample_814      1 1 2226 2229 0=2 1=384 2=768
BinaryOp                 add_416                  2 1 2228 2229 out0 0=0
